dAE_PyTorch/checkpoints/spectra_dae_epoch_7.pth (torch, 18875 bytes, 13 tensors)

conv1.weight f4 [32, 1, 3]
00000000: e463 213f ef3e 0c3f 21b4 09be 8f07 f6bd
00000010: 3d84 2abe b914 013f 3373 22bf 9821 203f
00000020: c283 763c cffb d5bc 7434 1ebd feaa 4a3f
00000030: 7b41 073f cd7a 04be e2e3 32be da80 a63c
00000040: 1552 32bf 13ab ea3e 0864 0dbf b7c2 17bf
00000050: 1ade 9b3e 7027 333f e749 2b3e 8d8e 14bf
00000060: fc42 8fbc a6d2 7bbf b7a4 863b 9008 093d
00000070: 16b2 c63e d3ea 003f 3ca0 f0be fed7 a03e
00000080: 4b89 16bf fb25 1fbf 1d91 02bd e63a 153f
00000090: e96b 763e 9fe7 013e eeb5 d73e 8079 053f
000000a0: 87a2 cbbe 804e 34bf 7427 1a3f 8b5c 65bd
000000b0: 4d68 873e 532e 3cbe 9690 353f 80f1 b9be
000000c0: 6f3d 23bb e1bd 95bf adfb 12bb a243 9a3e
000000d0: 26ce 823e c215 933e e8bb 72bf b85f b23d
000000e0: b9f4 873d f8e2 b43e c77c 683e 9159 a63e
000000f0: 35a0 dd3d 93f3 613e 9874 0bbe bf8c 64bf
00000100: 7dc5 30bb 1402 cbbc 1002 4b3f 20b3 a1be
00000110: fe89 d9bd ba4c f7be b06a 25bf a22d 20bf
00000120: 1684 02bf 1d56 2abf 7084 5e3d 5977 d5be
00000130: 25cc d5be 33a0 0ebf 37d0 b5be 6b96 f5be
00000140: e421 b8be 84a9 343e 2184 ae3e 908d babf
00000150: dc74 83be f3d3 9ebe 6ec5 38bf 9963 6bbd
00000160: 5ccf 633e e82f 5abf c905 e2bc fb89 503f
00000170: b64a 1abd bc65 a6bf 699d 813e 3cff 043e
0.63043046 0.5478353 -0.1344762 -0.120131604 -0.16652007 0.50422245 -0.6345703 0.6255126
0.015046062 -0.026121048 -0.038624242 0.79167163 0.5283429 -0.1293747 -0.17469743 0.020325113
-0.696565 0.45833644 -0.5523076 -0.59281486 0.30442888 0.6998205 0.1672741 -0.58030015
-0.017487995 -0.983683 0.004108991 0.03345543 0.38807744 0.50358313 -0.4699725 0.3141479
-0.5880324 -0.6216733 -0.031876672 0.58292997 0.24064602 0.12686013 0.4213099 0.5213852
-0.39772436 -0.7043228 0.6021645 -0.05599646 0.26446763 -0.18377046 0.70923746 -0.36317062
-0.0024908443 -1.1698571 -0.0022427842 0.30129725 0.25547904 0.28727537 -0.9481797 0.08709663
0.06638474 0.35329413 0.22703849 0.3249021 0.10821573 0.22065572 -0.13618696 -0.8927726
-0.002697318 -0.024781264 0.7930002 -0.31581974 -0.10622023 -0.48300725 -0.6461592 -0.6256963
-0.509828 -0.6653765 0.05432552 -0.41692618 -0.41757312 -0.55713195 -0.35510418 -0.47966322
-0.35963356 0.1764279 0.3408518 -1.4574451 -0.25675094 -0.3102108 -0.72176254 -0.05746803
0.2224707 -0.8522935 -0.02759065 0.8146054 -0.037668906 -1.2999797 0.25315407 0.12987989

conv1.bias f4 [32]
00000000: 14ed 59be 5beb 87bd 6089 01bd 8f11 31bf
00000010: 5caf 89be 2af6 f13b 2a18 7e3e adde 71be
00000020: 3cea 5a3e 9126 abbe bcfb ae3e b495 d2bd
00000030: 03b3 d6be d91a 113e cba4 6cbe 63eb d4be
00000040: 8d3b 9c3d 00e0 75be a34e a63e 5a50 24bf
00000050: b420 32be 3d86 5d3e efa7 aebe 47b8 7abd
00000060: c16d 253f 8709 09bd af8b e73e 15af f0bd
00000070: 75c6 a7be 433d 763e 56d1 3abf 00df 7ebd
-0.21281844 -0.06636687 -0.03162515 -0.6916742 -0.268916 0.0073840814 0.24813905 -0.236201
0.21378416 -0.3342786 0.34176433 -0.1028246 -0.4193345 0.14170398 -0.23109739 -0.41585836
0.07628546 -0.2401123 0.3248187 -0.64185107 -0.17395288 0.21633239 -0.34112498 -0.061210897
0.64620596 -0.03345635 0.45223758 -0.11752144 -0.32768598 0.24046807 -0.7297567 -0.062224388

conv2.weight f4 [16, 32, 3]
00000000: e6d6 06bd 26f7 cf3d 1b3c bb3c 15f2 5e3d
00000010: 1ca4 16be 583f 803e 743c 843e a341 0a3e
00000020: 9b46 5a3d 5105 193f c87d 9e3f 5c81 2340
00000030: 1698 c2bc 9721 c9bc 1257 333d cd5e c4be
00000040: beb3 14be 7f26 2cbe f1c0 67be a8df 5ebe
00000050: d029 81be 9e64 2abe 7842 0b3e 5952 68be
00000060: 00fa 0abe 76ec 43bd b1a1 79be bb24 353d
00000070: 182b 593d 9adb d33e f649 923d a3f5 a23d
00000080: a06f 31bf 3572 7d3e e316 e33e 13a7 f63d
00000090: 7469 e739 34b8 883e 18b5 283f 5c8e f7bd
000000a0: 0173 673e 3d2b 07bf 5746 f9bd e06b 493d
000000b0: 9ffe 7f3e f954 293e 47a9 c83d 78b4 603d
000000c0: bcc7 95be 3726 aabe 79af 7bbe 2a85 13be
000000d0: e709 b23d d1bd 4d3e 6d46 523e 015d bd3d
000000e0: a898 31be 5918 5abe cfec 1d3f 5eb8 c13e
000000f0: a112 4ebe 6c9e 843e f003 5e3c 7da2 02be
00000100: 4600 1bbe 6010 183e a46a adbe a27a 98bd
00000110: 7cb0 e1bd f167 c5bd 1374 c8bd b2db 4bbe
00000120: d567 6ebd bbf6 a2bd e46f a6be 82e4 d4bd
00000130: 12fb 60be fc68 6dbe 19b6 293e a7b2 ddbe
00000140: 0888 28be e695 4dbe 94a6 5d3d de8c 8fbe
00000150: 7375 5dbc 070f 8dbc d14f 98be 0c57 6c3c
00000160: 35ee 6c3e dcc7 b8bf 77be 3c3f 8401 013f
00000170: 05bd c93f f846 fcbe 0b68 81be 0fa5 bdbd
00000180: 54b0 c9bb b221 423d d0c1 043e db2d 79be
00000190: 8b63 11bd 0701 ae3e ac49 41be 3d6c 573e
000001a0: b2a8 903d eb24 b03e e854 57be 7edd 713f
000001b0: 9cb5 953d a602 89bc 6bad 64be bec5 90b8
000001c0: 714a 693e e94e 0d3e 6666 813e 8284 a1bc
000001d0: 7ef4 163e adbf 263e 129d 18be 9649 16bf
000001e0: 0c0f 7c3e fa10 a83e 356e 903d 1a82 29bd
000001f0: a9fc 25bd fbfe b73e f9cc a7bd a221 763e
00000200: ec9a bfbe 6be1 8fbe 97a3 ee3e cbb1 473e
00000210: 286c 09be 0549 23be 88e0 853e 5d5f 7a3c
00000220: 6afe 2b3f c3eb 66bf 53aa 5c3d 0a45 1e3d
00000230: dc02 223e 8714 263e d96e c33c b2c8 03be
00000240: 4dc4 3ebe d75d 58be 0636 9abe b492 b7bc
00000250: 46a2 293d e9a1 733e d37b 84bd ef54 2d3e
00000260: f946 583e 4729 29bf fc6b 18bf 2357 65be
00000270: 3fae 543e 10c6 b2be e927 5dbe 1264 d93e
00000280: b24a 173e cc0b 143d 9bde 663e 2a89 b8bd
00000290: 6467 1cbf 555f d1bd 90b3 24be 3472 1cbe
000002a0: a87d 1cbe 4e87 e7bc 5490 17be 6861 f9bd
000002b0: 17c6 05be 3a0e 35be d50f 1c3f a2ca 833d
000002c0: 6d4d 93be 6e34 a83c d862 fcbd 3f34 72be
000002d0: 0fc6 1dbb 2d75 5cbd 0b22 6bbe 3028 673d
000002e0: 43e6 e43e de45 71bf dc0d 1c3f 6989 09be
000002f0: 9930 ecbd ecc0 a1be 8600 913e 444c 8e3e
00000300: 2a32 f9bd 9016 9f3d 5608 bdbd d810 aebe
00000310: ae54 50be b296 5b3e 31df 21be 5b6f fabd
00000320: bad1 433c bd24 c2be a997 ecbe 9fa8 4c3e
00000330: 790c 78be a194 3ebe 87a1 9f3e ad5b 15bf
00000340: c84a e6be 5a78 1d3e 6698 60bd 4ac2 59bd
00000350: 03c5 2cbf 6ede 433d dcbc 7abe b71d 873e
00000360: 58cc 8ebe f040 49be c1f5 19be b4b9 acbd
00000370: 6ca2 013e 18de b03d 45ea 503e 3d80 863e
00000380: e0ca 2dbf 5eb9 603e 8629 86be 8b98 c3bd
00000390: 309c 4bbd d84a 6f3d ffa7 1f3e 66fd 59be
000003a0: 66f7 be3f 2af5 dfbe ba5b 13bd 58b3 23bc
000003b0: 2376 033e 8f54 8dbd 616d 1abe bec8 e73e
000003c0: f938 fc3f 8c6c 833e 4f61 0f3f 3cdb fb3b
000003d0: 0e2b 223e d634 1fbd 8fa8 8a3d 5963 c83c
000003e0: f4fb 55bf 064e a7bd 789a 01be 174d a03e
000003f0: 60d3 c0bd b737 25be 7989 273e dc23 b33d
-0.032919787 0.10154562 0.022855809 0.054430086 -0.1471104 0.25048327 0.25827372 0.13501601
0.05328999 0.5977374 1.2382135 2.5547705 -0.02375416 -0.02455215 0.04378421 -0.38353577
-0.14521691 -0.1681156 -0.22632195 -0.21765006 -0.25227213 -0.16639945 0.13599575 -0.22687663
-0.1357193 -0.04783293 -0.24378087 0.044224482 0.053019613 0.4137848 0.07143013 0.07957008
-0.6931095 0.24750598 0.443534 0.12043586 0.00044138322 0.26703036 0.6590133 -0.120877
0.22602464 -0.5280035 -0.121716194 0.049175143 0.24999474 0.16536321 0.09797912 0.05485961
-0.29253948 -0.3323228 -0.24578656 -0.14406267 0.08693295 0.2009194 0.20534678 0.09246255
-0.1734339 -0.2129835 0.61689466 0.37835974 -0.20124294 0.25902116 0.013550743 -0.12757297
-0.15136823 0.14849997 -0.33870423 -0.07445265 -0.1101999 -0.09638966 -0.097877644 -0.19908026
-0.05820449 -0.07957216 -0.3250724 -0.10395147 -0.21970776 -0.2318458 0.16573371 -0.43300363
-0.16458142 -0.20076713 0.05411394 -0.2803716 -0.013516772 -0.01721908 -0.29748395 0.0144250505
0.23137744 -1.4435992 0.73728126 0.5039294 1.5760809 -0.49272895 -0.2527469 -0.09259998
-0.006155053 0.047395416 0.12964559 -0.24333899 -0.035495322 0.3398516 -0.1887576 0.21037383
0.07063426 0.34403166 -0.21028483 0.94478595 0.0731003 -0.016724896 -0.22331779 -6.9032874e-05
0.22782303 0.13799633 0.25273436 -0.019716505 0.14741704 0.16284056 -0.14903668 -0.58706033
0.24615115 0.32825452 0.0705227 -0.04138384 -0.04052416 0.35936722 -0.08193392 0.24036267
-0.37422884 -0.28101668 0.46609184 0.19501416 -0.13420165 -0.15945823 0.26147866 0.015281525
0.6718508 -0.90203494 0.05387337 0.03864006 0.15821403 0.16218768 0.023856567 -0.12869528
-0.1862957 -0.21129547 -0.30119342 -0.02240882 0.04141452 0.23792233 -0.0646893 0.16926931
0.21120824 -0.6607861 -0.5953977 -0.22396521 0.20769595 -0.34916735 -0.21597256 0.4245916
0.14774588 0.036144063 0.22545855 -0.09010537 -0.6109526 -0.10223261 -0.16084123 -0.1527794
-0.15282309 -0.02826276 -0.1480115 -0.12176782 -0.13063847 -0.17681208 0.6096166 0.064351335
-0.2877001 0.020532813 -0.123235404 -0.23652743 -0.002407435 -0.053822685 -0.22962205 0.05643481
0.44706926 -0.94247234 0.6095865 -0.13431324 -0.11532707 -0.315925 0.28320712 0.2779256
-0.12167771 0.07767975 -0.092301056 -0.33997226 -0.20344803 0.21444204 -0.15807797 -0.122282706
0.011951858 -0.37918654 -0.46209458 0.19986199 -0.24223508 -0.18611385 0.31177923 -0.5834301
-0.4497893 0.15377942 -0.05483284 -0.053163804 -0.67488116 0.047819547 -0.24486107 0.26389858
-0.27890277 -0.19653678 -0.15035154 -0.084338576 0.12659615 0.08636111 0.20401867 0.26269713
-0.6788769 0.21945712 -0.26203555 -0.0955058 -0.0497095 0.058420986 0.15591429 -0.2128807
1.491925 -0.43741733 -0.03597615 -0.009991489 0.12838034 -0.06900894 -0.15080787 0.45270342
1.9704887 0.25668752 0.56007856 0.007686047 0.15836737 -0.038868748 0.06770431 0.024461435
-0.83587575 -0.08169179 -0.12656581 0.31308815 -0.094153166 -0.16134535 0.16361035 0.08747074

conv2.bias f4 [16]
00000000: 39cd fdbd 5645 23bd 1e3a 1b3d c733 8bbd
00000010: 9dd0 c43d 3853 71bd 8d77 00be 3e23 2dbd
00000020: 71f6 343e faca cd3c 690d fc3c baaa bb3c
00000030: bc46 5b3d 9518 c9be dd35 1fbd 53b1 653e
-0.12392659 -0.039861046 0.03789722 -0.06796985 0.09610102 -0.058917254 -0.12545605 -0.042269938
0.17672135 0.0251212 0.030768113 0.022908557 0.053534254 -0.39276567 -0.038869727 0.22430925

conv3.weight f4 [8, 16, 3]
00000000: ecc6 36be c2f1 57bd 0cf1 c6be 1172 8cbd
00000010: f4a2 3e3e 9ad4 a2be eb22 593f e409 b33d
00000020: eb1f 993f 9507 2e3e 90a8 3abe c351 a5bd
00000030: dcda 1b3d c1c7 babd 31ca a63e f2fa 613e
00000040: 1b3b 35be dcca 26be 0f83 7dbe 43c7 cbbd
00000050: f7d8 f3be 275b a93e a382 8ebd f8f4 a03e
00000060: ff40 173e f8c8 1e3e 688a 2b3e 8e8c 0b3e
00000070: 4794 313e 873d 87bd dcb9 ac3e bef4 d03d
00000080: 17f2 ea3e 559f 9cbf dfc0 3abe f4a9 a5be
00000090: 22c8 713e 954b ff3d d796 ed3c be96 943d
000000a0: 1997 17bf 9ccd f2be 0542 843e 68e3 cdbd
000000b0: 04a1 4ebe f41d fa3d 1d79 c23d 8c23 183f
000000c0: 15ad 7b3d 6e97 93bd cd82 9f3e 9114 293e
000000d0: 2cea 22bd 6657 093e f5d4 ee3e 73a9 48be
000000e0: b9d1 e83d 72e6 fcbd 7258 513d 6239 a0bd
000000f0: f144 ac3c 981d 353d 929c d6bd ba05 2ebe
00000100: 4a4f c63d 2aea dfbc 25d7 0e3e ec62 563e
00000110: 3af5 d33d 2749 e0bb 7380 74bd 4621 8bbd
00000120: a985 66be ad18 debc f590 6cbe 9d8d 903e
00000130: ea43 413e 8ded cc3d 1b63 4dbd 4899 3bbe
00000140: 54d6 0e3e c87b c53f d3e9 ad3e 3500 843f
00000150: a6b5 753e 02ee 8b3e 82db b13e d7fc 55bc
00000160: 508f 143f 17b4 073f ebe4 b33d 2e96 203e
00000170: b00a aa3b 4d04 e4bd 6614 363d 19c6 adbd
00000180: c397 a23e 810f 8d3e 6eaf b8bd d6fc 43be
00000190: dad1 383e 576a a33e ac8b d93e e27a 99bf
000001a0: 24c1 dd3f 17da 183e 7f51 07be 69a8 4b3b
000001b0: c121 0bbd 4162 15be 9408 0a3d 44c5 f73e
000001c0: 6078 67be c850 5b3e c818 d7be ecda 133e
000001d0: 01d4 a0bd 6238 093e cdd7 8a3d 705d b1be
000001e0: 70b8 c23e eb19 833c b79e 433e f3d1 b8bc
000001f0: e7a1 1c3e 7096 9f3e 27a8 e53e 58e5 4b3d
00000200: d84a 6c3e 2e32 9cbf e6b1 c73d 550b 5abf
00000210: f71e 3ebd 085b 8dbd 0b40 80be f991 81be
00000220: c00e d4be d455 89be c4d2 89be 0294 4c3d
00000230: 2c70 113e c81b 903e c98a 9cbd fc58 ba3d
00000240: da64 cfbb 6010 a8bd 8bd5 e7be 676c 253e
00000250: 9818 c33d 5a14 6c3e 9a6e f1be 5174 0f3f
00000260: 3e0e b43f 89c2 e7bd 2894 1cbd 2fbf 663e
00000270: 2e5c 70bd 2a3d 97bd 9d7f 703e ce2e d0bd
00000280: 4353 a2bd 93e3 bd3e 5967 133e fcd9 cc3c
00000290: 1fd7 0bbe 72fa 053d e9b2 603d 8149 bfbe
000002a0: ea45 bfbd a433 293e ff76 bd3d 77c5 b53d
000002b0: 195b 33bd e852 113f 6b74 5e3e 2997 aebc
000002c0: 985a 533f 57ed 0dbf 76d9 39bf 6268 b1bf
000002d0: 9f9f febb 5958 e4bd 5e39 95bd b007 39bd
000002e0: a272 41bf bd02 b7bd 5f96 8d3e f36e 6bbd
000002f0: df0d 403e 688a 57be dbe0 5c3d a748 5c3e
00000300: 41eb b7bd 3af2 343d 8b54 09be a376 893e
00000310: 583d 3b3d 4653 d8bc 919c 953f 14a3 a03e
00000320: b2c1 613e 053b d2be b058 eabb cbee 893d
00000330: 4ed5 953e b87e 5abe b825 373d afa8 1a3d
00000340: e8d5 f03d 1559 fc3d 0a77 d23e bb45 0c3e
00000350: 3a4c 0c3e 6659 08bf b468 61be 10a5 d23d
00000360: 0d1d 02be 2e29 26bd 6591 aabe 25c1 a53d
00000370: 9eea d93d 5fc6 993c 4f41 433f 2132 75be
00000380: 269f 463e fa91 aa3f 1b7d bb3e dd3c 973f
00000390: fcb9 9b3e 0a93 f93d ae2d af3d e0dc 3e3f
000003a0: af58 513e 2ac0 37bd 12df ed3e 2c68 ad3c
000003b0: bc2c dd3d f032 b2be 4f00 72be 64ed d3bd
000003c0: 40b3 723d 889e a53e 32d7 8ebe d28e dabd
000003d0: 7038 913c d321 84be d8f5 6a3f b7aa b93e
000003e0: c582 963e 4c85 a43e 7ed5 2a3e eda9 6e3e
000003f0: 2b26 62bd 5729 1a3d 1baa 143f 15d0 903e
-0.1784932 -0.052720793 -0.3885578 -0.06857694 0.18616849 -0.31802827 0.84818906 0.08742121
1.1962866 0.1699508 -0.18228364 -0.080722354 0.038050517 -0.09120131 0.32576135 0.22068384
-0.17698328 -0.16288322 -0.24757026 -0.099501155 -0.4762647 0.33077356 -0.06958511 0.31436896
0.14770888 0.15506351 0.16752017 0.13627836 0.1734172 -0.06603532 0.3373555 0.10202931
0.45887825 -1.2236124 -0.18237637 -0.32356226 0.23611501 0.12465588 0.02900259 0.07255314
-0.5921493 -0.47422493 0.2583162 -0.1005314 -0.2017861 0.12212744 0.09495757 0.5942924
0.06144436 -0.07206617 0.3115448 0.16511752 -0.039774105 0.13412246 0.46646848 -0.1959589
0.113681264 -0.123486415 0.05110974 -0.07823445 0.021028968 0.044217676 -0.10479082 -0.16994372
0.09683092 -0.027333338 0.13949259 0.20936173 0.10349508 -0.006844658 -0.05969281 -0.06793456
-0.22511925 -0.027111376 -0.23102172 0.28233042 0.18873563 0.10006247 -0.050143342 -0.18320191
0.13948947 1.54284 0.33967456 1.0312563 0.23995075 0.27330023 0.34737784 -0.01306077
0.5803118 0.5300917 0.08783897 0.15682289 0.0051892623 -0.11133633 0.044453047 -0.0848505
0.3175641 0.2755089 -0.090178356 -0.19139418 0.18048802 0.31917068 0.42489374 -1.1990626
1.7324567 0.14926945 -0.13214682 0.0031075722 -0.033967737 -0.14588262 0.033699587 0.4839269
-0.22604513 0.21417534 -0.42011094 0.14438981 -0.078529365 0.13400415 0.06779442 -0.346416
0.3803134 0.01600357 0.19103514 -0.02256105 0.15296136 0.31169462 0.44854853 0.049779266
0.23075426 -1.2202814 0.09750728 -0.8517354 -0.04641625 -0.069021285 -0.2504886 -0.2530668
-0.41417503 -0.26823294 -0.26918614 0.04994584 0.14202946 0.28146195 -0.07643659 0.09099004
-0.006329161 -0.08206248 -0.45280108 0.16154633 0.09526175 0.23054639 -0.47154695 0.5603686
1.4066846 -0.113164015 -0.03822723 0.22533868 -0.05868166 -0.07384713 0.2348618 -0.10165177
-0.07926037 0.37087688 0.14394893 0.025006287 -0.13656281 0.032709546 0.054858122 -0.37360767
-0.09339507 0.16523606 0.09251212 0.08875554 -0.04378805 0.5676713 0.21724097 -0.021312313
0.8256011 -0.55440277 -0.72597444 -1.385998 -0.007770493 -0.111496635 -0.072863325 -0.045173347
-0.7556554 -0.08936069 0.27653787 -0.057478856 0.18755291 -0.21048892 0.053925376 0.2151209
-0.08980418 0.044176318 -0.13411157 0.26848325 0.0457128 -0.026406895 1.1688405 0.3137442
0.22046545 -0.41060653 -0.0071516857 0.06734999 0.292643 -0.21337402 0.044713706 0.037758525
0.117595494 0.123216785 0.41106445 0.13698475 0.13700953 -0.5326141 -0.22012597 0.102853894
-0.12706394 -0.040566616 -0.33314052 0.0809348 0.10640453 0.018771349 0.7627153 -0.23944904
0.19396648 1.3325799 0.36618885 1.1815449 0.30415332 0.121862486 0.085536346 0.7455578
0.20443986 -0.044860996 0.46459252 0.021167837 0.10799548 -0.34804487 -0.2363293 -0.10348013
0.059252977 0.32347512 -0.27898556 -0.10671772 0.017727107 -0.25807056 0.9178138 0.36263058
0.29396644 0.32132947 0.16683003 0.23307009 -0.05521218 0.03763708 0.5807206 0.28283754

conv3.bias f4 [8]
00000000: 0cc3 713e c8c5 863e 3a18 383c 069c 073b
00000010: fad3 97bd 88c4 01be 72d6 49be 30d3 3b3e
0.2360956 0.2632277 0.011236245 0.0020692362 -0.07413478 -0.12672627 -0.1971071 0.1834228

t_conv1.weight f4 [8, 8, 3]
00000000: 1259 86bf 52e0 d7be 706b b93e a64f 93be
00000010: 5dc7 02bd 08f8 a0bd c361 1abe 9320 c1be
00000020: 05ab 52be 83ea bebf ddef a03e 2bf8 8d3e
00000030: ea38 dc3e f071 7b3e 1668 9f3d e626 f33c
00000040: d15d 1c3d 2524 7ec0 9690 b53d 84e0 9f3e
00000050: d4e3 8a3e 97f8 2fbd 1f9e fa3e 585f 7b3e
00000060: 307e b3bd 2f5f 9b3d a975 9d3e b23f 54be
00000070: 5b32 0ebd 5e8e c6be 8403 843e 12a5 803e
00000080: 99d3 643e 858d 82bc cbe4 8dbe fcf6 83be
00000090: 30ed a7be fcd6 0ebf 7488 103d 9d7c 8c3e
000000a0: ca1e 1fbd 48e9 0fc0 c2fb 73be 4bfb 28bf
000000b0: 9c58 72bd 8ca8 dd3e 7315 97bc a8d9 efbe
000000c0: e13e 86bf 9fc4 503e 3230 053f dae5 543e
000000d0: 201e 643d 1fc1 573e c9a9 793d 3895 84be
000000e0: 39bf 013d c6e2 e53e 7829 66bb 8b4c 113f
000000f0: 38b4 363e e0a8 003e aabe dfbd ef98 b03f
00000100: 5ebf 84be 87d5 5ac0 37ac 7a3e 3d46 493e
00000110: ab9c 053d 12ee e03e 4d33 29bf a24c 173f
00000120: 46f0 19bf 00e1 18be 165a 563d 60c5 0f3f
00000130: a60f 5e3e 5c8e dabd 1c7e b2bc 5ac9 bf3d
00000140: cfaa 073c f4f6 f4be f71c 8b3e 5572 1bbb
00000150: bd8c f83e 1bcf 23bd 2159 993d 5ecb 3a3f
00000160: 8548 6a3e 1919 52c0 9c03 4e3e 0530 1e3d
00000170: e913 1f3e 396d f83c 96d0 4f3e 6a75 89be
00000180: 4d73 79be ceca c33e b3c5 583e eecf dfbd
00000190: 9a2b d2be d66e b4be 58c1 833e fe28 3d3e
000001a0: 7774 e93d bf8c 97be 5606 9b3e 09fe eb3e
000001b0: 211e b33d 7e82 eabe db93 ed3e cbec 973e
000001c0: 0127 d73d 18be bf3f 1f9a 7e3e fb46 91bf
000001d0: bbab a13e 4669 8c3e fc33 de3e 8145 d23d
000001e0: ee79 073f 324b b73d f334 093e 415f 9d3e
000001f0: a866 303e 3ad1 813e 7417 cc3e bbe8 273e
00000200: 0a4d 743e 19e7 83bf ca67 b03d 4e68 8cbd
00000210: 8722 ae3d cfaa cdbd 74d6 783b 5af7 db3e
00000220: 034f ab3e a281 08c0 9255 cf3e 1d75 ae3d
00000230: 058a 773d 5c1e 73be ddb5 39bd 0b05 ecbd
00000240: 24cf d3be 1b0a 4cbd 8553 be3e d3c0 873e
00000250: f33c d93e 9ac8 033f 9fe8 283e ed95 9b3e
00000260: 4e76 9a3d 999b fd3e ce8c 3e3e 2872 4bbf
00000270: 00f9 7dbe 4413 8abe 8443 023f ef6b 8c3f
00000280: 0713 9a3e eeda f0bf bc9a a9bc 3e19 f8bd
00000290: 5ac2 be3e 4c38 163c 205a a6bc 1910 bdbe
000002a0: aa0e e1be 5f86 bdbd f8de 853e 8689 0b3f
000002b0: 8b58 893e c788 1b3e 9050 2f3e cc5f a83e
000002c0: b95c 113e 8816 663f 160d 3fbe 1f88 b3bf
000002d0: eaf3 3fbe 4606 5bbe 6256 b03d 2556 193e
000002e0: ab87 b5bd 86ac 33c0 74ec 71be c092 adbe
000002f0: 1de2 c6be 05f7 893e 7914 d2be 4cc1 36be
-1.0495932 -0.4216333 0.3621478 -0.28771704 -0.03192841 -0.07859808 -0.15076356 -0.37720165
-0.20573051 -1.4915317 0.31433 0.277284 0.43012172 0.24555182 0.07783525 0.029681634
0.038175408 -3.970956 0.08865468 0.3122598 0.27126944 -0.042961683 0.48948762 0.2454809
-0.08764303 0.07586514 0.3075383 -0.20727423 -0.03471599 -0.38780493 0.25783932 0.2512594
0.22346343 -0.015936622 -0.27713618 -0.25774372 -0.32798147 -0.5579679 0.03528638 0.27438822
-0.038847722 -2.2486134 -0.23826507 -0.6600844 -0.059166536 0.43292654 -0.018442845 -0.46845746
-1.0487939 0.20387505 0.52026665 0.20790806 0.055692792 0.21069764 0.060952935 -0.25895095
0.031676505 0.44899577 -0.0035119932 0.5675742 0.17842185 0.1256442 -0.10925038 1.3796672
-0.25927252 -3.4192827 0.24479757 0.196557 0.032620113 0.43931633 -0.66093904 0.5910131
-0.60132253 -0.1492958 0.052332006 0.56160545 0.21685657 -0.10671684 -0.02178865 0.09364577
0.00828047 -0.4784466 0.27170536 -0.002371927 0.48544875 -0.039992433 0.07487703 0.72966564
0.22879227 -3.2827818 0.20118564 0.038620014 0.15534939 0.030325519 0.20294413 -0.26847392
-0.2436039 0.38240665 0.21169166 -0.10928331 -0.4104889 -0.3524081 0.25733447 0.18472669
0.11399167 -0.29599568 0.3027827 0.4609225 0.08745981 -0.45802683 0.46401867 0.29672846
0.10505486 1.4979887 0.2486348 -1.1349787 0.31576332 0.27424067 0.43399036 0.10267163
0.52920425 0.08949889 0.13399105 0.30736735 0.1722666 0.2535494 0.39861643 0.16397373
0.23857513 -1.03049 0.08613546 -0.06855832 0.08502679 -0.10042345 0.003796962 0.42962152
0.3345872 -2.1329122 0.40494972 0.08518431 0.06043436 -0.2374205 -0.045339454 -0.11524399
-0.41368973 -0.049814325 0.37173095 0.265143 0.42429313 0.5147797 0.16494988 0.30387822
0.07542096 0.49532774 0.186084 -0.79471064 -0.24802017 -0.26967824 0.5088427 1.0970439
0.30092642 -1.8816812 -0.020703666 -0.121141896 0.37257653 0.009168696 -0.020306647 -0.36926344
-0.439565 -0.09254145 0.26146674 0.5450672 0.26825365 0.15188895 0.17120576 0.32885587
0.14195527 0.8987813 -0.18657336 -1.4025916 -0.1874539 -0.21389112 0.08610226 0.14974268
-0.08863767 -2.807405 -0.23625356 -0.33901024 -0.38844386 0.26946273 -0.41031244 -0.17847174

t_conv1.bias f4 [8]
00000000: 2900 b63d 2a43 68be 91b5 863e 1982 d23d
00000010: 94c1 5f3c 0cb2 693e 74e5 513c fe41 bbbb
0.08886749 -0.22681871 0.263104 0.102787204 0.013656992 0.22821826 0.012811054 -0.005714654

t_conv2.weight f4 [8, 16, 2]
00000000: 6d62 06be a8d4 e4bd ba0f 80bd 4344 6c3e
00000010: 201a 97bd 28ac be3e 0352 ec3c 26b0 b93e
00000020: b647 6b3e 97c0 c03d 5bcc 69be e420 26be
00000030: a944 c3bc 48f8 583c b1da d33e a48a a53e
00000040: 6cbf 1f3f 5e1a aa3a b2a3 e9bd 1d71 c13d
00000050: 4880 433e dd73 f33e ff54 943e 3fb0 ee3c
00000060: f4d5 9cbe 9305 9d3e 7c48 b23e 8e84 00be
00000070: b3b4 cebe b052 aa3d 9aad e33d 791d b4bb
00000080: bbfe d0bd 24fe 1e3e d6b4 3cbe b72e 893e
00000090: 0fd8 1d3f 11f9 bfbc 089b 46be 4ba5 93bb
000000a0: 73fe 19bf 1b7c 14bb e26f 083f 54e9 b3bd
000000b0: 3be9 cd3c 6b56 03bf 3704 9e3d 9d0e 08be
000000c0: 6f5d 17be 9686 623d 127b 00bf 8db6 a5bd
000000d0: e37c 293d 77f2 8c3c 2c71 fd3e 4037 e43d
000000e0: b851 4f3d 99e0 78bc df10 3f3e 370c a53e
000000f0: 9430 d73e e309 dcbe 838d 2cbe 4ea5 d33e
00000100: 2caa 63be 10ac a3bd bea8 40be ec5b 00be
00000110: bd80 41be e328 fbbd de54 1c3e 07e3 4c3d
00000120: bcd3 a13e 712b a43e e319 783c 41ce cc3b
00000130: e64d 893e 0e4b 8f3e 38b3 7d3e 7e3d 673e
00000140: e204 22bf a00a 33be 8bd5 aa3d b1e2 9bbd
00000150: 71c5 0fbe 5643 91be 34ea a1bd 97a3 23be
00000160: 34e3 dbbd 8304 1bbe 7d12 e0bd ab52 82bd
00000170: a6ee a5be e986 81bc e033 24be dc05 34be
00000180: db7b 9b3e cbe7 7d3e bbb6 01be d715 84bd
00000190: f750 983e 16b1 b73e 2c50 30bf 76ff b73e
000001a0: 616c babe 6bcd 3dbe 4ec1 7bbe 8d74 99bd
000001b0: 6862 b1be aa6a edbe 30d7 29be 4b9f 34be
000001c0: b2e3 babd 4e8e 7b3d b7ef d03e c1e9 2bbe
000001d0: a391 263e 8b55 753e 1834 78be b9d9 163f
000001e0: 71b6 4f3c 02fb 95bd 451a bd3e 3735 8fbf
000001f0: f419 263e f787 9fbf 99f5 3abd b695 51be
00000200: 7760 113c 6139 b73e d3c2 dbbd 6374 bc3d
00000210: c524 afbe 0e7d 9a3e 110a 103f 3974 e2bb
00000220: 2036 503e 566f d5be a63d 7f3e 4233 413e
00000230: acdf 89be bd4c da3d cd43 aabe 5b8d 2a3e
00000240: 2bcc e2be 59ba f93c 2d05 f83e e0ff 353d
00000250: 504d 853e 41df f33d 1763 093e ed3a 35bb
00000260: 967d 07be 7e60 723e db6e 393e a4bc a83e
00000270: 9617 6c3a 010d b63e 245b d33c 7248 2abe
00000280: ec3b 13be 82e2 3bbe 2215 a23d fdd8 f8bd
00000290: f11d 173e 5130 afbd 7e3b 23c0 18d4 c53e
000002a0: 8d1f 603d e2d2 0b3e a148 e5be b5f2 9f3d
000002b0: b287 923d 9baf 343d 8f07 d63e a062 003e
000002c0: b3d7 2f3f cc4c 03be 57e8 8abe fbf6 743d
000002d0: d141 87be a916 20bd 37b5 fe3d 32e8 ad3e
000002e0: e1ec 163f 401f 9f3e 377f 3b3e 1a16 8a3e
000002f0: 4c60 17bf ebcd 09c0 7996 b63d b9d1 263e
00000300: 871b 733e 15a5 693d b7eb 01be 6cf1 cb3e
00000310: 26fe 833d 1945 1b3e ec3d 2f3e 2974 0a3e
00000320: 739a b7bd c7ce 3abf 2d78 da3d 1740 4d3e
00000330: 0cc8 68be 2a87 0ebe 78eb 08bf 13dc c3be
00000340: f61c 86be 0503 a3bd 4595 103d c8d2 dfbd
00000350: 70df f53c 6834 7f3e 49ac 3d3e 0f65 b93e
00000360: c5d0 89be 8f30 ecbd 7347 9c3e f60a 7d3e
00000370: 8aa6 d83c 17b4 8f3d 3837 4cbe a8ad 6d3d
00000380: 4505 b13e a1fa b1bc 0830 03be d38c 623e
00000390: 4858 863e 2ac8 e73c 759a b5be 9ee1 a9be
000003a0: bcd6 46be c098 833c 0d3e 533e ec6b 29be
000003b0: 6db5 ae3e 4275 fcbe 138e 35bf 2b99 e63c
000003c0: 3fb4 31be c5fe 07be 9b21 babd 7acf 15be
000003d0: dc61 a53e 3aa0 19bd a02b 4bbe 222a 0cbf
000003e0: 70b4 ea3e eced 4abe e7bc 84be 1dc1 98be
000003f0: cc90 31bf 09c6 e5be c443 22be 4f31 c53e
-0.13123484 -0.111733735 -0.062529996 0.23072915 -0.0737803 0.3724072 0.0288477 0.36267203
0.22976574 0.094117336 -0.22831862 -0.16223484 -0.02383645 0.013242789 0.41377786 0.32332337
0.6240146 0.0012977829 -0.114081755 0.09445403 0.19091904 0.47549334 0.28971097 0.029136775
-0.30631983 0.30668315 0.34820926 -0.12550566 -0.40372238 0.08316553 0.11117096 -0.0054966775
-0.10204836 0.15526634 -0.18428358 0.26793453 0.61657804 -0.023434194 -0.19395077 -0.0045057884
-0.60153884 -0.002265698 0.5329572 -0.08784738 0.025135627 -0.5130374 0.07715648 -0.13286825
-0.14781736 0.055304132 -0.5018779 -0.080914594 0.041378867 0.01720546 0.49500406 0.111433506
0.050615042 -0.015190267 0.1865878 0.32235882 0.4202925 -0.42976293 -0.16850857 0.41337055
-0.22232884 -0.07991803 -0.1881437 -0.12535065 -0.18896766 -0.12263658 0.1526675 0.050021198
0.31606853 0.32064393 0.015142891 0.0062501733 0.26817244 0.2798695 0.24775398 0.22582051
-0.632887 -0.17484522 0.08341511 -0.07611597 -0.14040162 -0.28371686 -0.07905999 -0.15980373
-0.10736695 -0.1513844 -0.10941026 -0.06363424 -0.32408637 -0.0158114 -0.16035414 -0.1758036
0.30367932 0.24795453 -0.12667362 -0.06449478 0.2974927 0.35877293 -0.6887233 0.3593709
-0.36410812 -0.18535392 -0.24585459 -0.074929334 -0.3464539 -0.4637044 -0.16585994 -0.1763889
-0.09125461 0.06141501 0.40807888 -0.16788389 0.16266493 0.23958413 -0.24238622 0.5892597
0.012677775 -0.073232666 0.36934105 -1.1188115 0.16220838 -1.2463368 -0.045644376 -0.20467266
0.008873097 0.35785964 -0.10730519 0.092018865 -0.3420774 0.30173534 0.5626536 -0.0069108275
0.20333147 -0.41686505 0.24925861 0.1886721 -0.2692846 0.10659168 -0.33254853 0.16655485
-0.44296393 0.030484365 0.4844145 0.044433475 0.26035547 0.11907817 0.13416706 -0.002765353
-0.13231501 0.23669621 0.18108694 0.3295642 0.00090062 0.35556796 0.025800295 -0.16629198
-0.14378327 -0.18348125 0.07914187 -0.12150762 0.14757515 -0.085541375 -2.550506 0.38638377
0.05471759 0.13654664 -0.44781974 0.078099646 0.07154788 0.044112783 0.41802642 0.12537622
0.68688506 -0.12822264 -0.27130386 0.05980585 -0.264174 -0.03908411 0.12436908 0.33966213
0.589552 0.3107853 0.18310247 0.26969987 -0.5913131 -2.1531932 0.08915419 0.1629094
0.2374097 0.0570422 -0.12687574 0.39832628 0.06444959 0.15163077 0.17113465 0.13520874
-0.08965006 -0.7297177 0.10667453 0.2004398 -0.22732562 -0.13918748 -0.53484297 -0.3825384
-0.2619397 -0.0795956 0.035298605 -0.10928875 0.03001377 0.24922335 0.18522753 0.36209914
-0.2691709 -0.11532699 0.3052326 0.24711213 0.0264466 0.07016771 -0.1994294 0.05802694
0.34574333 -0.021725954 -0.12811291 0.22124033 0.26239228 0.028293688 -0.35469404 -0.33179945
-0.19417852 0.016064048 0.20629139 -0.16545075 0.34122792 -0.4930821 -0.70919913 0.028149208
-0.17353915 -0.1328078 -0.09088441 -0.14629927 0.32301223 -0.03750632 -0.1984086 -0.5475179
0.45840788 -0.19817322 -0.2592537 -0.29834834 -0.6936157 -0.4487765 -0.15846163 0.38514182

t_conv2.bias f4 [16]
00000000: b8b0 183d e997 e53b a75b f5bd ebcd 0b3d
00000010: 9faf 353c 06a4 983d 3d75 ee3d 9f91 56be
00000020: 4029 b8be 52ca 2cbf 2c38 1f3e a68d e7bd
00000030: 7006 323d bc11 11be 793d 373d 3d47 92be
0.037277907 0.0070066345 -0.11980372 0.034131926 0.011089235 0.0745316 0.11643455 -0.20953988
-0.3596897 -0.67496216 0.15548772 -0.11306314 0.04346317 -0.14166921 0.04473636 -0.28569975

t_conv3.weight f4 [16, 32, 2]
00000000: 03cf 3c3e b883 f53d f4d6 483b e63a 0d3e
00000010: 79a9 b2bd cad1 cfbe 4f56 95bd 0405 9cbd
00000020: 42cc 08be 4972 e5be 8fc3 50bd 3259 063e
00000030: c5a3 a9bd da12 1cbe 0bc4 563d 2282 9f3b
00000040: 1198 533e 77a0 953a 685f 0ebd 8229 82bd
00000050: 613b 6f3e c245 203e 092c aa3e 93b3 8a3e
00000060: 5778 1e3d 9dc4 873e 2f71 95bd 3d83 a23e
00000070: 2286 50be 7b49 ddbe 34fa 473e 124d 7ebd
00000080: 030f 9c3c 8ec3 20bf d682 5fbe 248a 28be
00000090: d862 813e 3086 da3d 5cd8 a6be 0b8c 43be
000000a0: 56c2 1abf bc69 8cbe c024 653e 4c02 1abd
000000b0: 9d0c dbba 6f89 6dbf 2766 91bd 2d44 dbbf
000000c0: 0a9e 483e c17d 613e 7c8c 003e be6a 393e
000000d0: d4b1 a9bc fa08 bf3c 2bd6 d8be 4e97 4a3e
000000e0: 3669 90bd 1bac b53e 62d6 823e ed86 1f3d
000000f0: 3016 e53c f32c 3b3e 4a62 ea3e 3897 433a
00000100: ac70 e93c 34f9 593e 3f9d 28be 48f4 1fbd
00000110: 73df 47bd 6bde cf39 c8a0 55bf 1f17 24bf
00000120: 8b9f ecbd b84e d1bd 2685 24be 2cbc 943d
00000130: 81aa 963d f9ff 733c 9daa cf3b 06a8 4dbc
00000140: 1d8f c33d e546 033e 0d7b 33bd 5f4f 50bc
00000150: 393a 2b3e 9fe1 963d 704b 793e 24ea 473e
00000160: 7268 c23c 7baa 553e dc81 4abd 8fa1 703e
00000170: 3add 96bd 82de 3cbd 9f6a 8f3e 8f39 09bf
00000180: 96ab e4bc 06f8 a33f cc11 72be 8389 573e
00000190: c657 1a3e 1720 783e c877 9abe 334e 88be
000001a0: a883 b53e 3291 1e3c 9af4 3a3e 10bb 473d
000001b0: fa67 b73d ff52 ddbe dfdd 60bd ed69 89bf
000001c0: d13f c43d c2cc 1f3e d17a 953e 8d9e 103f
000001d0: aef6 e23c f07e 56bd 2596 a33d 6a4c 05be
000001e0: 28f6 7abd f5c1 f9be 2cff 0a3b f678 c3bd
000001f0: c812 513d 690a aebd 6e6f c6bc d5e3 5e3e
00000200: fcfb 8d3d d8c4 b83d e801 ec3d c590 65be
00000210: 09d5 fabc f6bd 7f3e 5932 94bf 8d02 433e
00000220: 01eb dc3c 6c44 71be c172 05be bc30 dcbe
00000230: 1a50 cdbd f309 13be 1be1 6cbc cd03 f33d
00000240: fcfb 0b3e 7608 e6bd f147 1e3d 2afb 273e
00000250: ad99 2e3c 49ef 0e3e e0ec 2d3d c228 173e
00000260: 8573 203d 23d6 153e a216 cdbd 19e9 413e
00000270: 65e2 5abe 18bd 7abe 7ca8 313e 1f9b dcbe
00000280: dd56 25bf d01f c0be 3e74 92be a3aa d5be
00000290: 0029 ad3d cb80 5d3e 1221 60bd ca08 e2bc
000002a0: 9b5d 8bbf c967 f6be 99ab 11bd cd39 f5be
000002b0: 27db 8f3c e858 e73e 0516 3b3d d053 773e
000002c0: 784b 29bc 3477 dc3c e594 9b3e f26e 7a3e
000002d0: 09eb 9abd 16c7 e43d e4cf a23d 295b 9a3c
000002e0: e03e edbd 26ea af3e 2811 963e 140e 76bb
000002f0: d6c7 c0bd e514 9d3e d94e fabd 72df 1fbe
00000300: 2252 253d 1d16 81be cf76 4dbf ae8a 603b
00000310: bc28 9c3d be2b 9b3d 5f6e a43e 3ec9 c03e
00000320: e610 23be 3ded 083e cf62 72bd 7ba3 8dbe
00000330: 316d 063e 5ff3 b7be 5f97 97be 5a6f 183e
00000340: 7194 0ebe 8d51 c93d e034 723d 60ec 0e3e
00000350: 939a 573e 9030 6cbe d793 713e fda5 c03c
00000360: dfdc f83d 3369 b83a 89a2 73be 0d3f b7bd
00000370: 79ab 8b3e 2207 4e3e 8628 9bbe b327 1bbf
00000380: 5e6e 4fbf d84e 2bbd ce36 b13e 21f2 a03d
00000390: 6e2c ac3c 255c 703d 1380 ae3e f679 a33e
000003a0: 75c0 74bd c590 4fbe b0c4 073f 3ddb 133d
000003b0: 71ec f4ba 988e a83e 918d 0dbe a649 d1bd
000003c0: 0515 353d 0d2f 363e 8e52 30be 652d 92bd
000003d0: de5a a6bc 13f5 31be d0c6 b1be 3619 d13d
000003e0: e238 e7bd e47c a43c 91a7 5dbe 100e 5dbd
000003f0: 5a3e aabd 9043 eabe 740a 66bf 15fb 9b3d
0.18438344 0.11988014 0.00306457 0.13791999 -0.087237306 -0.40589744 -0.07291853 -0.07618144
-0.13359168 -0.44813755 -0.05096775 0.13119963 -0.0828319 -0.15241566 0.052433055 0.004867808
0.20663477 0.001141562 -0.034758955 -0.06355573 0.23362495 0.1565161 0.3323672 0.2709013
0.038688984 0.26517192 -0.07296979 0.31740752 -0.20363668 -0.43220124 0.19529039 -0.06208522
0.019050127 -0.6279839 -0.21827254 -0.16458946 0.25270724 0.106701255 -0.32586944 -0.19096391
-0.60452783 -0.2742442 0.223773 -0.037599847 -0.0016712133 -0.9278783 -0.07099562 -1.7130181
0.19591537 0.22020628 0.1255359 0.18107125 -0.020714678 0.02331971 -0.42350897 0.1978428
-0.070513174 0.3548287 0.25554186 0.038947035 0.027964681 0.18278866 0.45778114 0.0007461193
0.028496109 0.2128647 -0.16466235 -0.039051324 -0.048797082 0.0003964783 -0.8344846 -0.6409778
-0.11553868 -0.102200925 -0.16066417 0.072624534 0.0735674 0.014892572 0.0063374774 -0.012552267
0.09548781 0.12820013 -0.043818522 -0.012714236 0.16721429 0.073672526 0.24345183 0.19522911
0.023731444 0.20865814 -0.04944025 0.2349913 -0.07366414 -0.046110637 0.28011033 -0.5360345
-0.02791385 1.2810066 -0.23639601 0.2104855 0.15072545 0.24230991 -0.3016951 -0.2662216
0.35452008 0.009678172 0.1825737 0.04876238 0.08955379 -0.43227383 -0.054899093 -1.0735451
0.095824845 0.15605453 0.29195264 0.5649193 0.027705517 -0.05236715 0.07987622 -0.13017431
-0.06126991 -0.4878079 0.0021209223 -0.09544556 0.0510433 -0.08498079 -0.024223056 0.21766599
0.06932828 0.0902192 0.11523801 -0.22418506 -0.030619161 0.24974808 -1.1577865 0.19043942
0.026967527 -0.23561257 -0.13032056 -0.4300593 -0.10025044 -0.14359264 -0.014457966 0.11865959
0.13670343 -0.112320825 0.038642827 0.16404405 0.010656756 0.13958468 0.04246223 0.14761642
0.039172668 0.14632468 -0.100140825 0.18936576 -0.21375425 -0.24486196 0.17349428 -0.43087098
-0.6458567 -0.3752427 -0.2860431 -0.41731748 0.08455086 0.21631162 -0.05471904 -0.027592082
-1.0887941 -0.48126057 -0.03556404 -0.4789566 0.017560555 0.45185018 0.045675296 0.24153066
-0.010332935 0.02691231 0.30387035 0.24456385 -0.07564361 0.11170785 0.07949808 0.018842297
-0.11584258 0.3435833 0.29309964 -0.0037545012 -0.09413116 0.30680004 -0.1222207 -0.15612581
0.04036153 -0.25212184 -0.8025941 0.0034262347 0.07624957 0.075767025 0.32115456 0.37653536
-0.15924415 0.13371749 -0.059176262 -0.27663788 0.1312759 -0.35927865 -0.29607674 0.14886227
-0.13923813 0.09830008 0.059132457 0.13957357 0.21055059 -0.230654 0.23591553 0.02351665
0.12151503 0.0014069438 -0.23792471 -0.08947573 0.2727926 0.20119908 -0.30304354 -0.6060745
-0.8102778 -0.041823238 0.34612125 0.078586824 0.02101728 0.058681626 0.34082088 0.31928986
-0.059753854 -0.20270069 0.53034496 0.036097754 -0.0018686188 0.3292129 -0.13823535 -0.102191254
0.0442095 0.17791386 -0.17218992 -0.071375646 -0.020307 -0.17378645 -0.34721994 0.10209887
-0.112901464 0.020079084 -0.21645953 -0.05396849 -0.08312674 -0.4575467 -0.898597 0.076162495

t_conv3.bias f4 [32]
00000000: 6efb 343e 21bf c13d 4116 85bd 57b9 61bd
00000010: 06fd 26be 1f6d 5abd 955f 9d3d cc45 4fb8
00000020: b5d9 093e 2eaf d53c 755f 3d3e b3b3 1f3e
00000030: 85a0 3b3e 10fc 463e 8992 2fbd 4dad 59bc
00000040: 38b1 243d a953 ea3d 783f 7b3e 411f cd3b
00000050: e8e7 4c3e 1267 1dbf 54a8 dabe c435 69be
00000060: 0a54 163e da5c a23c 1f1e b9ba 8f31 343d
00000070: fe48 bbbe 3658 94be da5f b7be 6489 0c3d
0.17674038 0.09460283 -0.06498385 -0.055108394 -0.16307458 -0.053326722 0.076842465 -4.941765e-05
0.13461955 0.026084509 0.18493445 0.15595894 0.18322952 0.19432092 -0.042864356 -0.013285947
0.04020807 0.11441738 0.2453593 0.0062598293 0.2001034 -0.614854 -0.4270655 -0.22774416
0.14680496 0.019819666 -0.0014123357 0.043992575 -0.36579126 -0.2897355 -0.35815316 0.034310713

conv_out.weight f4 [1, 32, 3]
00000000: be3c ecbd 2f35 c7bd 5e9c 69bd 4061 4fbe
00000010: f70c a8bc 437a 283e 031f 5c3e f380 bd3d
00000020: 429a b2bc b54d f9bd 0247 0ebf 4acc 14bf
00000030: 43e6 12bf 7836 17bf 4889 bebe 4dbe 1ebe
00000040: 1c21 223e 1023 21be 3526 903d 5b34 a5bd
00000050: 060e 05bd f270 7f3c 5ed9 273e 8551 51be
00000060: 5fd5 15be 3200 113d 762d 13be 5dd7 93bd
00000070: b116 f43d d7c5 95bd 2887 2fbd a0b1 25be
00000080: a699 4ebe 0462 73be 2927 3bbe d3cd 34be
00000090: 1bdd 47be 698c 2bbe 3cf6 6cbd cc2b 8bbe
000000a0: 2069 c6bd 619d 013d b331 343e 0f8d c83c
000000b0: d934 503e 770a 5c3e 79be 28be 4ed0 80be
000000c0: 56e2 823e 8c19 873d 8665 b4be e0c5 4c3e
000000d0: 1228 123e f498 973e 4711 61be 15d1 fabd
000000e0: 7834 65be 7c17 bf3d bf3d f33d 5200 253e
000000f0: cd6f 2a3e 1d50 6f3d 4e11 9dbe b072 d53e
00000100: 9c4d 6f3f e6ed 483f 5def 94bf 2e0b cabf
00000110: f516 97be 1bf4 9f3d 51e6 433e a742 873e
00000120: 0a10 2abe c274 883b 5625 f0bd 417b fdbe
00000130: ee05 80be 304c 0ebe 9bb3 bfbc bbdc 2e3e
00000140: f88e 13be 207c a1be ea27 9f3e 3022 5a3b
00000150: 08ee fd3e d52e 0c3f fc12 a63e e97e 9f3d
00000160: 038d 963d 0975 fe3e 565e 883f c6d0 843f
00000170: b74f 2a3f 4069 66be c93c 9b3c f000 8a3e
-0.11535023 -0.09726941 -0.05703389 -0.20251942 -0.020513995 0.16452889 0.21496205 0.09253111
-0.021802071 -0.121730246 -0.555771 -0.5812422 -0.573826 -0.5906749 -0.37214112 -0.15502281
0.15832943 -0.15736032 0.070385374 -0.08066627 -0.032484077 0.015590893 0.16391513 -0.20441253
-0.14632176 0.035400577 -0.1437281 -0.07218812 0.119183905 -0.073131256 -0.042853504 -0.1618104
-0.201758 -0.23767859 -0.18276657 -0.1765664 -0.19517939 -0.16752781 -0.057852015 -0.27181852
-0.0968802 0.03164423 0.17597084 0.024481324 0.2033266 0.21488367 -0.1647891 -0.25158924
0.25563306 0.065966696 -0.35233706 0.19997358 0.14273098 0.2960888 -0.21979247 -0.122469105
-0.22383296 0.09330651 0.118770115 0.16113403 0.16644211 0.05842601 -0.30677265 0.41689062
0.934778 0.78488004 -1.1635548 -1.5784662 -0.29509702 0.07810231 0.19130827 0.2641804
-0.16607681 0.0041643092 -0.11725871 -0.49508098 -0.25004524 -0.1389625 -0.023401072 0.1707639
-0.14410007 -0.31540012 0.3108514 0.0033284537 0.49595666 0.5475896 0.3243636 0.07787878
0.073511146 0.49698666 1.0653789 1.0376213 0.66527885 -0.22501087 0.018949883 0.2695384
