dAE_PyTorch/checkpoints/spectra_dae_epoch_11.pth (torch, 18875 bytes, 13 tensors)

conv1.weight f4 [32, 1, 3]
0.61901665 0.54646987 -0.12505025 -0.116745025 -0.1697404 0.5012196 -0.6422688 0.6260963
0.013781274 -0.027096003 -0.03900585 0.78829926 0.52682334 -0.12134435 -0.17882468 0.007890903
-0.7042778 0.4541885 -0.5566243 -0.59447294 0.2940994 0.69049263 0.16761811 -0.57927066
-0.012480712 -1.0127956 0.004080005 0.020104619 0.39392653 0.4957052 -0.46890715 0.30616248
-0.5874608 -0.60468715 -0.016010202 0.5974509 0.23258244 0.12605083 0.4067558 0.5130244
-0.3998185 -0.70384926 0.58905894 -0.06977343 0.26086664 -0.19313386 0.6916136 -0.37151113
-0.00017869816 -1.1649423 -0.00029589958 0.2879869 0.24257268 0.2781771 -0.9418954 0.083882965
0.051663548 0.35430765 0.22701974 0.31094775 0.12746505 0.24901018 -0.13135657 -0.8567386
0.016529778 0.0054726056 0.77642274 -0.33065683 -0.1301258 -0.47898152 -0.63969225 -0.63979876
-0.5083443 -0.6624439 0.055464562 -0.4181713 -0.418229 -0.55861574 -0.344608 -0.49100545
-0.375721 0.16710813 0.33129752 -1.4728545 -0.25742894 -0.3114951 -0.72366464 -0.057689857
0.22274098 -0.85241455 -0.022266863 0.8136869 -0.03090274 -1.304711 0.2222427 0.11318927
00000000: e077 1e3f 73e5 0b3f 2c0d 00be 0418 efbd
00000010: 6dd0 2dbe ed4f 003f ba6b 24bf d947 203f
00000020: daca 613c 70f8 ddbc 99c4 1fbd fbcd 493f
00000030: e5dd 063f 6383 f8bd d11d 37be d948 013c
00000040: 8d4b 34bf 658b e83e ee7e 0ebf 612f 18bf
00000050: 3294 963e 20c4 303f 15a4 2b3e 154b 14bf
00000060: e67b 4cbc 49a3 81bf 90b1 853b 71b2 a43c
00000070: bdb0 c93e 12cd fd3e 9914 f0be 54c1 9c3e
00000080: d563 16bf c7cc 1abf d427 83bc 8bf2 183f
00000090: 172a 6e3e 7813 013e 4c42 d03e 9155 033f
000000a0: 03b5 ccbe 772f 34bf 91cc 163f 5fe5 8ebd
000000b0: 5090 853e e2c4 45be 970d 313f b536 bebe
000000c0: ec60 3bb9 d41c 95bf f822 9bb9 0573 933e
000000d0: f964 783e 3b6d 8e3e 0f20 71bf d5ca ab3d
000000e0: 289d 533d d067 b53e dd77 683e 8b34 9f3e
000000f0: 3386 023e 86fc 7e3e 5682 06be 3953 5bbf
00000100: 7569 873c 8b53 b33b a4c3 463f da4b a9be
00000110: b33f 05be 113d f5be dfc2 23bf dac9 23bf
00000120: da22 02bf ec95 29bf cf2e 633d 8c1a d6be
00000130: 1d22 d6be 7101 0fbf 7670 b0be 1165 fbbe
00000140: 815e c0be 651e 2b3e d49f a93e 7f86 bcbf
00000150: bacd 83be 497c 9fbe 1642 39bf 334c 6cbd
00000160: 3616 643e d737 5abf ff68 b6bc c94d 503f
00000170: be27 fdbc c500 a7bf 9793 633e c7cf e73d

conv1.bias f4 [32]
-0.21268225 -0.070792444 -0.036963552 -0.7044555 -0.2848248 -0.00016523215 0.22494535 -0.23362282
0.20973063 -0.32783663 0.34285405 -0.08552938 -0.43465507 0.14172833 -0.231533 -0.4315229
0.087964416 -0.24572098 0.32274613 -0.6544375 -0.161346 0.2636687 -0.36909136 -0.05796974
0.6463916 -0.028961044 0.4420713 -0.12943642 -0.3249914 0.2392978 -0.7412261 -0.07907428
00000000: 60c9 59be a1fb 90bd 1867 17bd 3257 34bf
00000010: 8ed4 91be 2b42 2db9 1358 663e d23a 6fbe
00000020: a0c3 563e 34da a7be 918a af3e 072a afbd
00000030: 1c8b debe 3b21 113e fd16 6dbe 92f0 dcbe
00000040: b026 b43d 489e 7bbe fb3e a53e 3789 27bf
00000050: e337 25be 95ff 863e 8bf9 bcbe ae71 6dbd
00000060: eb79 253f b63f edbc 2b57 e23e fb8a 04be
00000070: 4665 a6be 7c0a 753e fec0 3dbf b2f1 a1bd

conv2.weight f4 [16, 32, 3]
-0.04152912 0.10194896 0.021531321 0.053702615 -0.16155952 0.24487181 0.253335 0.119226255
0.055681963 0.57888585 1.2265918 2.556215 -0.029001135 -0.02657841 0.059027307 -0.4449064
-0.19104803 -0.154252 -0.23431985 -0.24057117 -0.21667026 -0.1704393 0.1502868 -0.24913463
-0.14032337 -0.04174352 -0.2098561 0.03219789 0.044621438 0.41025633 0.086731195 0.12853639
-0.6250133 0.25483724 0.42345953 0.08329406 -0.016504481 0.24470048 0.6266084 -0.061450925
0.2515444 -0.47523236 -0.13399717 0.04180156 0.24461731 0.14924225 0.0903702 0.046491504
-0.2845041 -0.3348587 -0.24428949 -0.15810786 0.0843638 0.19614166 0.2333334 0.11446938
-0.14253563 -0.2815273 0.55343217 0.27597845 -0.23764804 0.24852677 -0.023619452 -0.1072165
-0.14125983 0.19881526 -0.3332921 -0.06742898 -0.124500036 -0.096207514 -0.101286545 -0.20968755
-0.013306524 -0.03825452 -0.2688836 -0.1043389 -0.22323634 -0.243552 0.23302533 -0.42577145
-0.15629727 -0.21043329 0.042800426 -0.3060815 -0.017022977 -0.022731118 -0.31103018 -0.0058974046
0.27524096 -1.3901471 0.7209188 0.496995 1.5814556 -0.49457857 -0.25411722 -0.10100519
-0.005903187 0.03434088 0.1124393 -0.25102493 -0.06093457 0.3195775 -0.21849671 0.17071624
0.015926383 0.37688035 -0.19048943 0.931427 0.13871317 0.0061012255 -0.1986323 0.0013262611
0.18303558 0.07449721 0.19480997 -0.1033169 0.11312333 0.20499897 -0.11607398 -0.5298331
0.24741313 0.29110867 0.09104972 -0.051391233 -0.05139032 0.35324433 -0.12575772 0.21001638
-0.38413998 -0.2833425 0.4667446 0.14349379 -0.07926939 -0.10807487 0.24962799 0.015095803
0.6134781 -0.84971035 0.055814907 0.034108665 0.14569584 0.18740004 0.03630014 -0.12198059
-0.15173356 -0.17999685 -0.2709005 -0.028173054 0.035413355 0.23035796 -0.13803357 0.13163905
0.19426098 -0.57428813 -0.53324676 -0.22803487 0.2533204 -0.3384602 -0.22026265 0.39472994
0.08516846 0.021173855 0.2856197 -0.04707567 -0.5767832 -0.095153585 -0.14513905 -0.13863906
-0.18633857 -0.04632847 -0.15369385 -0.11536101 -0.115839556 -0.16402681 0.48342907 0.033050507
-0.27847615 0.021776957 -0.122010514 -0.23663928 0.009087054 -0.039063253 -0.21643315 0.017055057
0.4200288 -0.88844275 0.660907 -0.10838122 -0.11091465 -0.3059171 0.27763227 0.28270423
-0.10596469 0.10570704 -0.08491411 -0.32918832 -0.19787495 0.2137402 -0.14663486 -0.101662874
0.02251785 -0.3964686 -0.49483764 0.16040544 -0.25895044 -0.19625142 0.311514 -0.55552125
-0.391725 0.12724046 -0.04168683 -0.0178202 -0.656559 0.060343377 -0.20868482 0.22090806
-0.306172 -0.23433627 -0.14273085 -0.07655362 0.14142558 0.08816788 0.21939623 0.29343
-0.6658112 0.19859518 -0.25077912 -0.10097859 -0.02557069 0.09887585 0.1769694 -0.19055615
1.5183806 -0.41626447 -0.008387062 0.0032926782 0.14005537 -0.088777386 -0.16933207 0.43764168
1.9434452 0.21794312 0.55326724 0.031661566 0.1775528 -0.023883002 0.055277977 0.02842727
-0.84802365 -0.10437583 -0.12105623 0.34276274 -0.11030703 -0.13263017 0.16399486 0.06803405
00000000: 701a 2abd 9eca d03d 7462 b03c 46f7 5b3d
00000010: dc6f 25be adbf 7a3e 20b5 813e e52c f43d
00000020: c512 643d dd31 143f f600 9d3f 0799 2340
00000030: ca93 edbc f7ba d9bc 9ec6 713d c6ca e3be
00000040: 18a2 43be 3cf4 1dbe 8bf1 6fbe 4a58 76be
00000050: cfde 5dbe a487 2ebe c8e4 193e 261d 7fbe
00000060: eeb0 0fbe 41fb 2abd 84e4 56be efe1 033d
00000070: f8c4 363d 1e0d d23e 20a0 b13d 0b9f 033e
00000080: df00 20bf 077a 823e b0cf d83e 1396 aa3d
00000090: 6834 87bc c392 7a3e 6869 203f f7b3 7bbd
000000a0: 6dca 803e a851 f3be 8e36 09be 1d38 2b3d
000000b0: f67c 7a3e f6d2 183e 0314 b93d e06d 3e3d
000000c0: 85aa 91be 9972 abbe 0627 7abe 07e7 21be
000000d0: eec6 ac3d 5cd9 483e f3ee 6e3e ec6e ea3d
000000e0: dcf4 11be 5924 90be bbad 0d3f 0c4d 8d3e
000000f0: 025a 73be cd7d 7e3e 957d c1bc 5394 dbbd
00000100: 6ba6 10be 3a96 4b3e 43a5 aabe 3418 8abd
00000110: e0f9 febd 7208 c5bd 526f cfbd 55b8 56be
00000120: 9b03 5abc c6b0 1cbd 1cab 89be a2af d5bd
00000130: 1198 64be b265 79be 319e 6e3e b7fe d9be
00000140: 640c 20be d37b 57be 804f 2f3d b7b6 9cbe
00000150: c573 8bbc 9c36 babc 593f 9fbe 043f c1bb
00000160: 62ec 8c3e 57f0 b1bf 228e 383f 2176 fe3e
00000170: 236d ca3f 6739 fdbe a71b 82be cfdb cebd
00000180: 866f c1bb 06a9 0c3d 9346 e63d 5786 80be
00000190: 8796 79bd a99f a33e 9abd 5fbe 3dd0 2e3e
000001a0: 0c78 823c 76f6 c03e a90f 43be 0072 6e3f
000001b0: d30a 0e3e caec c73b 4466 4bbe f0d5 ad3a
000001c0: ae6d 3b3e fe91 983d 447c 473e d097 d3bd
000001d0: 34ad e73d 40eb 513e 32b8 edbd 24a3 07bf
000001e0: de59 7d3e 320c 953e 4778 ba3d 9d7f 52bd
000001f0: a87e 52bd 71dc b43e a2c6 00be 890e 573e
00000200: ffad c4be 4512 91be 26f9 ee3e 09f0 123e
00000210: fd57 a2bd 5c56 ddbd 7b9e 7f3e 6354 773c
00000220: e70c 1d3f 9e86 59bf 2c9e 643d 87b5 0b3d
00000230: 4a31 153e cce5 3f3e 75af 143d f6d0 f9bd
00000240: 0b60 1bbe 1851 38be 78b3 8abe 2dcb e6bc
00000250: 980d 113d f5e2 6b3e ac58 0dbe 63cc 063e
00000260: 5aec 463e 8c04 13bf dc82 08bf f981 69be
00000270: 36b3 813e a84a adbe 888c 61be 0b1a ca3e
00000280: cd6c ae3d cb74 ad3c bf3c 923e 6bd2 40bd
00000290: 10a8 13bf e2df c2bd 559f 14be 66f7 0dbe
000002a0: 8acf 3ebe ecc2 3dbd ec61 1dbe 6542 ecbd
000002b0: 4a3d edbd a5f6 27be 0484 f73e f85f 073d
000002c0: 6d94 8ebe 9765 b23c a6e0 f9bd 9151 72be
000002d0: dee1 143c ca00 20bd a7a0 5dbe 0cb7 8b3c
000002e0: 040e d73e fc70 63bf 3331 293f f9f6 ddbd
000002f0: 3827 e3bd 2ba1 9cbe d125 8e3e 9cbe 903e
00000300: 0404 d9bd ef7c d83d 73e7 adbd 5f8b a8be
00000310: bb9f 4abe b6de 5a3e 7327 16be a034 d0bd
00000320: 5b77 b83c effd cabe 5c5b fdbe 5341 243e
00000330: 2795 84be 22f6 48be c37e 9f3e a436 0ebf
00000340: 2e90 c8be 534b 023e cfbf 2abd abfb 91bc
00000350: 4014 28bf 9e2a 773d 79b1 55be b935 623e
00000360: 94c2 9cbe d9f5 6fbe 0928 12be 25c8 9cbd
00000370: ded1 103e 5d91 b43d 68a9 603e 753c 963e
00000380: 9a72 2abf 895c 4b3e 1f66 80be ddcd cebd
00000390: a079 d1bc 6c7f ca3d 7737 353e 2721 43be
000003a0: 4c5a c23f 9e20 d5be e369 09bc f9c9 573b
000003b0: ad6a 0f3e ebd0 b5bd 6365 2dbe 9212 e03e
000003c0: d0c2 f83f 7b2c 5f3e eca2 0d3f 8faf 013d
000003d0: 67d0 353e 49a6 c3bc 296b 623d 4ee0 e83c
000003e0: 1418 59bf ffc2 d5bd 54ec f7bd 997e af3e
000003f0: a7e8 e1bd 34d0 07be 45ee 273e 7055 8b3d

conv2.bias f4 [16]
-0.11512734 -0.05890284 0.058409486 -0.050571904 0.10907678 -0.055114325 -0.1282927 -0.053764112
0.17443937 0.01647265 0.049348112 0.028613077 0.058264043 -0.4079091 -0.057172455 0.22710757
00000000: e2c7 ebbd 1b44 71bd c93e 6f3d 7c24 4fbd
00000010: a663 df3d 8fbf 61bd 295f 03be c237 5cbd
00000020: 3ca0 323e a7f1 863c 3f21 4a3d f965 ea3c
00000030: 47a6 6e3d 76d9 d0be aa2d 6abd e38e 683e

conv3.weight f4 [8, 16, 3]
-0.20210373 -0.038058493 -0.35722023 -0.08969046 0.16708295 -0.34323627 0.9418012 0.15778486
1.1987382 0.1625711 -0.14421713 -0.043435648 0.04310335 -0.072840646 0.319592 0.23461303
-0.1589588 -0.15115394 -0.25411385 -0.10441847 -0.4522675 0.34860313 -0.07330285 0.34088963
0.16280201 0.15469801 0.15791778 0.10920303 0.18367182 -0.07351263 0.35043013 0.11986725
0.43121898 -1.2803621 -0.21742621 -0.31800866 0.22355956 0.12008079 0.019795312 0.077618025
-0.605061 -0.46070504 0.23819312 -0.102253534 -0.2030941 0.12262175 0.095645 0.5873567
0.04680793 -0.08010349 0.2973464 0.17198071 -0.028790265 0.15704268 0.33124387 -0.20258237
0.11125273 -0.12968569 0.0475384 -0.10063109 0.03609908 0.033897515 -0.1373543 -0.18734382
0.09344544 -0.03214221 0.125508 0.17527455 0.07617414 0.0054107513 -0.053685464 -0.09706134
-0.23764324 -0.016373435 -0.22643274 0.28104 0.1825431 0.10009836 -0.032972142 -0.18598244
0.07023022 1.6091403 0.37109473 1.1401713 0.2562374 0.27274445 0.35346627 0.008124285
0.55632293 0.5198814 0.098263845 0.15339871 -0.0033633863 -0.10574975 0.05489508 -0.07732806
0.31938002 0.28448722 -0.086251296 -0.20965435 0.14970306 0.29002517 0.51198715 -1.1740351
1.7921578 0.16208613 -0.106470294 0.023005532 -0.038628332 -0.13234441 0.061583217 0.4818254
-0.19540258 0.21202773 -0.40524068 0.16659279 -0.04546387 0.12253473 0.08206961 -0.28498074
0.38679913 0.009024302 0.1866006 -0.021997664 0.1507091 0.32227847 0.5430974 0.13861802
0.28349474 -1.2071532 0.12840164 -0.85488015 -0.051628742 -0.076109566 -0.2553835 -0.2427857
-0.39908412 -0.22403154 -0.27830362 0.0525858 0.14757924 0.27379775 -0.08820889 0.09510639
0.00437336 -0.087698184 -0.4564198 0.12805463 0.05577181 0.2063918 -0.40877178 0.5867347
1.360853 -0.09642757 -0.020372035 0.22942781 -0.059209168 -0.038318407 0.25134745 -0.10239249
-0.07754366 0.37435013 0.15689315 0.047581006 -0.1432599 0.040676445 0.091062486 -0.3236426
-0.11351984 0.14762564 0.090084404 0.09001064 -0.055304416 0.5703823 0.21684846 0.041436065
0.86751205 -0.57017124 -0.70851445 -1.422264 -0.016337927 -0.12756796 -0.09472873 -0.00390501
-0.73503524 -0.0812411 0.27300477 -0.04218554 0.18366332 -0.23912185 0.037918307 0.21774162
-0.108318366 0.05565193 -0.133626 0.25448194 0.03997901 -0.0075460584 1.0864408 0.23821561
0.25514498 -0.4483418 -0.045947917 0.03309293 0.33417943 -0.17146564 0.02918964 -0.01054464
0.121514946 0.114846796 0.410732 0.12286414 0.14200775 -0.54911464 -0.20247613 0.053625427
-0.14232704 -0.007357999 -0.3014249 0.07029107 0.095899545 0.04021617 0.64485955 -0.22209442
0.12516494 1.3112469 0.4543349 1.3494233 0.3252777 0.12301756 0.07786988 0.7601045
0.15777028 -0.06791194 0.47627747 0.01677085 0.09287211 -0.3348518 -0.18702799 -0.10624907
0.051155813 0.29967633 -0.28249228 -0.1207451 0.011174003 -0.2815564 0.9602207 0.40831643
0.29828173 0.34608182 0.2025047 0.24009664 -0.02014014 0.081953116 0.5988592 0.2905665
00000000: 48f4 4ebe 39e3 1bbd 92e5 b6be a2af b7bd
00000010: cb17 2b3e aabc afbe e219 713f 5b92 213e
00000020: 4170 993f 0a79 263e a8ad 13be 94e9 31bd
00000030: 238d 303d 7a2d 95bd 90a1 a33e 663e 703e
00000040: 18c6 22be 19c8 1abe 361b 82be 5ad9 d5bd
00000050: 9b8f e7be 1c7c b23e ce1f 96bd 1689 ae3e
00000060: 92b5 263e 2869 1e3e 33b5 213e d7a5 df3d
00000070: 7714 3c3e ca8d 96bd 946b b33e f67c f53d
00000080: bcc8 dc3e e8e2 a3bf faa4 5ebe 08d2 a2be
00000090: ccec 643e ebec f53d c729 a23c 33f6 9e3d
000000a0: 47e5 1abf 88e1 ebbe e6e8 733e 4d6a d1bd
000000b0: e6f7 4fbe 1d21 fb3d 87e1 c33d 025d 163f
000000c0: acb9 3f3d 4c0d a4bd ca3d 983e b61b 303e
000000d0: 90d9 ebbc cccf 203e cc98 a93e c171 4fbe
000000e0: 79d8 e33d 53cc 04be a0b7 423d ac17 cebd
000000f0: a1dc 133d 1fd8 0a3d 9ba6 0cbe 0fd7 3fbe
00000100: 5360 bf3d 8da7 03bd 2b85 003e 2c7b 333e
00000110: 3001 9c3d ac4c b13b 4ae5 5bbd 19c8 c6bd
00000120: c058 73be 9521 86bc fcdd 67be 7ae4 8f3e
00000130: 94ec 3a3e 5e00 cd3d cc0d 07bd 2e72 3ebe
00000140: ddd4 8f3d 4ff8 cd3f 2100 be3e 22f1 913f
00000150: 8c31 833e 29a5 8b3e 88f9 b43e b91b 053c
00000160: 2e6b 0e3f f316 053f 8e3e c93d 8d14 1d3e
00000170: 426c 5cbb 5393 d8bd aad9 603d 2d5e 9ebd
00000180: c785 a33e 4fa8 913e 85a4 b0bd a1af 56be
00000190: c24b 193e 2e7e 943e 9711 033f c846 96bf
000001a0: 6d65 e53f e8f9 253e 190d dabd 1976 bc3c
000001b0: be38 1ebd 4b85 07be af3e 7c3d d2b1 f63e
000001c0: 9d17 48be cc1d 593e b57b cfbe 4d97 2a3e
000001d0: 5338 3abd 7df3 fa3d 1d14 a83d ffe8 91be
000001e0: 890a c63e aada 133c 3a14 3f3e 7234 b4bc
000001f0: 7c53 1a3e af01 a53e 6e08 0b3f e2f1 0d3e
00000200: 3926 913e ff83 9abf b87b 033e 6dd9 5abf
00000210: a978 53bd 55df 9bbd a0c1 82be d19c 78be
00000220: c154 ccbe 8668 65be d07d 8ebe 3564 573d
00000230: 031f 173e 382f 8c3e dda6 b4bd 24c7 c23d
00000240: 674e 8f3b 1b9b b3bd dbaf e9be c120 033e
00000250: fb70 643d 5f58 533e 894a d1be 3f34 163f
00000260: 6e30 ae3f d17b c5bd 41e3 a6bc 20ef 6a3e
00000270: 5085 72bd c3f3 1cbd 9db0 803e 27b3 d1bd
00000280: 36cf 9ebd d2aa bf3e 99a8 203e 4de4 423d
00000290: b9b2 12be 589c 263d f87e ba3d 7cb4 a5be
000002a0: 177d e8bd 2d2b 173e 2c7e b83d 8057 b83d
000002b0: e286 62bd 9304 123f 860d 5e3e ddb8 293d
000002c0: 4515 5e3f bef6 11bf 3461 35bf bf0c b6bf
000002d0: 1ed7 85bc 2da1 02be 2301 c2bd 32eb 7fbb
000002e0: 452b 3cbf bc61 a6bd 48c7 8b3e bfca 2cbd
000002f0: 3d12 3c3e 5cdc 74be 3a50 1b3d a9f7 5e3e
00000300: 05d6 ddbd 47f3 633d 41d5 08be 754b 823e
00000310: 08c1 233d ed44 f7bb 7e10 8b3f cbee 733e
00000320: 5da2 823e 0e8d e5be e233 3cbd 748c 073d
00000330: 9119 ab3e b094 2fbe 1d1f ef3c 6dc3 2cbc
00000340: d4dc f83d cc34 eb3d 774b d23e 32a0 fb3d
00000350: 7b6a 113e c792 0cbf e755 4fbe 56a6 5b3d
00000360: 2ebe 11be 5f1b f1bb 5d54 9abe c4f4 8f3d
00000370: fb66 c43d b6b9 243d 8415 253f b86c 63be
00000380: 3d2b 003e f0d6 a73f 969e e83e e7b9 ac3f
00000390: cc8a a63e a1f0 fb3d 3e7a 9f3d 3596 423f
000003a0: 888e 213e 6a15 8bbd a4da f33e 0663 893c
000003b0: bc33 be3d b271 abbe 4484 3fbe 1d99 d9bd
000003c0: c288 513d 2d6f 993e d4a2 90be 3549 f7bd
000003d0: 2a13 373c 2928 90be 06d1 753f da0e d13e
000003e0: 62b8 983e a331 b13e 645d 4f3e e5db 753e
000003f0: effc a4bc 09d7 a73d d64e 193f 22c5 943e

conv3.bias f4 [8]
0.23335432 0.2705326 0.002677167 -0.0142835835 -0.067113414 -0.13494642 -0.22081436 0.18638617
00000000: 6ff4 6e3e 4083 8a3e 6973 2f3b b105 6abc
00000010: c272 89bd 652f 0abe 291d 62be 04dc 3e3e

t_conv1.weight f4 [8, 8, 3]
-0.9837849 -0.39827016 0.3830496 -0.30975336 -0.056592345 -0.10738872 -0.16668208 -0.36894044
-0.1948693 -1.4230542 0.3064031 0.31727862 0.43468058 0.24370596 0.07104339 0.0271555
0.0029029415 -4.038713 0.08420575 0.29122055 0.26303324 -0.013465192 0.49334165 0.22106798
-0.10104801 0.07846709 0.32937446 -0.20858002 -0.040572695 -0.3876597 0.26143548 0.2501141
0.23501745 -0.022046423 -0.29632783 -0.30560806 -0.32888207 -0.45787734 0.022523535 0.25580752
-0.043587748 -2.2817903 -0.24315391 -0.6057824 -0.07843164 0.4169499 -0.030713918 -0.48265797
-1.048368 0.19367157 0.5511047 0.18486337 0.11711873 0.2434952 0.07886358 -0.2925523
-0.016320607 0.48281473 0.017453076 0.62406516 0.1645351 0.13396828 -0.090749644 1.4526091
-0.24792944 -3.4808297 0.225685 0.1814919 0.048649453 0.43619123 -0.5908208 0.616255
-0.49309942 -0.1266458 0.06264129 0.57508516 0.19883747 -0.11974197 -0.030570704 0.102205105
0.011767646 -0.43696785 0.2767404 -0.008356582 0.47737634 -0.045999166 0.07227321 0.8352525
0.19971296 -3.3358755 0.20658176 0.028726466 0.14692275 0.042385086 0.17190695 -0.28013587
-0.2566711 0.39584878 0.21252517 -0.106094085 -0.4421408 -0.36631846 0.2612638 0.17930718
0.12032678 -0.36364913 0.28691584 0.5740089 0.10544819 -0.45520046 0.45560956 0.26115525
0.099109426 1.5188868 0.24005249 -1.0999142 0.32206175 0.2207789 0.42003357 0.08674388
0.5767865 0.038930755 0.087783955 0.33922854 0.20222029 0.29940933 0.3918688 0.14647447
0.20818824 -1.0908567 0.10834693 -0.12549266 0.097724095 -0.049649153 0.052405648 0.36919427
0.3361404 -2.1489973 0.39795196 0.15458038 0.05869576 -0.23997058 -0.041810375 -0.0685431
-0.42241728 -0.050842647 0.33529773 0.26891834 0.40691918 0.5118901 0.14923058 0.31038722
0.0913081 0.48866427 0.19857308 -0.7284507 -0.24367462 -0.22503857 0.4899642 1.1370633
0.2966534 -1.9048696 -0.025474824 -0.07775648 0.36018932 0.012480309 -0.038873035 -0.39469677
-0.45414856 -0.0884537 0.26868045 0.5033827 0.27117124 0.14916651 0.1967303 0.33009586
0.1350856 0.898334 -0.19184709 -1.3334149 -0.20351201 -0.19423564 0.08214501 0.052447297
-0.101368956 -2.8594706 -0.2648924 -0.32043138 -0.39923888 0.21493268 -0.39686933 -0.16571878
00000000: 54d9 7bbf 11ea cbbe 141f c43e fe97 9ebe
00000010: 60cd 67bd 9eee dbbd b5ae 2abe c3e5 bcbe
00000020: d18b 47be a426 b6bf dee0 9c3e 5872 a23e
00000030: 748e de3e 0e8e 793e 327f 913d 3675 de3c
00000040: 473f 3e3b 233d 81c0 1074 ac3d dc1a 953e
00000050: 4bac 863e 1c9d 5cbc 4797 fc3e a55f 623e
00000060: 42f2 cebd 5bb3 a03d c5a3 a83e 0096 55be
00000070: 8e2f 26bd 557b c6be dfda 853e f50e 803e
00000080: 6aa8 703e b39a b4bc 48b8 97be a978 9cbe
00000090: 3b63 a8be e66e eabe 4783 b83c 34f9 823e
000000a0: 1189 32bd da08 12c0 57fd 78be 8e14 1bbf
000000b0: c5a0 a0bd 757a d53e c19b fbbc f21e f7be
000000c0: ec30 86bf d751 463e 3315 0d3f d34c 3d3e
000000d0: f2db ef3d ce56 793e 3b83 a13d 6ac9 95be
000000e0: cbb2 85bc 7e33 f73e c1f9 8e3c bcc2 1f3f
000000f0: e47b 283e fb2e 093e f3da b9bd 18ef b93f
00000100: 37e1 7dbe eac5 5ec0 f819 673e 03d9 393e
00000110: a644 473d 7554 df3e 0840 17bf e3c2 1d3f
00000120: 8777 fcbe 70af 01be 144a 803d c838 133f
00000130: 0d9c 4b3e 473b f5bd 6a6f fabc e950 d13d
00000140: 16cd 403c 40ba dfbe ebb0 8d3e 0cea 08bc
00000150: ac6a f43e 9f69 3cbd fa03 943d 1cd3 553f
00000160: 8e81 4c3e fc7e 55c0 2b8a 533e c453 eb3c
00000170: eb72 163e fc9b 2d3d 6008 303e f86d 8fbe
00000180: 656a 83be b1ac ca3e 33a0 593e db47 d9bd
00000190: 4760 e2be 188e bbbe 5ec4 853e 4d9c 373e
000001a0: e36d f63d 3830 babe a2e6 923e 3ff2 123f
000001b0: 38f5 d73d 0910 e9be a845 e93e 24b6 853e
000001c0: e2f9 ca3d e26a c23f 52d0 753e fdc9 8cbf
000001d0: 47e5 a43e dd13 623e a40e d73e c6a6 b13d
000001e0: 48a8 133f db75 1f3d 13c8 b33d 5daf ad3e
000001f0: d612 4f3e 2e4c 993e 07a3 c83e 67fd 153e
00000200: 4c2f 553e 31a1 8bbf ffe4 dd3d 2681 00be
00000210: 9223 c83d e95c 4bbd 4ea7 563d 0807 bd3e
00000220: 981a ac3e 2c89 09c0 5cc0 cb3e 524a 1e3e
00000230: f76a 703d d9ba 75be 5b41 2bbd 5360 8cbd
00000240: 1447 d8be 6140 50bd 25ac ab3e aaaf 893e
00000250: b657 d03e 3b0b 033f e7cf 183e 13eb 9e3e
00000260: beff ba3d 3432 fa3e be56 4b3e bf7b 3abf
00000270: d785 79be 8370 66be 96dc fa3e 4a8b 913f
00000280: f4e2 973e c4d2 f3bf 94b0 d0bc ca3e 9fbd
00000290: bc6a b83e 367a 4c3c 5539 1fbd b215 cabe
000002a0: 2986 e8be 3727 b5bd 7c90 893e b0dd 003f
000002b0: f5d6 8a3e 1bbf 183e ab73 493e 5302 a93e
000002c0: e153 0a3e 38f9 653f 9073 44be 57ad aabf
000002d0: 7465 50be b5e5 46be a53b a83d fad2 563d
000002e0: 879a cfbd 9101 37c0 fa9f 87be 950f a4be
000002f0: 0a69 ccbe 5017 5c3e 7532 cbbe 2fb2 29be

t_conv1.bias f4 [8]
0.083944894 -0.24328855 0.26752093 0.09571118 0.011024167 0.20978212 -0.009803356 -0.010466572
00000000: 4deb ab3d a220 79be 81f8 883e 3904 c43d
00000010: b59e 343c 20d1 563e 419e 20bc fc7b 2bbc

t_conv2.weight f4 [8, 16, 2]
-0.079545155 -0.08647071 -0.062529996 0.21377808 -0.019533103 0.36430457 0.0010705801 0.38294366
0.24121076 0.0964264 -0.27886033 -0.13998799 -0.013870124 -0.0016751789 0.4472654 0.3198036
0.6030565 0.0012977829 -0.09525798 0.09445403 0.16773477 0.4649176 0.2977117 0.09045441
-0.2841863 0.34622538 0.33510178 -0.070512936 -0.443884 0.13998444 0.11117096 -0.033269845
-0.07625983 0.19496399 -0.18428358 0.29842475 0.62622 0.022169955 -0.17539094 -0.079650976
-0.587454 0.00014874605 0.55513716 -0.12483852 0.015990524 -0.5305512 0.12145164 -0.109467335
-0.15991803 0.055304132 -0.48696703 -0.080914594 0.039517056 0.038492154 0.5209462 0.14788522
0.051383093 -0.008733032 0.24386175 0.35574463 0.4495119 -0.42844585 -0.16850857 0.41935423
-0.1538123 -0.08699898 -0.1881437 -0.12534744 -0.17163984 -0.108628884 0.12913987 0.057201445
0.32215825 0.32327837 0.030563412 0.003996479 0.28082034 0.27800143 0.24698426 0.23133181
-0.6473862 -0.17484522 0.08634378 -0.07611597 -0.14198384 -0.2874848 -0.06898011 -0.14502765
-0.08900827 -0.15409724 -0.10265347 -0.05705402 -0.30402002 -0.0021275748 -0.16035414 -0.14184031
0.30090454 0.24068454 -0.12667362 -0.094019234 0.28036106 0.37897617 -0.5794989 0.36176032
-0.32414085 -0.19686677 -0.21287976 -0.08604372 -0.3631291 -0.42788926 -0.20395814 -0.15484963
-0.07239388 0.06141501 0.46057457 -0.16788389 0.16947909 0.22273706 -0.23357232 0.58115596
-0.0069546155 -0.10143307 0.3504026 -1.0711254 0.14857785 -1.1690346 -0.045644376 -0.15570587
0.0018279434 0.34295893 -0.10730519 0.086167745 -0.33875492 0.31157807 0.5381335 0.010028032
0.19521885 -0.38299575 0.26146862 0.18353589 -0.27978536 0.11022955 -0.33601123 0.17378339
-0.43942717 0.030484365 0.47871438 0.044433475 0.25516814 0.11576995 0.13973208 -0.029364282
-0.08237836 0.2641066 0.18633342 0.30072284 -0.009302784 0.36856705 0.025800262 -0.1403902
-0.13858247 -0.1775704 0.07914187 -0.10823372 0.12721655 -0.036531597 -2.6618936 0.40567806
0.070293516 0.14473692 -0.46067336 0.06817497 0.070843235 0.048587225 0.40838188 0.117100134
0.67940795 -0.12822264 -0.19357538 0.05980585 -0.25644538 -0.06462939 0.1272353 0.33688825
0.5523362 0.31917924 0.17556962 0.2889642 -0.6176615 -2.1365585 0.08915414 0.18718192
0.20874947 0.045723844 -0.12687574 0.39395228 0.06275314 0.15560572 0.1666319 0.10162073
-0.11308843 -0.6821134 0.11044422 0.17631088 -0.2579346 -0.15420493 -0.44639528 -0.3611873
-0.23418297 -0.0795956 0.05268215 -0.10928875 0.014136626 0.2407711 0.19203676 0.34150976
-0.28575543 -0.11623721 0.3009977 0.22363983 0.028792951 0.06895952 -0.1994294 0.05049466
0.33556744 -0.030337976 -0.12811291 0.19726507 0.22983047 0.01966504 -0.372163 -0.29972765
-0.18616451 0.03670303 0.20730084 -0.17770828 0.310011 -0.45072144 -0.6720466 0.048918538
-0.1438028 -0.1328078 -0.054842215 -0.14629927 0.31312883 -0.049810153 -0.20961916 -0.56606835
0.46333814 -0.19920325 -0.27863544 -0.31448656 -0.66961586 -0.4180207 -0.15846163 0.38006637
00000000: 92e8 a2bd 8e17 b1bd ba0f 80bd a4e8 5a3e
00000010: e303 a0bc 2186 ba3e b552 8c3a 3111 c43e
00000020: f4ff 763e 347b c53d c8c6 8ebe 0359 0fbe
00000030: 843f 63bc ad91 dbba f8ff e43e 4cbd a33e
00000040: e961 1a3f 5e1a aa3a 9e16 c3bd 1d71 c13d
00000050: aac2 2b3e ae09 ee3e ab6d 983e 2940 b93d
00000060: de80 91be 7444 b13e 7692 ab3e 1669 90bd
00000070: c344 e3be 1558 0f3e 9aad e33d f645 08bd
00000080: 1d2e 9cbd a4a4 473e d6b4 3cbe 21cb 983e
00000090: f44f 203f c49d b53c af99 33be 0d20 a3bd
000000a0: 6363 16bf b7f8 1b39 781d 0e3f 57ab ffbd
000000b0: 8ffe 823c 34d2 07bf a3bb f83d 6930 e0bd
000000c0: 8dc1 23be 9686 623d be53 f9be 8db6 a5bd
000000d0: a3dc 213d f3a9 1d3d bb5c 053f 396f 173e
000000e0: 1477 523d fe14 0fbc e5b6 793e 2924 b63e
000000f0: 6c26 e63e 415d dbbe 838d 2cbe 99b5 d63e
00000100: f980 1dbe 852c b2bd bea8 40be 145b 00be
00000110: 5bc2 2fbe d278 debd 3e3d 043e 104c 6a3d
00000120: edf1 a43e be84 a53e 1f60 fa3c e5f4 823b
00000130: afc7 8f3e 3456 8e3e 71e9 7c3e 3fe2 6c3e
00000140: 1abb 25bf a00a 33be 02d5 b03d b1e2 9bbd
00000150: 3664 11be 3531 93be 7245 8dbd 2182 14be
00000160: f849 b6bd abcb 1dbe fc3b d2bd 7ab1 69bd
00000170: 83a8 9bbe c86e 0bbb e033 24be 963e 11be
00000180: 2910 9a3e 0276 763e bbb6 01be 288d c0bd
00000190: 7c8b 8f3e 2a09 c23e 0a5a 14bf a638 b93e
000001a0: caf5 a5be 7197 49be 27fd 59be b137 b0bd
000001b0: 0fec b9be 4d14 dbbe 67da 50be e790 1ebe
000001c0: 3e43 94bd 4e8e 7b3d 6ed0 eb3e c1e9 2bbe
000001d0: ed8b 2d3e 2f15 643e 952d 6fbe a3c6 143f
000001e0: 8be3 e3bb 24bc cfbd f867 b33e a31a 89bf
000001f0: cb24 183e eda2 95bf 99f5 3abd 5c71 1fbe
00000200: 9a97 ef3a 5098 af3e d3c2 dbbd b778 b03d
00000210: 4971 adbe 2987 9f3e 1ec3 093f 9d4c 243c
00000220: 73e7 473e 0518 c4be 37df 853e d5f0 3b3e
00000230: 0740 8fbe 08c0 e13d aa09 acbe 46f4 313e
00000240: 99fc e0be 59ba f93c 0d1a f53e e0ff 353d
00000250: 66a5 823e cc18 ed3d ed15 0f3e 5d8d f0bc
00000260: fcb5 a8bd fb38 873e 30ce 3e3e 58f8 993e
00000270: b46a 18bc d2b4 bc3e 125b d33c 73c2 0fbe
00000280: 90e8 0dbe 04d5 35be 2215 a23d a4a9 ddbd
00000290: 0e45 023e 28a2 15bd 775c 2ac0 09b5 cf3e
000002a0: 0cf6 8f3d ea35 143e 61dd ebbe 529f 8b3d
000002b0: 4216 913d 6603 473d 6e17 d13e 32d2 ef3d
000002c0: aeed 2d3f cc4c 03be a038 46be fbf6 743d
000002d0: cf4c 83be 6a5c 84bd f849 023e 9e7c ac3e
000002e0: e865 0d3f 766b a33e 86c8 333e 1ef3 933e
000002f0: 101f 1ebf 60bd 08c0 7296 b63d 9eac 3f3e
00000300: 6cc2 553e ed48 3b3d b7eb 01be 1db4 c93e
00000310: b884 803d 1b57 1f3e 8ea1 2a3e 871e d03d
00000320: e89a e7bd fc9e 2ebf 9430 e23d d78a 343e
00000330: 0110 84be e6e7 1dbe ec8d e4be 8bed b8be
00000340: a9cd 6fbe 0503 a3bd 3dc9 573d c8d2 dfbd
00000350: 4f9d 673c b38c 763e 49a5 443e 5eda ae3e
00000360: 894e 92be c60d eebd 5f1c 9a3e d701 653e
00000370: 32df eb3c a63a 8d3d 3837 4cbe 7dd3 4e3d
00000380: 7fcf ab3e 5987 f8bc 0830 03be dbff 493e
00000390: ae58 6b3e 9418 a13c 268c bebe e775 99be
000003a0: e9a1 3ebe eb55 163d ac46 543e 29f9 35be
000003b0: c3b9 9e3e f6c4 e6be 3f0b 2cbf ce5e 483d
000003c0: 0b41 13be c5fe 07be 3ba2 60bd 7acf 15be
000003d0: 6c52 a03e bb05 4cbd 68a6 56be dbe9 10bf
000003e0: a83a ed3e f0fb 4bbe 4ea9 8ebe 6204 a1be
000003f0: f26b 2bbf cf06 d6be c443 22be 0f98 c23e

t_conv2.bias f4 [16]
0.028850665 -0.00095899287 -0.16647018 0.023669062 0.016493838 0.07557162 0.11490677 -0.2100197
-0.4263107 -0.6709173 0.15206939 -0.13438703 0.039342932 -0.17031926 0.047574334 -0.3017824
00000000: 3b58 ec3c ec64 7bba 2977 2abe 9fe5 c13c
00000010: 161e 873c 4bc5 9a3d 3e54 eb3d 670f 57be
00000020: 6545 dabe 3cc1 2bbf 14b8 1b3e c19c 09be
00000030: 0e26 213d 2c68 2ebe 4edd 423d 3983 9abe

t_conv3.weight f4 [16, 32, 2]
0.1749242 0.111680344 -0.10135694 0.09868695 -0.087237306 -0.40604386 -0.111582965 0.10310602
-0.13359168 -0.42257065 -0.05096775 0.17786147 -0.11556494 -0.102281466 0.114938356 0.07206699
0.19823013 -0.006892208 0.00444464 -0.13118273 0.22756277 0.1467412 0.32555738 0.2604634
0.02865817 0.26037005 -0.08188314 0.3093018 -0.21423668 -0.47721487 0.18585746 -0.0634356
0.075993575 -0.59613067 -0.24242596 -0.1827566 0.24673082 0.09948408 -0.35978717 -0.19534099
-0.59617126 -0.23755378 0.22659901 0.056455754 -0.0016712133 -1.0554053 -0.07099562 -1.7209477
0.18873987 0.21102801 0.11828017 0.19529034 -0.008592673 0.032992247 -0.46478716 0.15671316
-0.070513174 0.45984012 0.26183057 0.038947035 0.027964681 0.18023935 0.29598522 -0.0074701444
0.023582634 0.21476322 -0.24247606 -0.07024582 -0.048797082 -0.10105674 -0.7871588 -0.62518877
-0.11553868 -0.13614559 -0.16066417 0.09700481 0.017253324 0.0703777 0.012287135 0.036678016
0.09083289 0.12747802 -0.04936476 -0.028782826 0.16140027 0.071736306 0.2377818 0.19761218
0.017587453 0.21111934 -0.05230535 0.24268495 -0.06573405 -0.050802656 0.28393775 -0.68414676
0.015550375 1.1836761 -0.2690504 0.18237637 0.14507729 0.24136837 -0.28628364 -0.31675312
0.3847889 -0.05065735 0.15852225 0.037436485 0.08955379 -0.42941535 -0.054899093 -1.0927367
0.08947121 0.15958019 0.28357852 0.57995796 0.06741659 -0.08464617 0.07375277 -0.18595113
-0.06126991 -0.51905507 0.035294496 -0.09544556 0.0510433 -0.08484682 0.04710951 0.29292136
0.06981947 0.090182826 0.15498836 -0.21029916 -0.030619161 0.2551715 -1.1635617 0.18463406
0.026967527 -0.2608719 -0.1314799 -0.49834365 -0.18099526 -0.15207264 -0.007182697 0.10795077
0.14150198 -0.115922876 0.10092589 0.27112183 0.011004188 0.14315756 0.04502616 0.1454933
0.038889103 0.14481673 -0.05317328 0.17666253 -0.24418974 -0.26032972 0.20557913 -0.4501153
-0.57457477 -0.45808125 -0.3091337 -0.46914983 0.084891185 0.2108327 -0.068319745 -0.047493912
-1.0506092 -0.4779757 -0.029976724 -0.46675372 0.017560555 0.44742373 0.045675296 0.30192155
-0.011471235 0.014453479 0.3248491 0.25664255 -0.07478663 0.13320293 0.15796685 0.010248526
-0.11584258 0.38883495 0.28752556 -0.0037545012 -0.09413116 0.3190146 -0.13494633 -0.115657784
0.03678105 -0.23958974 -0.8315727 -0.0077484967 0.07624957 0.07768412 0.3207005 0.3894921
-0.15924415 0.13585831 -0.059176262 -0.22969517 0.18652344 -0.30715123 -0.31431162 0.17623395
-0.14294033 0.10618222 -0.016303549 0.17322288 0.20421484 -0.24558239 0.23291108 0.024428794
0.117642045 0.0024855551 -0.16521925 -0.10752699 0.28069603 0.20524451 -0.334569 -0.63827395
-0.7511762 -0.013739597 0.34182566 0.08181463 0.017815372 0.06253968 0.33861107 0.32887438
-0.05930695 -0.18477853 0.53277266 0.054894954 -0.0018686188 0.33452484 -0.13823535 -0.12591837
0.032462396 0.17161906 -0.17675178 -0.013582661 0.031682 -0.1189504 -0.34977007 0.05327289
-0.112901464 0.027341863 -0.1703519 -0.05396849 -0.08312674 -0.43820226 -0.93488014 0.009848079
00000000: 541f 333e aab8 e43d 3a94 cfbd 621c ca3d
00000010: 79a9 b2bd fbe4 cfbe 9c85 e4bd 4029 d33d
00000020: 42cc 08be 2e5b d8be 8fc3 50bd 5121 363e
00000030: 50ad ecbd f278 d1bd cd64 eb3d dc97 933d
00000040: d7fc 4a3e 08d8 e1bb 58a4 913b c454 06be
00000050: 3706 693e 5343 163e 75af a63e 755b 853e
00000060: 8ac4 ea3c 394f 853e 59b2 a7bd ce5c 9e3e
00000070: dc60 5bbe 8255 f4be 6b51 3e3e 86ea 81bd
00000080: 85a2 9b3d 059c 18bf 833e 78be 8c24 3bbe
00000090: 01a7 7c3e 4fbe cb3d 0636 b8be 7807 48be
000000a0: ae9e 18bf 4c41 73be 9209 683e 263e 673d
000000b0: 9d0c dbba 8517 87bf 2766 91bd 0448 dcbf
000000c0: 0645 413e ba17 583e e03c f23d 31fa 473e
000000d0: 48c8 0cbc e122 073d 95f8 edbe 6a79 203e
000000e0: 3669 90bd 2a70 eb3e a80e 863e ed86 1f3d
000000f0: 3016 e53c aa90 383e 608b 973e 1dc8 f4bb
00000100: 5e30 c13c e4ea 5b3e a54b 78be 0add 8fbd
00000110: 73df 47bd d6f6 cebd 3d83 49bf 5f0c 20bf
00000120: 8b9f ecbd c069 0bbe 2685 24be 75aa c63d
00000130: d856 8d3c 2f22 903d fb4f 493c b03b 163d
00000140: 9806 ba3d 9989 023e b432 4abd f6c9 ebbc
00000150: 1d46 253e 7cea 923d 127d 733e d95a 4a3e
00000160: 9013 903c ab2f 583e 223e 56bd 6782 783e
00000170: 939f 86bd 7216 50bd 4a60 913e 3e24 2fbf
00000180: 00c7 7e3c b382 973f f9c0 89be dfc0 3a3e
00000190: 248f 143e 4529 773e c593 92be 772d a2be
000001a0: 0d03 c53e 157e 4fbd a853 223e 0057 193d
000001b0: fa67 b73d 54dc dbbe dfdd 60bd ccde 8bbf
000001c0: af3c b73d fd68 233e 3431 913e 2078 143f
000001d0: b611 8a3d f95a adbd b10b 973d f969 3ebe
000001e0: 28f6 7abd cbe0 04bf f690 103d f678 c3bd
000001f0: c812 513d 2bc4 adbd e7f5 403d caf9 953e
00000200: 83fd 8e3d c6b1 b83d 45b5 1e3e aa58 57be
00000210: 09d5 fabc d7a5 823e 97ef 94bf b610 3d3e
00000220: 01eb dc3c 0091 85be aba2 06be e626 ffbe
00000230: d256 39be eeb8 1bbe d45c ebbb 4b15 dd3d
00000240: e5e5 103e f968 edbd 3cb2 ce3d 7bd0 8a3e
00000250: e94a 343c e597 123e 5a6d 383d 32fc 143e
00000260: 2e4a 1f3d d64a 143e 3acc 59bd 06e7 343e
00000270: e00c 7abe f049 85be 5683 523e 8375 e6be
00000280: 5517 13bf a089 eabe c646 9ebe 6834 f0be
00000290: 6edb ad3d 87e4 573e 39eb 8bbd fa88 42bd
000002a0: 5d7a 86bf 3bb9 f4be bf91 f5bc 58fa eebe
000002b0: 27db 8f3c b914 e53e 0516 3b3d 7695 9a3e
000002c0: d9f1 3bbc 49ce 6c3c 9f52 a63e a766 833e
000002d0: bc29 99bd 5966 083e 10c2 213e 6fe9 273c
000002e0: e03e edbd 6015 c73e 8d36 933e 140e 76bb
000002f0: d6c7 c0bd e255 a33e 5f2f 0abe fddd ecbd
00000300: baa7 163d 0357 75be f3e1 54bf 1ae7 fdbb
00000310: bc28 9c3d da18 9f3d db32 a43e 826b c73e
00000320: e610 23be 711e 0b3e cf62 72bd 3635 6bbe
00000330: 0000 3f3e ed42 9dbe 74ed a0be ac76 343e
00000340: f35e 12be 1076 d93d 058f 85bc 5761 313e
00000350: b21d 513e f379 7bbe 3e80 6e3e e51e c83c
00000360: 50ee f03d b2e4 223b 3c2f 29be 1c37 dcbd
00000370: 64b7 8f3e 9e2b 523e a14c abbe ec65 23bf
00000380: 154d 40bf 0c1c 61bc c603 af3e 6e8e a73d
00000390: 8bf1 913c ce14 803d 6e5e ad3e 3962 a83e
000003a0: d8eb 72bd 9536 3dbe ca63 083f 88d9 603d
000003b0: 71ec f4ba d746 ab3e 918d 0dbe bff0 00be
000003c0: 4af7 043d e8bc 2f3e 6bfe 34be cf89 5ebc
000003d0: fcc4 013d 449c f3bd 1015 b3be ad34 5a3d
000003e0: e238 e7bd 0bfc df3c ba70 2ebe 100e 5dbd
000003f0: 5a3e aabd 0c5c e0be 4e54 6fbf d659 213c

t_conv3.bias f4 [32]
0.17414896 0.10635996 -0.06187513 -0.068583235 -0.16367207 -0.034785684 0.08340744 -0.0058918344
0.13069826 0.009975899 0.18026863 0.14782375 0.18055007 0.19298255 -0.040041912 -0.020482903
0.05094286 0.11771803 0.24327941 0.012512427 0.2031807 -0.62970215 -0.41816297 -0.23998891
0.14082533 0.013756846 -0.003333391 0.061351836 -0.35145113 -0.28757602 -0.36754256 0.023755258
00000000: 1b54 323e 40d3 d93d c770 7dbd 5e75 8cbd
00000010: a799 27be 6f7b 0ebd 85d1 aa3d 4a10 c1bb
00000020: c4d5 053e f471 233c 5798 383e 1c5f 173e
00000030: 1ee2 383e 389d 453e fd02 24bd c3cb a7bc
00000040: 76a9 503d 2716 f13d 3d1e 793e ec00 4d3c
00000050: 9a0e 503e 2934 21bf 7519 d6be a7bf 75be
00000060: 8434 103e 6564 613c 0575 5abb 104c 7b3d
00000070: 67f1 b3be 2a3d 93be 8a2e bcbe 639a c23c

conv_out.weight f4 [1, 32, 3]
-0.109250866 -0.09030901 -0.04840565 -0.209883 -0.03204637 0.16449487 0.21687579 0.09308855
-0.0189823 -0.1343322 -0.55113876 -0.5902208 -0.588808 -0.5890046 -0.38171956 -0.364758
0.022735713 -0.32891446 0.07505309 -0.10331718 -0.034923222 0.018910162 0.16476235 -0.22108282
-0.14194946 0.043344125 -0.13915251 -0.053483393 0.14577048 -0.07649338 -0.037055496 -0.15725504
-0.1984456 -0.23138902 -0.17839889 -0.17315862 -0.19221205 -0.16310419 -0.053006005 -0.2683496
-0.09519512 0.043308903 0.17905636 0.021032328 0.2063386 0.199195 -0.17187795 -0.25353995
0.2705757 0.08584242 -0.34035793 0.19906674 0.142102 0.29815358 -0.21691154 -0.117358014
-0.2207748 0.09415207 0.118688054 0.16156337 0.16164218 0.05197869 -0.30505592 0.41723862
0.92477643 0.7946417 -1.120353 -1.6482601 -0.28404954 0.08505078 0.21291979 0.27025646
-0.1621367 0.012681206 -0.1113101 -0.50563407 -0.2665797 -0.15955429 -0.015581173 0.19230063
-0.14927064 -0.32428902 0.3214371 0.02627551 0.5648699 0.6081292 0.4039311 0.079772554
0.10445093 0.52771515 1.0876178 1.0526378 0.6534914 -0.2308362 0.015227243 0.26884696
00000000: ebbe dfbd eef3 b8bd 0145 46bd 92eb 56be
00000010: 0e43 03bd 5871 283e b014 5e3e 36a5 be3d
00000020: c580 9bbc 618e 09be 6e17 0dbf b618 17bf
00000030: 1fbc 16bf 01c9 16bf bf70 c3be 90c1 babe
00000040: 3f40 ba3c 7a67 a8be 6fb5 993d f597 d3bd
00000050: a70b 0fbd 7ce9 9a3c 76b7 283e 8963 62be
00000060: 335b 11be 9c89 313d ff7d 0ebe 6711 5bbd
00000070: db44 153e 90a8 9cbd 81c7 17bd 7707 21be
00000080: 5335 4bbe 3ef1 6cbe 33ae 36be 7e50 31be
00000090: 3cd3 44be c904 27be d31c 59bd 1e65 89be
000000a0: a9f5 c2bd ad64 313d 8d5a 373e fd4b ac3c
000000b0: 6d4a 533e c6f9 4b3e c600 30be fdcf 81be
000000c0: e688 8a3e 27ce af3d 6543 aebe 27d8 4b3e
000000d0: 3083 113e 96a7 983e 0f1e 5ebe 6659 f0bd
000000e0: ca12 62be cdd2 c03d b912 f33d de70 253e
000000f0: 8785 253e 9be7 543d 4a30 9cbe 4da0 d53e
00000100: 26be 6c3f a36d 4b3f ba67 8fbf 30fa d2bf
00000110: f16e 91be 1a2f ae3d a507 5a3e 0e5f 8a3e
00000120: 2a07 26be d5c4 4f3c 8df6 e3bd 3c71 01bf
00000130: 227d 88be 3362 23be 2d48 7fbc 75ea 443e
00000140: 67da 18be 3609 a6be 6793 a43e bd3f d73c
00000150: 509b 103f 5bae 1b3f 0fd0 ce3e cb5f a33d
00000160: 5fea d53d 5718 073f 0f37 8b3f d6bc 863f
00000170: 364b 273f 5360 6cbe b07b 793c 4fa6 893e
