dAE_PyTorch/checkpoints/spectra_dae_epoch_9.pth (torch, 18875 bytes, 13 tensors)

conv1.weight f4 [32, 1, 3]
00000000: 2b1a 1f3f 1626 0b3f fd18 08be 53f9 f6bd
00000010: edaa 2fbe d853 003f d922 24bf e1f5 1f3f
00000020: 9aba 533c a7bd e4bc 4c29 23bd 0288 493f
00000030: bcaf 063f 5c17 01be af87 37be e943 323c
00000040: 386a 34bf 21ab e83e 3c28 0ebf 743e 18bf
00000050: f0b7 993e a7d3 313f 7de2 293e 21cf 14bf
00000060: bed5 72bc ffcd 7fbf bc87 653b 0693 ce3c
00000070: 5531 c73e 7d7e ff3e 9482 f1be a5a3 9e3e
00000080: d9c7 16bf 55eb 1abf 41ac 8ebc e239 193f
00000090: a839 6e3e 93a8 fa3d 7a0a d13e d86c 043f
000000a0: 34c5 ccbe c790 34bf a702 173f 85a0 8dbd
000000b0: 52c7 833e c6db 46be 9cff 313f 2374 bebe
000000c0: 698d 34b9 2049 95bf 350e 93b9 fa53 943e
000000d0: c26b 793e c7d4 8e3e 8c45 72bf fc22 b03d
000000e0: bfad 713d 62cc b33e f99c 673e b2ff a13e
000000f0: 9666 043e da6f 7a3e 6d36 02be 565f 5abf
00000100: af26 d53c 67e4 413c 9056 463f e929 aabe
00000110: 2029 03be 528a f6be d5a3 24bf 3bcf 21bf
00000120: f281 02bf 5f24 2abf 853c 623d 8499 d5be
00000130: c5a1 d5be 3aaa 0ebf f332 b5be 2889 fbbe
00000140: d55b bebe f08c 2b3e 8d5f aa3e 94e2 bbbf
00000150: b194 83be 18f9 9ebe 1a01 39bf 6fb3 6cbd
00000160: f8c3 643e bf28 5abf a1dd bfbc 2c4a 503f
00000170: 914f 0abd 9741 a7bf a29b 683e 6dcb e63d
0.62149304 0.5435499 -0.13290782 -0.120592736 -0.17155047 0.50127935 -0.64115673 0.62484556
0.012922907 -0.027922465 -0.039834306 0.78723156 0.526119 -0.12606567 -0.17922853 0.010880449
-0.70474577 0.4544306 -0.5553014 -0.59470296 0.30023146 0.6946358 0.16590305 -0.58128554
-0.014821468 -0.999237 0.003502353 0.02521659 0.38904825 0.4990119 -0.47169936 0.30984226
-0.58898693 -0.6051534 -0.017416121 0.5985395 0.23264182 0.12239184 0.40828305 0.5172858
-0.39994204 -0.7053341 0.5898842 -0.06915382 0.25738007 -0.19419774 0.69530654 -0.3719798
-0.00017218817 -1.1662941 -0.0002804861 0.2897032 0.24357513 0.2789671 -0.9463737 0.08600423
0.059003588 0.3511687 0.22618474 0.31640393 0.12929758 0.2445673 -0.12716074 -0.8530172
0.026019422 0.0118342405 0.77475834 -0.332351 -0.12808657 -0.48152405 -0.6431249 -0.63206834
-0.5097953 -0.6646175 0.055233497 -0.41718686 -0.41724983 -0.55728495 -0.35390434 -0.4912808
-0.37179437 0.16752982 0.33276024 -1.4678521 -0.2569938 -0.31049418 -0.72267306 -0.05778831
0.22340381 -0.85218424 -0.02342111 0.8136318 -0.033767287 -1.3066891 0.22715619 0.11269269

conv1.bias f4 [32]
00000000: ad81 5bbe 014d 8fbd aee7 15bd 7960 33bf
00000010: 9d3a 8fbe 7a91 90b9 1fa6 6d3e 06aa 71be
00000020: 8898 563e fc63 a9be c8b2 ae3e eae5 aebd
00000030: e311 ddbe 15e3 103e 380e 71be bc94 dbbe
00000040: ba6c b43d 2e1b 7cbe 9d52 a33e de45 26bf
00000050: b454 23be d061 863e 41a2 bbbe 0215 75bd
00000060: 8b2e 253f 7a5c fcbc 46c5 e13e b1f3 00be
00000070: 1737 a7be 7045 763e 2778 3cbf 0205 a0bd
-0.21436186 -0.06997109 -0.0365979 -0.7006908 -0.27974406 -0.0002757421 0.23207901 -0.23600015
0.20956624 -0.33084095 0.34120774 -0.085399464 -0.4317771 0.14149125 -0.2354058 -0.42886913
0.088098004 -0.24619743 0.31898966 -0.6495036 -0.1595028 0.262465 -0.36647227 -0.059834488
0.64524144 -0.030805815 0.4409582 -0.12592961 -0.32659218 0.24049926 -0.7362084 -0.07813455

conv2.weight f4 [16, 32, 3]
00000000: ef5b 17bd 0b3d d03d 4564 b23c 9d2d 5f3d
00000010: 31da 1ebe 73ea 7c3e dcbb 833e 0443 fd3d
00000020: caf9 533d 2aaa 153f 4837 9d3f c808 2340
00000030: 68a5 ddbc c7c5 d3bc 9aa4 4f3d a728 d6be
00000040: 9bdf 2abe 5dff 2bbe 1782 6abe 30df 69be
00000050: 4d80 6cbe 9561 2dbe 7e53 123e b0d7 7abe
00000060: 6ef6 09be a58b 21bd b93a 68be fc2b 183d
00000070: 4fbb 3f3d 2122 d23e d1b0 a33d 9122 dd3d
00000080: b3d3 28bf 7deb 813e 8d32 dc3e 32cd cc3d
00000090: f970 58bc c75f 7e3e 1dce 213f 4264 b9bd
000000a0: 060f 793e 73d4 00bf 4694 03be b633 373d
000000b0: 8cd0 7b3e 3db1 1e3e b25c bb3d c144 423d
000000c0: ddb6 93be 4995 aabe 9f1a 7bbe 5f3d 1bbe
000000d0: c710 ad3d 1f5a 4a3e 34d6 653e 035d d93d
000000e0: 6316 1bbe 6a9e 85be de0f 123f 47fc 9d3e
000000f0: ce3d 62be df58 813e 685a 25bc d611 e8bd
00000100: 1468 14be f8c7 393e f727 acbe 3858 91bd
00000110: 3068 fbbd 23bd c6bd 7113 cdbd 76d8 51be
00000120: bd38 fdbc b959 57bd 554f 94be 4ddd d6bd
00000130: b062 63be 5709 74be 9d5d 4d3e f1c2 d8be
00000140: dc15 22be dd82 53be 285b 4b3d f730 97be
00000150: 31f7 85bc 71ec aabc 7553 9cbe 0e31 673b
00000160: 2698 853e c582 b6bf cfde 393f 3916 fe3e
00000170: 664e c93f 5029 fcbe afee 81be efa6 c4bd
00000180: b509 e3bb 3b11 0f3d 08cc e83d e9d8 84be
00000190: 5a25 74bd 8646 a23e 4064 5abe 9ba6 2e3e
000001a0: b30d a63c 1ec8 bd3e 7d0f 44be c39e 703f
000001b0: 585a fa3d 40d4 c83b 50c9 4dbe f8d1 99bc
000001c0: c24d 443e c783 c83d 4684 463e 4b1d 9bbd
000001d0: 62b1 fd3d 982b 4a3e 9027 04be eefa 0cbf
000001e0: 5ea5 6c3e 5c21 9c3e d477 ad3d 0854 41bd
000001f0: 6097 4dbd 91c8 b23e 1db6 ffbd de15 543e
00000200: eef2 cabe 665a 97be 507e e83e 2817 1b3e
00000210: e5aa b2bd b93b 03be 07b6 7c3e ca86 783b
00000220: 5974 233f dfea 5ebf 4abb 5e3d 58eb fd3c
00000230: 28d5 133e 6e16 3d3e 0128 153d 7446 f3bd
00000240: b071 29be bdf1 41be b1bd 8ebe 8a3b d1bc
00000250: 029b 0a3d 79c8 683e 053f febd 37b9 073e
00000260: 11ec 3f3e 54dd 16bf 631a 0cbf 19a4 64be
00000270: 6c8d 7d3e 3766 acbe ff87 60be 9f9f ce3e
00000280: 56eb dc3d 77eb ba3c 6edc 893e bd5d 65bd
00000290: 4293 15bf 7e7d c0bd 41cb 15be 343d 0dbe
000002a0: 37cf 43be 6c16 50bd 381b 27be 3676 e9bd
000002b0: c806 efbd eea2 26be 2244 073f 22b8 293d
000002c0: 719f 94be ef1a dd3c d7e8 f0bd 66a0 6bbe
000002d0: 3b29 183c 5f6c 21bd e414 5cbe 7315 9a3c
000002e0: b800 d63e 676c 6cbf 7372 263f c342 e6bd
000002f0: d256 dcbd 1033 9ebe 95b7 903e 0a4c 913e
00000300: 63ae e0bd 67b8 c73d 356a a5bd aad5 a9be
00000310: aa2a 43be f6b4 643e e677 1ebe ec00 c8bd
00000320: 2d68 bb3c 9ca1 cabe f4fc f6be 921b 383e
00000330: dd9b 84be ea02 4ebe 8543 9e3e 5b8a 12bf
00000340: 39ab d1be bc76 163e 4742 31bd 0048 c3bc
00000350: c84e 2bbf 343d 5f3d 2ddc 6abe 25a8 803e
00000360: 48d6 98be 5fa2 5dbe 09df 1cbe 205a a8bd
00000370: 42b7 123e a3fa c83d 5ae5 603e db2f 933e
00000380: a6b1 2cbf a28c 563e 4943 78be 8e3e bcbd
00000390: 6b1f 2cbd e422 ac3d f284 373e 839f 47be
000003a0: c0d4 c13f 13bf dabe 305c aabc 5fe3 ba3a
000003b0: db24 133e 82a8 b0bd e002 2abe 5e96 e13e
000003c0: 76bd f83f 07f2 6b3e 82cf 0c3f f88f a53c
000003d0: 7f58 333e 287f b1bc 9b7a 863d e4b5 153d
000003e0: a1bb 58bf d4ee cdbd fa90 03be 5f23 a93e
000003f0: 7704 d0bd 4f06 16be aafa 303e 5317 a33d
-0.03695291 0.10167893 0.021776328 0.05448686 -0.15512921 0.2469881 0.25729263 0.12366298
0.05175189 0.58462775 1.2282495 2.547411 -0.02705641 -0.025851144 0.050694086 -0.4182789
-0.16686861 -0.16796632 -0.22901188 -0.22839046 -0.23095818 -0.16931756 0.14289662 -0.24496341
-0.13472912 -0.039439816 -0.22678651 0.03715132 0.04680949 0.41041663 0.079927094 0.10797609
-0.6594803 0.25374976 0.43007317 0.100000754 -0.0132105285 0.24841224 0.6320513 -0.09052326
0.24322137 -0.5032417 -0.1284953 0.04472705 0.24591273 0.15497299 0.091485396 0.04742885
-0.2885045 -0.3331702 -0.24521874 -0.1516013 0.08450466 0.19760941 0.22444993 0.10613444
-0.15145259 -0.26097423 0.5705546 0.30856535 -0.22093889 0.25263116 -0.010092355 -0.11331527
-0.14492828 0.18142688 -0.3362424 -0.070969045 -0.122757316 -0.09704044 -0.10013474 -0.2049273
-0.030910844 -0.0525758 -0.28966776 -0.104914285 -0.22205615 -0.23831688 0.20055242 -0.42336228
-0.15828651 -0.20655389 0.04964748 -0.29529545 -0.016353222 -0.020864697 -0.30532423 0.0035277042
0.26092643 -1.4258658 0.72605604 0.4962633 1.572705 -0.4925027 -0.25377414 -0.096021526
-0.0069286474 0.03492854 0.11367041 -0.2594674 -0.059605934 0.3169443 -0.21327305 0.17055742
0.020270204 0.3706674 -0.19146533 0.9399225 0.12224263 0.006128818 -0.20096326 -0.018776879
0.19170287 0.097907595 0.19386396 -0.075739466 0.12387349 0.19743192 -0.12905717 -0.5507039
0.23109958 0.304942 0.08470121 -0.04719928 -0.05019319 0.34918645 -0.12485907 0.20711467
-0.39638466 -0.29561156 0.4540887 0.15145552 -0.08724002 -0.12815751 0.24678813 0.0037922137
0.6384941 -0.87077135 0.05437783 0.03099601 0.14436781 0.18465587 0.036415104 -0.11878672
-0.16547275 -0.18939872 -0.27879098 -0.025541086 0.033839233 0.22732724 -0.12414364 0.13254248
0.18742396 -0.5893147 -0.5472776 -0.22328223 0.2476098 -0.33671734 -0.21926878 0.40356156
0.10787074 0.022817357 0.26925987 -0.0559976 -0.5842782 -0.09398936 -0.14628316 -0.13792878
-0.19122015 -0.050802633 -0.16318977 -0.113995 -0.11671215 -0.1627309 0.5283834 0.04143537
-0.29027894 0.026990382 -0.11763161 -0.23010406 0.009287174 -0.03940999 -0.21492344 0.018809056
0.41797423 -0.9235291 0.65018386 -0.112432025 -0.10758747 -0.30898333 0.28265062 0.28378326
-0.109707616 0.09751969 -0.08076898 -0.33170825 -0.19059244 0.22334656 -0.15475425 -0.09765801
0.022876823 -0.39576423 -0.48239863 0.17979267 -0.25900164 -0.20118299 0.30910888 -0.57242364
-0.40950945 0.14693731 -0.043276098 -0.023838043 -0.66917086 0.054501727 -0.22935553 0.25128284
-0.29850984 -0.21643971 -0.15319456 -0.08220315 0.1432772 0.0981343 0.2196249 0.28747448
-0.6745857 0.20952085 -0.24244417 -0.09191619 -0.04202215 0.08405092 0.17921808 -0.19494443
1.5143051 -0.42723903 -0.020795912 0.0014258436 0.14369528 -0.0862589 -0.16602659 0.44060034
1.9432819 0.23041545 0.5500413 0.020210251 0.17514227 -0.021667078 0.06566354 0.036550418
-0.846613 -0.100553185 -0.12848273 0.33034799 -0.101571016 -0.14650844 0.17283121 0.07963433

conv2.bias f4 [16]
00000000: ce32 f1bd 5d95 6dbd c9df 603d 5a73 62bd
00000010: dd39 d83d 8865 68bd 5dab febd 86fe 5ebd
00000020: 5b6a 303e 614d 843c 943f 393d 154f bf3c
00000030: b47f 693d 3678 cfbe b75f 6bbd 6ecb 653e
-0.11777268 -0.058003772 0.05490092 -0.05528579 0.105579115 -0.056737453 -0.12435029 -0.05444195
0.17228071 0.016150178 0.04522665 0.023353139 0.057006553 -0.405214 -0.057464328 0.22440884

conv3.weight f4 [8, 16, 3]
00000000: 1846 40be 0af7 0fbd f549 b6be 0a6c a7bd
00000010: 0a10 343e 4689 aabe 6d9e 683f ba13 083e
00000020: 0bdb 993f 044c 2e3e f7c5 19be 1d49 64bd
00000030: 0dc1 133d b8a6 a9bd 33c1 a53e 12c9 743e
00000040: e113 22be db91 1cbe ad51 84be 5a81 ccbd
00000050: a0e1 e9be d217 ae3e 4e71 93bd b54c aa3e
00000060: 514c 243e 3e0a 1f3e e6a3 223e 13ca f53d
00000070: 002f 393e 1b57 8bbd 9e67 b43e 8905 f43d
00000080: 3cc6 e73e 2dee 9fbf abc9 46be fd82 9fbe
00000090: 6d1a 663e 195a f73d 03c5 c63c 7f67 993d
000000a0: 9d01 18bf e3d0 ecbe 3c04 793e 50ed cdbd
000000b0: 379f 4abe 9e9d fb3d b159 bd3d bc39 163f
000000c0: cd93 3f3d c6d5 acbd 7215 9b3e 482e 2d3e
000000d0: 2be4 03bd f26d 1c3e e739 bd3e 58b0 59be
000000e0: 503e e23d cc65 08be a97d 3f3d 786c d3bd
000000f0: 1a09 173d 7c66 213d 83d8 08be 090d 46be
00000100: c8c8 bf3d ae79 f2bc 1e7a 0c3e ffca 3f3e
00000110: 05bb b03d 1508 3a3b 2adf 5ebd 42da c1bd
00000120: c43c 74be f682 8fbc 21b1 66be 0396 903e
00000130: ce9a 3c3e f4a0 d03d e8d2 eabc ed3b 48be
00000140: 0b95 9b3d 134f ca3f 6910 b73e 1815 8b3f
00000150: 7d3d 813e 2ffe 8b3e 8a60 b43e e520 8939
00000160: 5330 0f3f f4d8 043f 8a65 c73d bfe2 1d3e
00000170: a836 57bb f69b dabd 8296 633d 4397 a3bd
00000180: 5cd8 a73e f7a2 933e def4 a5bd 8b86 4fbe
00000190: ea3e 253e 22c2 983e feab fa3e 94b2 96bf
000001a0: 677b e63f 3a7b 253e db66 dfbd 9e39 b23c
000001b0: c29e 16bd 9913 0cbe c403 603d 2064 f93e
000001c0: 557c 53be 5f8e 5b3e 0954 d1be 11d4 233e
000001d0: 7a65 66bd aa50 013e b3b3 aa3d e552 9bbe
000001e0: 57f3 c23e bbbf f53b b123 3e3e 37b4 a9bc
000001f0: c97d 1b3e 95aa a13e 6e70 063f ca25 fb3d
00000200: 7494 943e f7ac 9abf b17d f93d 3a5c 58bf
00000210: 3ab4 51bd a39a 97bd 738d 82be 4f81 77be
00000220: 2b19 ccbe 2596 76be fb53 8cbe f9a0 5f3d
00000230: b067 173e 0495 8b3e 753c b3bd b9f8 b93d
00000240: 83d8 7f3c 744d b3bd 5b4a ebbe 52ce 0e3e
00000250: 02aa 853d aa53 553e a9a1 ddbe f62f 143f
00000260: a3ed b33f 2c01 c2bd 9fec afbc 0412 6e3e
00000270: 422f 74bd d589 44bd 4dc9 7e3e b6e1 cdbd
00000280: ace3 a6bd dc48 bf3e 28b0 253e e958 1d3d
00000290: 922d 19be d3e9 0b3d 8a43 ab3d bc7b aabe
000002a0: 2b11 e2bd 716d 183e f4c0 b63d 83fd b83d
000002b0: 34be 5fbd 1db1 0f3f 421d 5f3e 0616 113d
000002c0: a7fc 5f3f 2a9d 0bbf d4be 34bf aecf b2bf
000002d0: 709d 77bc fb73 ffbd 3cda bebd ca85 19bc
000002e0: a315 3cbf 37ae a5bd 80d1 8d3e 545e 39bd
000002f0: d9a1 3e3e e967 6fbe c6ab 243d b863 5c3e
00000300: e920 dabd 1ab7 353d 6dc8 03be 3a89 823e
00000310: 8174 283d bf9a 3bbc 7c7c 8d3f 4919 833e
00000320: 8302 703e 27ab e0be 8a00 fcbc 66a7 253d
00000330: b718 a73e 35d1 48be bf46 a03c 4c83 cdbb
00000340: eb57 f43d 697e 013e db72 d13e 3f49 fa3d
00000350: 121b 0d3e c44b 0cbf d29c 5dbe 0d3d 813d
00000360: d2b8 13be 73a9 72bc c368 9fbe a606 923d
00000370: 1754 c73d ec42 f43c 32f1 313f 5252 76be
00000380: 41c9 033e 12bc a83f e539 ca3e a942 a23f
00000390: 42b2 a03e 73c1 f23d 9d7e a43d 3272 443f
000003a0: 33dc 373e 7917 46bd 603c f13e d66c 7d3c
000003b0: 2c50 c53d eea2 acbe be6a 4ebe 4645 e3bd
000003c0: 01d8 593d ee7e 9f3e 05f8 8cbe 1b5d ecbd
000003d0: 95e5 7b3c 142b 8cbe 33e6 723f 86af cb3e
000003e0: 0d78 993e e723 af3e 8814 493e 5af5 7a3e
000003f0: 1134 02bd 501b 843d 003b 183f 9495 963e
-0.18776739 -0.035147704 -0.356033 -0.08174904 0.17584243 -0.33307856 0.9086674 0.13288775
1.2019972 0.17021185 -0.15016924 -0.05573379 0.03607278 -0.08283752 0.32373962 0.23904827
-0.15827896 -0.15290014 -0.25843564 -0.09985609 -0.4567995 0.34002548 -0.071993455 0.33261648
0.16044737 0.15531251 0.15882835 0.12001433 0.18084335 -0.068037234 0.35235304 0.11915118
0.45268428 -1.249456 -0.19412868 -0.31154624 0.22471018 0.12077732 0.024263864 0.074904434
-0.5937746 -0.46253118 0.24318022 -0.100550294 -0.19787298 0.122859225 0.09245623 0.58681846
0.046771813 -0.084392115 0.302898 0.16912186 -0.03220002 0.15276316 0.36958238 -0.21258676
0.110470414 -0.13320082 0.0467507 -0.10323423 0.036873914 0.039404377 -0.13363843 -0.1934091
0.09364468 -0.029599037 0.13718459 0.1872978 0.08629421 0.0028386165 -0.054412045 -0.094654575
-0.23851305 -0.017518502 -0.22528507 0.2823945 0.18418428 0.10186949 -0.028665021 -0.1955411
0.07596787 1.5805382 0.35754707 1.0865812 0.25242224 0.27342364 0.35229903 0.00026155185
0.5593311 0.51893544 0.09736164 0.15418528 -0.0032838974 -0.106742784 0.055563457 -0.07987835
0.32782257 0.2883527 -0.08103345 -0.20266168 0.16137281 0.29835612 0.48959345 -1.1773248
1.800641 0.16160288 -0.1090829 0.02175599 -0.036772497 -0.13679351 0.05469109 0.48709202
-0.20652898 0.21441029 -0.40884426 0.15998866 -0.05624912 0.12628427 0.08335056 -0.3033668
0.3807628 0.0074996627 0.18568303 -0.020715816 0.15184702 0.31575456 0.52515304 0.12263067
0.2901951 -1.2084035 0.12182177 -0.84515727 -0.051197268 -0.074025415 -0.25498542 -0.24170421
-0.39862952 -0.24080713 -0.27407822 0.054596875 0.14785647 0.27262127 -0.08751766 0.09080643
0.015615585 -0.087550074 -0.45955166 0.13945892 0.06526567 0.20832697 -0.432874 0.5788568
1.4056896 -0.0947288 -0.021475134 0.2324906 -0.05961538 -0.04798301 0.24881478 -0.100528166
-0.08148894 0.37360275 0.1618048 0.03841487 -0.1495879 0.03415854 0.083624914 -0.33297527
-0.11038431 0.14885499 0.08923522 0.090327285 -0.05462475 0.5612963 0.21788505 0.035421394
0.8749489 -0.5453669 -0.7060368 -1.3969629 -0.01511322 -0.124732934 -0.09318969 -0.009370277
-0.73470515 -0.080898695 0.27698898 -0.045255974 0.18616427 -0.23379482 0.04020288 0.21522415
-0.10650808 0.044364072 -0.12869425 0.2549532 0.04112673 -0.011450469 1.1053615 0.2560523
0.23438458 -0.4388058 -0.030761976 0.040442847 0.32636043 -0.19611056 0.019564984 -0.0062717553
0.119308315 0.12645878 0.4090794 0.12221002 0.13779858 -0.5480311 -0.21641853 0.06310473
-0.14425972 -0.014810908 -0.31134614 0.07130174 0.09732836 0.029817067 0.6950866 -0.2405484
0.12869741 1.3182395 0.39497295 1.2676593 0.31386 0.11853304 0.08031962 0.7673675
0.17955093 -0.04836223 0.47116375 0.015467843 0.09634432 -0.33718055 -0.20157906 -0.11097197
0.053184513 0.31151527 -0.27532974 -0.11541196 0.015374561 -0.27376616 0.94882506 0.3978235
0.29974404 0.3420708 0.19636738 0.24507657 -0.031787936 0.06450522 0.59465027 0.29410994

conv3.bias f4 [8]
00000000: e5d5 6d3e ec36 8a3e 6d62 4b3b e614 52bc
00000010: 285d 93bd ff28 07be e036 5fbe 02fd 3c3e
0.23226126 0.26995027 0.0031034008 -0.012822365 -0.071955025 -0.13199233 -0.21798277 0.1845589

t_conv1.weight f4 [8, 8, 3]
00000000: b50a 7bbf 43db cfbe a834 c73e 496c 9abe
00000010: 3e93 4ebd aadc d6bd ba6c 26be 9198 bfbe
00000020: 3886 48be 1ae9 b7bf 0b0b 9d3e 6b2b 9f3e
00000030: 16b0 dc3e d615 773e 0a65 913d c1eb 233d
00000040: e048 3039 f72c 80c0 e3b5 ac3d a85a 963e
00000050: 2e32 853e 2db4 8dbc f9bb fc3e 3972 6c3e
00000060: e62d c9bd 084f 9f3d 0149 a23e d57c 59be
00000070: 79ce 3cbd e324 c9be 3f20 863e 8673 803e
00000080: 57ea 6b3e f029 cabc af34 95be d954 92be
00000090: 31df a7be f001 02bf a966 c43c 529b 833e
000000a0: bb73 33bd f615 11c0 27cc 7abe 9bed 1fbf
000000b0: 1992 99bd f16a d43e 3478 e7bc 19c5 f5be
000000c0: e2a9 86bf 4207 383e c31d 0b3f ccd0 3a3e
000000d0: 7c9f d43d 7859 723e f8c6 9d3d 40a2 97be
000000e0: 005c 55bc 7fed f63e 6374 6e3c 964f 1d3f
000000f0: 1aa5 2a3e bf93 053e 4698 bbbd a947 b73f
00000100: 9b68 83be 56c2 5cc0 0ce5 663e e3d6 3c3e
00000110: 6307 403d 6704 e03e 8268 1dbf c0e1 1a3f
00000120: 3085 06bf af9d 01be 76a0 9d3d c9be 113f
00000130: 8bfe 483e 9ab5 fcbd 4ad6 f4bc 358f cc3d
00000140: bafd 983c 1311 e6be 3a7a 8b3e f0d8 923b
00000150: 2f94 f63e ebd5 21bd e8a7 863d 2a14 4d3f
00000160: 2a86 4f3e f9de 53c0 92fb 503e 2161 043d
00000170: f035 133e 4794 333d 73e2 3b3e a928 90be
00000180: 374a 82be 44b6 c83e 50ed 5a3e 4346 d6bd
00000190: bccc e0be b9f3 babe 1f56 843e 2028 3d3e
000001a0: 93bd f43d c42a acbe 0f18 943e 1d4f 0a3f
000001b0: d11b d33d 3c1e e7be dc98 e53e 2302 8a3e
000001c0: 9cd8 d33d b518 c13f 7e3d 763e cb67 8dbf
000001d0: 7123 a03e 697e 753e 8810 d63e 33c0 a63d
000001e0: f68d 0e3f 9664 693d b108 ec3d 4946 ad3e
000001f0: e7dc 4c3e baaa 983e b95a c83e 46dd 163e
00000200: ad74 563e 2a86 88bf 59a4 dd3d 6b16 c0bd
00000210: 7524 ca3d 8ff5 4cbd dcc1 363d ef35 c93e
00000220: 9985 aa3e 7ff4 08c0 3329 cf3e ad84 1a3e
00000230: a694 843d bf34 72be fb8f 44bd bb53 91bd
00000240: dcf6 d7be 7238 40bd 9a35 b33e e818 893e
00000250: f6c2 d13e 4777 023f 39ea 203e 5e3a 9d3e
00000260: b310 af3d 5557 fc3e a338 473e 3053 3dbf
00000270: 30ae 79be c408 6cbe c5ac fe3e edab 8e3f
00000280: a3fa 973e 3167 f2bf 4d72 bbbc 8f67 aabd
00000290: e985 b93e 3289 a43b 20ad 19bd 133e cabe
000002a0: 3a50 e6be a68c b8bd fad9 853e fc1c 023f
000002b0: acc3 883e d007 1c3e 97f7 453e 272b a73e
000002c0: a1cf 0b3e a8a6 653f 566e 43be 033f afbf
000002d0: 1d82 4dbe 37d3 51be 6f71 b03d 858f bc3d
000002e0: 8ee3 c8bd 5976 35c0 c6ca 85be ee38 a8be
000002f0: b77d c9be 006d 663e 0d20 cebe 3c3f 32be
-0.9806321 -0.4059697 0.3890736 -0.3016074 -0.05043339 -0.10491307 -0.16252413 -0.37421086
-0.1958245 -1.4368012 0.30672488 0.31087813 0.43103093 0.24129423 0.0709935 0.040019754
0.00016811816 -4.005489 0.0843313 0.2936604 0.26014847 -0.017297829 0.49362162 0.23090447
-0.098232076 0.07778746 0.31696323 -0.21239026 -0.046095345 -0.39285955 0.26196477 0.25088137
0.23038612 -0.0246782 -0.29141757 -0.2858036 -0.3278747 -0.50784206 0.023974733 0.25704437
-0.04381154 -2.2669654 -0.2449194 -0.6247193 -0.07498569 0.4148784 -0.02825556 -0.48001936
-1.0520594 0.17971519 0.5434229 0.18243712 0.10381982 0.23666942 0.07703966 -0.29615974
-0.013022423 0.4822807 0.014554116 0.61449564 0.16664544 0.13044642 -0.09159903 1.4318744
-0.25665745 -3.4493613 0.22548312 0.18441348 0.046882045 0.4375336 -0.6148759 0.6050072
-0.5254698 -0.12657808 0.07696621 0.5693174 0.1962835 -0.12339325 -0.029887337 0.09988252
0.018675674 -0.44934902 0.2724169 0.0044814274 0.4815993 -0.03951065 0.06574994 0.8010889
0.20266023 -3.3104842 0.20408466 0.03231919 0.14376044 0.04384258 0.18348102 -0.2815602
-0.25447246 0.39201558 0.2137959 -0.1046262 -0.439062 -0.3651407 0.25846955 0.18472338
0.11950221 -0.33626378 0.28924605 0.5402697 0.1030804 -0.45140254 0.44843185 0.26954755
0.10344049 1.5085665 0.24046895 -1.10473 0.3127704 0.23974003 0.41809487 0.08142128
0.55685365 0.05698069 0.11525095 0.33842686 0.20006143 0.29817754 0.39131716 0.14732847
0.20942946 -1.0665944 0.108223625 -0.09379276 0.09870235 -0.05003887 0.044618472 0.3929896
0.33305052 -2.1399229 0.4046112 0.15089674 0.06473665 -0.23652934 -0.047988873 -0.070960484
-0.42180526 -0.04692883 0.35001832 0.26776814 0.40969056 0.5096325 0.15714349 0.30708593
0.08548107 0.4928538 0.19455199 -0.7395506 -0.24382854 -0.23050219 0.49741188 1.1146218
0.29683408 -1.8937742 -0.022881651 -0.083205335 0.36234978 0.005021238 -0.03751862 -0.39500484
-0.44983083 -0.090112016 0.26142865 0.50825477 0.26711786 0.15237355 0.1933273 0.3265011
0.13653423 0.8970742 -0.19085059 -1.3691105 -0.20069166 -0.20490728 0.08615386 0.09207062
-0.098090276 -2.8353484 -0.26131266 -0.32855934 -0.39353725 0.22502518 -0.40258828 -0.17406934

t_conv1.bias f4 [8]
00000000: c9b0 b03d 90e3 78be 4347 883e 124e c03d
00000010: 05d5 073c db60 553e 6b2c cabb ad1e 00bc
0.08627469 -0.24305558 0.26616868 0.09389891 0.008290534 0.20837729 -0.006169846 -0.007819814

t_conv2.weight f4 [8, 16, 2]
00000000: 171d 95bd e5bf a6bd ba0f 80bd f85a 5b3e
00000010: e8e6 dbbc bee4 ba3e 270a 87bc 1b36 c03e
00000020: b967 753e 6c28 c63d af94 82be 8561 16be
00000030: ed30 3abc 0e95 293b ea26 df3e a424 a23e
00000040: fb93 1c3f 5e1a aa3a ec37 babd 1d71 c13d
00000050: 7916 313e 7c58 ec3e 0e28 983e e068 a53d
00000060: 1386 90be 1fb1 aa3e 400b ab3e 704b 91bd
00000070: bfcc d0be 7f6c f53d 9aad e33d 8b7b 9abc
00000080: c525 a4bd c52f 3f3e d6b4 3cbe 8d6d 933e
00000090: 7045 203f 7394 e13c d4d2 37be 80c1 7fbd
000000a0: 8faa 17bf bbc9 03bc 75d8 0c3f f62a d4bd
000000b0: c9ac 933c cfa7 07bf db94 e13d 552e fbbd
000000c0: a93f 2ebe 9686 623d 6a86 fcbe 8db6 a5bd
000000d0: 1f41 333d 5a57 083d f6ea 023f 0121 123e
000000e0: 6a67 763d 6b7f f2bb cab8 713e 7249 b03e
000000f0: 929e de3e 081c e0be 838d 2cbe b683 d63e
00000100: 611b 25be 048a afbd bea8 40be f766 febd
00000110: 150f 38be d459 dabd d75e 063e e798 5f3d
00000120: b06b a43e da14 a63e a5fe dd3c 4542 ba3b
00000130: 0e92 8d3e c15f 8f3e 1433 7f3e f084 6b3e
00000140: 1444 25bf a00a 33be 76da b13d b1e2 9bbd
00000150: df46 13be 2cad 92be 9c8e 8cbd 54af 16be
00000160: 131d bfbd 1b27 19be 2053 d4bd f570 6cbd
00000170: 59a3 a0be 45b8 acba e033 24be 9bf5 16be
00000180: 94d7 983e f093 743e bbb6 01be b586 b6bd
00000190: 2f5a 913e d05b bc3e ef78 23bf 38ef b73e
000001a0: bb43 a6be 10e2 3cbe 4299 5cbe e228 b3bd
000001b0: 72b7 b9be 262b dbbe 2bdc 54be 3294 1abe
000001c0: 6ff8 b7bd 4e8e 7b3d 3a4b ea3e c1e9 2bbe
000001d0: 0ac3 2a3e ad5f 643e 529b 6ebe 74e1 143f
000001e0: 8d05 5dbc ae66 b9bd 52c4 b43e 50ed 8abf
000001f0: 74bc 133e 7e8d 9cbf 99f5 3abd ebd5 22be
00000200: 61fc 3ebb e0f4 af3e d3c2 dbbd 58c4 b53d
00000210: e7f1 b0be da4a 9c3e 8538 0a3f 9e86 c339
00000220: ac02 473e 6570 c7be 1ef9 833e bbac 353e
00000230: f96a 8fbe 527b dc3d df4d adbe 5e01 363e
00000240: aa8a e6be 59ba f93c f73e f63e e0ff 353d
00000250: 1d30 833e f90b e93d 60a9 0f3e 692c 07bd
00000260: e2ae a5bd a4dc 803e 3409 3c3e b6bc 9c3e
00000270: 73ed 3dbc 955a ba3e 125b d33c 0fab 1bbe
00000280: bc1a 0ebe aae3 35be 2215 a23d 8412 e3bd
00000290: bc83 003e 4a67 51bd 5d38 26c0 2c5b c93e
000002a0: a4e7 963d b914 143e 689a ecbe 3a2d 813d
000002b0: e59b 8e3d 905d 583d de77 d13e ff99 f13d
000002c0: 509e 2d3f cc4c 03be 92dd 54be fbf6 743d
000002d0: e428 84be b88f 6dbd 31e3 003e 1d87 ac3e
000002e0: de18 0f3f 713a a23e 99d5 313e d681 923e
000002f0: 604c 1dbf db78 09c0 7296 b63d a868 3b3e
00000300: fbc3 563e 6589 3a3d b7eb 01be faad c83e
00000310: 13d2 803d 2c95 193e 0f09 223e add9 d23d
00000320: 2143 d9bd 2918 31bf 05a3 de3d 6da3 363e
00000330: d1a4 80be 34b1 16be b1e8 f2be 95d0 babe
00000340: 1e50 82be 0503 a3bd 8691 663d c8d2 dfbd
00000350: 2952 943c 8c74 743e eef2 3e3e 166e ad3e
00000360: 4998 8bbe 8d40 d5bd be66 993e ea4c 633e
00000370: c132 913c 4114 923d 3837 4cbe fd85 633d
00000380: 0135 ab3e e61f f5bc 0830 03be f8d9 4d3e
00000390: 09a4 6a3e b2a8 a33c 4560 bdbe ee44 9ebe
000003a0: 3ab7 40be 34e3 fb3c 77c9 513e 8be3 35be
000003b0: d3c8 a13e 379b ecbe be80 2cbf 22ad 513d
000003c0: 26cc 26be c5fe 07be 49fb 6abd 7acf 15be
000003d0: 92c2 a13e e1b5 42bd 28b1 59be 1931 12bf
000003e0: 5920 ec3e 87cc 4fbe 8bab 90be 4806 a4be
000003f0: 3e2d 2dbf e73f d8be c443 22be 9fd3 c13e
-0.07280939 -0.0814207 -0.062529996 0.2142142 -0.026843503 0.3650264 -0.016484333 0.3754128
0.23965348 0.096756786 -0.25504062 -0.14685638 -0.011364204 0.0025876197 0.43584377 0.3166858
0.611633 0.0012977829 -0.090926975 0.09445403 0.17293729 0.46161258 0.2971806 0.08076644
-0.2822729 0.33338258 0.3340702 -0.07094467 -0.4078121 0.119835846 0.11117096 -0.018857738
-0.080150165 0.18670566 -0.18428358 0.28794518 0.62605953 0.027536606 -0.17951518 -0.062440395
-0.59244627 -0.008043702 0.5501779 -0.10359757 0.018026726 -0.5299043 0.1101472 -0.122646965
-0.17016472 0.055304132 -0.493213 -0.080914594 0.043763276 0.03328643 0.5113977 0.14270402
0.060157217 -0.0074004433 0.23605648 0.34431034 0.43480355 -0.43771386 -0.16850857 0.41897362
-0.16123725 -0.08571246 -0.1881437 -0.12421983 -0.17974503 -0.106616646 0.13122116 0.05458918
0.3211341 0.32437783 0.027098963 0.0056841695 0.27650493 0.28002742 0.24921829 0.2299993
-0.64557004 -0.17484522 0.08684246 -0.07611597 -0.14382504 -0.28647745 -0.06863138 -0.1471532
-0.09331717 -0.14956324 -0.10367417 -0.05772491 -0.31374624 -0.0013177475 -0.16035414 -0.14742129
0.29851973 0.23884559 -0.12667362 -0.08912412 0.28389117 0.36788797 -0.63856405 0.35924697
-0.3247355 -0.18445611 -0.21542838 -0.08748032 -0.3627277 -0.42806357 -0.20787112 -0.15095595
-0.08982932 0.06141501 0.45760518 -0.16788389 0.16675964 0.22302122 -0.23301437 0.58156514
-0.013490093 -0.09052788 0.3530603 -1.0853672 0.14427358 -1.223068 -0.045644376 -0.15901916
-0.0029142129 0.34366512 -0.10730519 0.0887534 -0.34559557 0.30525857 0.5399249 0.00037293596
0.19434613 -0.38952938 0.25776 0.17741673 -0.280113 0.10765709 -0.33848473 0.17773959
-0.45027667 0.030484365 0.48094913 0.044433475 0.25622645 0.11379237 0.14029455 -0.033001337
-0.08089997 0.25168335 0.18362886 0.30612725 -0.011592257 0.36397234 0.025800262 -0.15201972
-0.13877386 -0.17762628 0.07914187 -0.11087516 0.12550253 -0.051123895 -2.5971901 0.3932737
0.07368401 0.1446103 -0.46211553 0.063074544 0.06963328 0.052823603 0.40911764 0.117969505
0.6781969 -0.12822264 -0.20787647 0.05980585 -0.25812447 -0.05799839 0.12586667 0.33696833
0.5589732 0.31685212 0.17366637 0.28614682 -0.61444664 -2.1480014 0.08915414 0.18301642
0.20973198 0.045541186 -0.12687574 0.39195234 0.062900685 0.14998311 0.15823768 0.102954246
-0.10608507 -0.6917749 0.10870937 0.1783578 -0.25125745 -0.14716035 -0.47443154 -0.3648726
-0.2545175 -0.0795956 0.056291126 -0.10928875 0.018105583 0.23872584 0.18647358 0.3387305
-0.27264622 -0.10412703 0.299612 0.22197309 0.017724397 0.071327694 -0.1994294 0.055547703
0.33438876 -0.029922437 -0.12811291 0.2010268 0.22914137 0.019977901 -0.3698751 -0.30911964
-0.18819895 0.030747987 0.20487009 -0.17762582 0.3159853 -0.4621217 -0.67383945 0.051190503
-0.16288814 -0.1328078 -0.05736855 -0.14629927 0.31593758 -0.047536734 -0.21258986 -0.5710617
0.4611843 -0.20292865 -0.28255877 -0.32036042 -0.6764716 -0.42236254 -0.15846163 0.37856767

t_conv2.bias f4 [16]
00000000: b36d e83c 52b9 49ba ff40 1cbe 6842 cc3c
00000010: d9ee 7f3c 6e94 943d dff9 ea3d 5034 55be
00000020: ba70 cbbe 4fa2 2abf 2c95 193e e943 07be
00000030: 308a 233d 2d43 29be 97ff 463d fa22 97be
0.028372621 -0.00076951564 -0.15259169 0.024934009 0.015620911 0.07254873 0.114734404 -0.20820737
-0.3973444 -0.66653913 0.14998311 -0.132095 0.039926708 -0.16529532 0.048583593 -0.29518872

t_conv3.weight f4 [16, 32, 2]
00000000: 9d1f 353e 5710 e53d 4f5f 87bd bbd4 ce3d
00000010: 79a9 b2bd 8a6e cebe b9a3 d3bd ef5c 513d
00000020: 42cc 08be b75e dcbe 8fc3 50bd fbf0 2f3e
00000030: 9255 ccbd 7f88 dabd c414 c03d 248b 463d
00000040: 6e39 4d3e 2746 e7bb 5780 a5bc 7a71 c7bd
00000050: b0e7 693e 5c0d 183e 900d a73e 8728 863e
00000060: 50f3 f83c 4cde 843e c199 9bbd 25fd 9d3e
00000070: 5583 57be f8f3 e9be dc06 413e baff 86bd
00000080: f624 733d 7151 1cbf 48fc 73be 35ca 36be
00000090: fd15 7d3e 0e32 cb3d b574 b1be 1b4f 45be
000000a0: e03f 17bf 502b 72be 2c23 5f3e 07e5 273d
000000b0: 9d0c dbba 2064 81bf 2766 91bd 54d4 d9bf
000000c0: 8d15 423e dc8a 583e b8e1 ed3d 637b 413e
000000d0: d166 12bc 7ff4 f33c fc88 e8be 3367 283e
000000e0: 3669 90bd 72d5 e23e b4db 833e ed86 1f3d
000000f0: 3016 e53c d509 373e b733 a53e 1304 a3bc
00000100: ba8c c13c 7a06 593e 5b8d 61be af24 5fbd
00000110: 73df 47bd 4a43 92bd e3ce 4fbf fe6c 20bf
00000120: 8b9f ecbd a301 08be 2685 24be 9f1b dc3d
00000130: 490d c23c 7d48 523d 4072 943c f28c a33c
00000140: 403f bb3d 5826 023e 8ae2 57bd 8c4b 90bc
00000150: c4f6 253e 5f1f 8e3d c936 743e 48c7 463e
00000160: a997 8d3c 7741 563e 9c0e 45bd bba9 743e
00000170: f133 abbd 29d3 7cbd 0d2c 913e 90c9 1bbf
00000180: e3d6 8a3b 4003 993f 41e1 85be d90f 3b3e
00000190: 5679 153e f754 763e 8747 9abe 76ee 9bbe
000001a0: d4d7 c73e 0a5c 1bbd 82b6 243e 8e04 833d
000001b0: fa67 b73d 789c dabe dfdd 60bd 6c2a 8abf
000001c0: 84aa b93d 36d0 203e d6b9 913e 72c3 123f
000001d0: 0e72 793d 5533 8bbd 4222 923d 14cb 20be
000001e0: 28f6 7abd f7ad f4be 0c49 a83c f678 c3bd
000001f0: c812 513d 3e06 abbd 7fb9 a33c 87da 813e
00000200: f1fe 8f3d dda6 ba3d 7d49 123e bb64 4abe
00000210: 09d5 fabc fef3 7c3e d8a6 95bf bc10 333e
00000220: 01eb dc3c 26c8 80be c172 05be fe64 e8be
00000230: c4bc 13be bcff 0dbe 06d5 6f3a 2b16 ec3d
00000240: 5b42 0f3e 7547 e9bd e5c8 963d aa04 5d3e
00000250: a620 3a3c ac20 103e 16a3 353d 0b75 153e
00000260: 5d35 1d3d c1e3 153e 0b0d 82bd f328 3c3e
00000270: 3b63 6ebe 9af0 80be 7d26 463e 2ed0 ddbe
00000280: 95e7 16bf 9af9 d4be c9cd 9bbe c2e7 e9be
00000290: 018a af3d c0f7 5a3e 0a1a 6fbd baa9 47bd
000002a0: 00aa 87bf 4b93 fcbe 5091 09bd 09bc e6be
000002b0: 27db 8f3c 85a7 ea3e 0516 3b3d 21a1 963e
000002c0: 8620 25bc a01a aa3c 5d89 a03e 0796 833e
000002d0: da4a a1bd 2d46 e33d 2a23 113e 5bd9 913b
000002e0: e03e edbd d8ff c73e 3762 943e 140e 76bb
000002f0: d6c7 c0bd 210d 9f3e 3688 efbd 5e37 01be
00000300: db21 173d 8540 7abe c904 57bf 1de1 acbb
00000310: bc28 9c3d 80c4 9a3d d1ec a33e 33b1 c23e
00000320: e610 23be 5714 0f3e cf62 72bd efbc 5bbe
00000330: e0b8 333e 23d2 acbe bf12 9fbe dfcd 273e
00000340: 6e3f 10be 76b8 d43d fcd7 4abc 62ef 2d3e
00000350: d1b8 523e 301d 78be 7c8e 6c3e 3749 c23c
00000360: 80d7 ef3d 9a66 263b c202 44be 6560 d4bd
00000370: 4fd6 8c3e 6823 4e3e 8d99 a5be 6914 25bf
00000380: 537f 41bf ee30 c9b9 e30f ae3e 98e7 9f3d
00000390: 72c4 a73c d51c 763d 5d86 ac3e a584 a43e
000003a0: 9b39 65bd d8bb 3fbe b299 073f e05b 403d
000003b0: 71ec f4ba 799b ac3e 918d 0dbe 9cae f4bd
000003c0: 1351 143d 83cc 303e 9902 3cbe 031a 06bd
000003d0: 6880 9f3b ca1c 0dbe 3f20 acbe 084e 9a3d
000003e0: e238 e7bd 96f1 b93c 2b3d 35be 100e 5dbd
000003f0: 5a3e aabd f99b e3be 5b1b 6ebf 5ead 203d
0.17687841 0.11184757 -0.066099755 0.10099169 -0.087237306 -0.4031871 -0.10333962 0.05111402
-0.13359168 -0.43041012 -0.05096775 0.1718177 -0.09977259 -0.10670566 0.09378961 0.04847254
0.20041439 -0.0070579234 -0.020202799 -0.09738441 0.22842288 0.14848846 0.32627535 0.26202795
0.030389458 0.2595085 -0.075976856 0.30857196 -0.21046193 -0.45693946 0.18850273 -0.06591745
0.05936142 -0.6106177 -0.23826706 -0.17850573 0.24715419 0.099216565 -0.34659353 -0.19268458
-0.5908184 -0.23649335 0.21790761 0.040989902 -0.0016712133 -1.0108681 -0.07099562 -1.7017922
0.18953533 0.2114672 0.11615318 0.18894725 -0.008935646 0.02977967 -0.4541701 0.16445617
-0.070513174 0.4430347 0.25753558 0.038947035 0.027964681 0.17874844 0.32266018 -0.019899404
0.023626674 0.21193877 -0.22026579 -0.054478344 -0.048797082 -0.071417406 -0.8117506 -0.6266631
-0.11553868 -0.13281874 -0.16066417 0.10747456 0.023687975 0.05133866 0.018120885 0.019964669
0.09142923 0.1270994 -0.05270628 -0.017614149 0.16207415 0.06939577 0.23849024 0.19411957
0.017284231 0.2092341 -0.048109636 0.23892872 -0.083595164 -0.061724816 0.2835392 -0.60854435
0.0042370423 1.1954117 -0.26148418 0.18267764 0.14597067 0.24055849 -0.30132696 -0.3045537
0.3903185 -0.037929572 0.16085246 0.06397353 0.08955379 -0.426975 -0.054899093 -1.0794196
0.090657264 0.15704426 0.28462094 0.57329476 0.060899787 -0.067969 0.071354404 -0.15702468
-0.06126991 -0.47788975 0.020542644 -0.09544556 0.0510433 -0.083508 0.019985912 0.25362036
0.07031048 0.09113858 0.14285846 -0.19764988 -0.030619161 0.2470245 -1.1691542 0.17486852
0.026967527 -0.251527 -0.13032056 -0.4538955 -0.14427477 -0.13867086 0.00091488694 0.11527666
0.13990156 -0.113905825 0.07362536 0.2158381 0.011360323 0.14074963 0.044344984 0.1459543
0.03838097 0.14637662 -0.06350144 0.18374996 -0.23280041 -0.25183564 0.1935062 -0.4332289
-0.58947116 -0.4159668 -0.3043044 -0.4568463 0.08571244 0.21383572 -0.058374442 -0.04874585
-1.0598755 -0.49331126 -0.033585846 -0.45065334 0.017560555 0.45830932 0.045675296 0.29419807
-0.010078555 0.020764649 0.313548 0.257004 -0.07875605 0.11097369 0.1417357 0.0044509596
-0.11584258 0.3906238 0.28981182 -0.0037545012 -0.09413116 0.31064704 -0.11695902 -0.12618777
0.03689752 -0.24438675 -0.83991677 -0.005275859 0.07624957 0.07557011 0.32016614 0.38025817
-0.15924415 0.13972603 -0.059176262 -0.21458791 0.17550993 -0.33754072 -0.3106899 0.16387127
-0.14086697 0.10386746 -0.012380596 0.16985849 0.20578314 -0.24229884 0.23101228 0.023716552
0.11711025 0.0025390745 -0.19141677 -0.10369948 0.27507254 0.20130694 -0.32343712 -0.6448427
-0.75584906 -0.00038374163 0.33996496 0.07807845 0.020479415 0.06008609 0.3369626 0.3213245
-0.05596314 -0.18724 0.52968895 0.04696262 -0.0018686188 0.33712366 -0.13823535 -0.119473666
0.03621013 0.17265515 -0.18360366 -0.03273965 0.004867602 -0.13780513 -0.33618352 0.075344145
-0.112901464 0.022698205 -0.17699115 -0.05396849 -0.08312674 -0.44454935 -0.9301049 0.039227836

t_conv3.bias f4 [32]
00000000: cdf3 313e 8bdf cb3d 7b41 83bd d242 85bd
00000010: d84d 24be a852 f5bc 017f 9e3d 291d cc3a
00000020: e192 063e 6942 d33c 99ec 373e 1dbe 183e
00000030: 389d 383e c8da 423e dc52 28bd cb76 99bc
00000040: 8d91 4f3d 18bd ee3d a59a 783e 8c20 2d3c
00000050: f439 4c3e a201 21bf 6de4 d6be a9e0 71be
00000060: 5fa7 0f3e ab40 533c 30bd 583b 6c2c 593d
00000070: 5945 b5be 61e2 91be 747d bbbe 1e93 993c
0.17378159 0.09954747 -0.06408974 -0.065068856 -0.1604532 -0.02994664 0.07739068 0.0015572655
0.13141967 0.025788503 0.17961349 0.14916272 0.18028724 0.19028771 -0.041094646 -0.018733403
0.050675917 0.116571605 0.24277742 0.010566842 0.19943982 -0.62893116 -0.4197115 -0.23620857
0.14028691 0.012893836 0.003307175 0.05302088 -0.3540447 -0.28493026 -0.3661915 0.018746909

conv_out.weight f4 [1, 32, 3]
00000000: ef04 e0bd ac2f b9bd 7f78 4cbd 32f9 4dbe
00000010: 3c92 bfbc e9a3 293e a269 5e3e e704 be3d
00000020: e7a6 a8bc 052f 01be 11c3 0cbf 609f 15bf
00000030: 04d2 14bf bd32 18bf 79ee bebe 2dd4 94be
00000040: 5e7d 843d 36c3 8abe beb8 943d 5f6a b5bd
00000050: bfa7 e9bc 38c2 763c 0817 263e 07a8 59be
00000060: 2ca0 12be bfa5 2b3d f277 0ebe 49c9 78bd
00000070: a550 063e ba08 96bd 92c1 19bd 7edf 20be
00000080: 2c25 4bbe ae9e 6dbe da93 36be 604b 31be
00000090: 76e8 43be e9b9 26be cd23 5bbd ea03 89be
000000a0: 42e4 c0bd 321f 273d 43eb 363e 9d28 bc3c
000000b0: e29b 513e 7b2b 563e 5870 28be 6418 7fbe
000000c0: 901e 873e e73d 9c3d 3a56 afbe 9a42 4d3e
000000d0: 2561 123e 785f 983e e98b 5dbe 3e01 f1bd
000000e0: e04f 61be 16c3 c13d 0333 f43d 183d 253e
000000f0: 1e33 253e 369d 5d3d f939 9bbe 8d57 d83e
00000100: a52f 6f3f aaa5 4b3f 34a8 93bf c187 d2bf
00000110: c84c 85be dbda ac3d 7f0a 513e 01e7 893e
00000120: 0d0f 26be e28b 363c fa4a e5bd 2352 00bf
00000130: 13d1 84be 8c9e 19be da18 bfbc ec1a 3b3e
00000140: 8712 15be 9b93 a4be 853b a23e e4df 3f3c
00000150: 0232 093f 4e44 163f d398 c13e 5c3a 9e3d
00000160: 52d8 b73d e76b 033f 2928 8a3f 7bc1 853f
00000170: e19a 283f 55d0 6abe a6a2 5e3c deb8 873e
-0.10938441 -0.09042296 -0.0499196 -0.20114592 -0.02338516 0.16566433 0.21719983 0.09278279
-0.020587398 -0.12615593 -0.5498515 -0.5844631 -0.5813296 -0.5945242 -0.37291315 -0.29068127
0.064692244 -0.2710206 0.07261799 -0.08858179 -0.02852237 0.015060954 0.16219723 -0.21255504
-0.14318913 0.041906115 -0.13912943 -0.060738835 0.13116701 -0.07325883 -0.03753812 -0.15710256
-0.19838399 -0.23205063 -0.17829838 -0.1731391 -0.19131646 -0.16281857 -0.05350094 -0.267608
-0.09418537 0.040801235 0.17863183 0.022968585 0.20469621 0.20915024 -0.16449106 -0.24911648
0.26390505 0.076289944 -0.34245473 0.20044938 0.1429487 0.29760337 -0.21635403 -0.11767815
-0.22003126 0.09461038 0.11923792 0.16136587 0.16132781 0.054105006 -0.30317667 0.42254296
0.93432075 0.7954966 -1.1535707 -1.6447679 -0.26035142 0.08440181 0.2041416 0.26934054
-0.16216679 0.011141749 -0.11195941 -0.5012533 -0.2594076 -0.15001887 -0.02332728 0.18271989
-0.14557849 -0.32143864 0.31686035 0.0117110945 0.5359193 0.58697975 0.37811908 0.07725975
0.08976807 0.5133652 1.0793506 1.044967 0.65861326 -0.22931035 0.013588583 0.2650823
