dAE_PyTorch/checkpoints/spectra_dae_epoch_5.pth (torch, 18875 bytes, 13 tensors)

conv1.weight f4 [32, 1, 3]
00000000: 07cc 273f 482d 0d3f 64f9 32be e68c 02be
00000010: fdd3 4dbe 11f6 f23e 7963 14bf 9d9f 1a3f
00000020: 21b3 37ba 155c e6bc 1d49 33bd 0d5a 423f
00000030: 2dd0 033f 7582 2cbe dbb8 7fbe ba18 993c
00000040: 1931 26bf a5d5 cd3e 0bb3 08bf 0621 12bf
00000050: 3d17 a33e 85a9 373f 2ea8 233e 11b0 05bf
00000060: 37cf 96bc ae23 44bf 5193 f53c 455d 933d
00000070: 5ee8 bc3e 8609 073f 8bdf e0be ed9f af3e
00000080: 2237 0fbf 5357 1bbf 0c5b 03bd 3c82 103f
00000090: b352 573e 15cb 473d 8cfc ea3e 8c8c 053f
000000a0: 332d c0be 884c 2fbf e0cf 163f 4e0e e2bc
000000b0: 4394 7a3e 1dfb 6abe 8d43 3d3f e451 c8be
000000c0: 845a 46bb 8997 8dbf 5ff0 5ebb d45c b03e
000000d0: 34db 9e3e 3f5c a33e 42b5 69bf 79dc 933d
000000e0: 736f 173e 4c04 9f3e d32e 303e 59a8 a63e
000000f0: 2421 763d 4748 363e 495f 94bd f01b 2bbf
00000100: 42f9 33bd fff3 90bd 1d0c 413f 9c42 93be
00000110: 861b a6bd 36f1 e9be f907 20bf 656e 12bf
00000120: e490 00bf ee8f 2bbf c1a4 933d f9c1 c3be
00000130: 2807 c4be 33ae 02bf f2e5 aabe 89d4 fabe
00000140: c6e9 8fbe 77ce 253e cd0b b43e add3 a4bf
00000150: 24fe 7bbe be6d 98be 5cd2 30bf 3b9a 56bd
00000160: 709b 613e 0b8d 51bf 6663 d7bc b3d4 493f
00000170: 829e 61bd 7f99 99bf 8da2 963e 2361 e53d
0.65545696 0.5514722 -0.17477947 -0.12749061 -0.20100398 0.4745336 -0.57964283 0.603998
-0.0007007588 -0.02812008 -0.043770898 0.75918657 0.51489526 -0.1684664 -0.2497286 0.018688548
-0.6491867 0.4020206 -0.533982 -0.5708164 0.31853667 0.7174304 0.15982124 -0.5222178
-0.018409355 -0.7661694 0.029977472 0.07195524 0.36896032 0.52748907 -0.4392055 0.343017
-0.559435 -0.6068012 -0.03206925 0.5644872 0.21027641 0.04877766 0.45895803 0.5216758
-0.37534484 -0.6847615 0.5891094 -0.027594712 0.2447062 -0.22947355 0.739312 -0.39124978
-0.0030266354 -1.106187 -0.0034017784 0.34445822 0.31026614 0.31906316 -0.912922 0.07219786
0.14788608 0.31057966 0.17205362 0.32550314 0.0600902 0.17801009 -0.07244737 -0.66839504
-0.043938883 -0.070777886 0.7540911 -0.28761756 -0.081107184 -0.45691842 -0.62512165 -0.571997
-0.50221086 -0.67016494 0.07209159 -0.38233927 -0.3828671 -0.51047057 -0.3337856 -0.48990276
-0.28108042 0.16192041 0.35165253 -1.2877098 -0.24608666 -0.29771227 -0.6907098 -0.05239318
0.22031951 -0.8185584 -0.026292514 0.7884018 -0.055082805 -1.1999968 0.2942089 0.11200168

conv1.bias f4 [32]
00000000: 372d 32be e02c 5ebd 3e7a 0ebd 0b33 27bf
00000010: e1d6 61be 20c9 e93c 8b2b 853e a18a 86be
00000020: bebf 2e3e 49fc 9ebe dd71 b03e f26e d1bd
00000030: 65b7 c1be 8d8a 073e 1285 6abe 9d11 e6be
00000040: 3bd6 8f3d e2c3 2bbe b9c1 b73e ee00 19bf
00000050: df93 1dbe a284 383e db13 a6be 4ef9 afbd
00000060: cf3a 223f 9c82 68bd 9eea d43e ab65 ecbd
00000070: ed57 bcbe 9c7e 6d3e e0b5 2ebf 13e0 92bd
-0.1740006 -0.054242015 -0.034784548 -0.6531226 -0.22054626 0.028538287 0.26009783 -0.2627764
0.17065331 -0.31051853 0.3446187 -0.10226239 -0.3783523 0.13236447 -0.22902325 -0.44935313
0.07023283 -0.16773942 0.35889986 -0.59767044 -0.1538844 0.18019345 -0.32437024 -0.08592473
0.63370985 -0.056765184 0.4158525 -0.11542829 -0.36785832 0.23192829 -0.6824627 -0.07171645

conv2.weight f4 [16, 32, 3]
00000000: a7fc 7e3b 3767 d53d 849f 173d e2ce 973d
00000010: 9999 4cbd 06cd 813e 04e3 303e 2104 d73d
00000020: 6956 0a3d a9e4 283f 317f 9c3f 07d2 1a40
00000030: 7815 9f3c a417 a3bd f2b6 4ebd 8da7 c4bd
00000040: e87f c13d fdfa 29be 4797 24bd d52c 15bd
00000050: 0b3a 7ebe 412c 20be d723 2d3d 61bf 90bd
00000060: e05b 1b3d 2159 cc3d a949 82be 4c8b 973d
00000070: e1dc 383d cfd7 bb3e 8ea6 8e3c 6152 21bd
00000080: 1876 24bf 9f6b 2f3e d983 e53e d599 a23e
00000090: 4638 14bc b7d1 4f3e af8c 1b3f ad88 97be
000000a0: b670 a83d 3adb 19bf ab5b 9ebd 4f87 813d
000000b0: 1cce 703e da82 213e 38e4 553d f655 003d
000000c0: e6d2 99be 8d47 96be 8f8e 75be 3688 d4bd
000000d0: 6ec2 9d3d 1e9e 363e 6b4a ef3d 925b 0f3d
000000e0: 06c3 17be 5bb1 d7bb 0b3a 093f f0d8 9e3e
000000f0: ae6e c3bd e3d4 4e3e 4dca 913d c200 543d
00000100: 6866 90bd 6698 a43d 08b6 7dbe e946 9bbd
00000110: fd35 d7bd b929 cabd 5f25 a2bd b2ba 10be
00000120: 822b 02be 2ceb f2bd 4de0 c1be 7a64 d8bd
00000130: 5494 4dbe 5b86 2cbe 0f21 583d 8f39 94be
00000140: 80e4 e3bc 6406 1abe d80e e53d f806 e0bd
00000150: 2cee 67bc 6eaf 0ebb aae3 75be 75e0 703b
00000160: f108 e83d 9f58 8abf 4bf7 453f 4855 ea3e
00000170: fa78 bd3f e678 e3be b5a4 7cbe 8d4f 40bd
00000180: d848 2a3c eb07 ab3d 104c 143e 87f8 32be
00000190: c524 043d 16e8 923e 1488 85be 2bf7 173e
000001a0: a1d1 c03d 2551 aa3e 8319 36be e17e 863f
000001b0: ed11 333d 9cda 883c 6756 00be 8f84 9c3d
000001c0: 66da 563e 7131 823e b048 863e f7bb b43d
000001d0: a52b 103e 4a43 163e 8dc0 29be 776b 22bf
000001e0: 17f3 403e c665 863e 72d7 f23b 4e4c 353c
000001f0: 2c69 77bc 0eb1 883e b336 23be f543 233e
00000200: adc0 88be 89f1 ccbe 35f1 df3e f6a9 4a3e
00000210: 234e eabd 8c6b 58be 37d9 893e 9f9e e53d
00000220: cc5c 333f 6a76 61bf 1e84 9e3d d21b 263d
00000230: 8ca7 163e 5567 ec3d 06be 9f3c 3be2 ccbd
00000240: b5b8 89be 3a4f a5be ae45 aebe fe92 d43c
00000250: ded3 553d 40f1 433e b2e4 14be 9bf3 c33d
00000260: dbf8 f93d a7b5 2abf e4df 2abf 3df5 8dbe
00000270: cebf fe3d f3f4 82be d7cf 9fbd daac 393e
00000280: 4d1c 1f3e d8fd 983c f662 593e 4fbd 12be
00000290: 5024 e2be df1f c4bd 2683 24be 7523 efbd
000002a0: 73ad 18be cd40 abbd 948b 43be c963 ebbd
000002b0: 5fdd 02be f79c 09be a0d3 233f 986b e5bd
000002c0: 1a27 7dbe 487a a13d 2895 41bd 4d96 d3bd
000002d0: 502c e2bb c1c2 41bd 5769 44be cca7 613d
000002e0: f0b3 9b3e 16ce 62bf 1645 033f 40b6 0cbe
000002f0: 4d3d 26bd 1fea abbe fa17 9e3e a605 a03e
00000300: 85d7 f8bd 745a 263c 9644 b4bd 623d a1be
00000310: a6e8 08be 85c5 7e3e 010b 14be 44cd 3dbd
00000320: 54dd f73d f5c6 cabe 15bc c8be ccad 863e
00000330: 0653 81be 000d 31be d041 993e 6e70 12bf
00000340: 1a80 e7be ab9b 6b3e 38ea cebc b53e a4bd
00000350: 2f73 36bf a645 40bd e206 bfbe f510 af3e
00000360: 9eaf 35be 4fbc 64be b852 c6be 6cd0 f4bd
00000370: 363e 703d 63a7 a33d ec73 6d3e d443 8e3e
00000380: 4046 0dbf 57e4 a53e 6dc0 4ebe 6cec 213e
00000390: dc0a 75be bb1b bbbd f238 c43d fe82 1cbe
000003a0: f467 9c3f cae4 06bf 6089 6bbd 01c9 0abc
000003b0: bf7c 1f3e 1b4c 0ebd 7f5a 9cbd 8fa3 c93e
000003c0: 34c7 ff3f 550f b03e f6f0 043f 9386 74bd
000003d0: 37b3 dd3d f163 2fbd 9652 073e a5fc 833d
000003e0: 62de 25bf a641 92bd b366 77be a03e 353e
000003f0: 8179 edbd 378b d5bd 9794 1a3e dec0 ac3d
0.0038907917 0.10420077 0.03701736 0.07412507 -0.04995117 0.25351733 0.172741 0.104988344
0.033773813 0.6597391 1.2226316 2.419069 0.019419417 -0.079634935 -0.05046744 -0.0960227
0.09448224 -0.1659965 -0.04018333 -0.03641971 -0.24826829 -0.15641882 0.042270508 -0.07067753
0.037929416 0.099779375 -0.25446823 0.07399616 0.04513252 0.36688086 0.017413404 -0.039385203
-0.64242697 0.17130898 0.44827154 0.3175799 -0.00904662 0.20294844 0.6076154 -0.29596463
0.08224623 -0.6010014 -0.07732328 0.06324636 0.23516124 0.15772572 0.0522196 0.03133198
-0.30043715 -0.29351464 -0.23980163 -0.10377543 0.077031 0.17833754 0.11684116 0.034999438
-0.1482049 -0.0065824217 0.5360419 0.31024885 -0.09542595 0.20198397 0.07118664 0.051758535
-0.070507824 0.0803688 -0.2477647 -0.075818844 -0.10508344 -0.09871239 -0.07917284 -0.14133719
-0.1271191 -0.11861262 -0.3786644 -0.105660394 -0.20076114 -0.16848128 0.052765902 -0.28950164
-0.027818918 -0.150415 0.11184472 -0.10938829 -0.014155906 -0.0021772045 -0.24012628 0.003675488
0.113298304 -1.0808295 0.77330464 0.4576819 1.4802544 -0.44428176 -0.24672206 -0.046950866
0.010393344 0.083511196 0.1448214 -0.17477618 0.03226163 0.28692693 -0.26080382 0.14840381
0.094149835 0.33265033 -0.1778317 1.050747 0.043718267 0.016705804 -0.1253296 0.07642471
0.2098175 0.25428346 0.2622733 0.08824914 0.14079149 0.14674106 -0.16577359 -0.6344523
0.18842731 0.26249522 0.007410937 0.011065556 -0.0151007585 0.26697582 -0.15938835 0.15943892
-0.267095 -0.40028027 0.43738714 0.19791397 -0.11440685 -0.21134776 0.26923534 0.11211895
0.7006347 -0.8807131 0.07740043 0.040553875 0.14712352 0.115431465 0.01949979 -0.100040875
-0.26898733 -0.32287008 -0.34037536 0.025948998 0.052204005 0.19134998 -0.14540365 0.095679484
0.122056685 -0.6668343 -0.6674788 -0.27726164 0.124389276 -0.25577506 -0.07803314 0.18132344
0.1553814 0.01867573 0.21229157 -0.14330028 -0.4416833 -0.095763914 -0.16065654 -0.11676685
-0.14909916 -0.08361969 -0.19096214 -0.11493642 -0.12779759 -0.13438784 0.6399479 -0.112021625
-0.24721947 0.078846514 -0.047261387 -0.10331402 -0.006902255 -0.047304872 -0.19180809 0.055091664
0.3041072 -0.8859571 0.5127729 -0.13741398 -0.040585805 -0.33577058 0.30877668 0.3125431
-0.12150482 0.010153402 -0.08802144 -0.31492144 -0.13369998 0.24880035 -0.14457323 -0.046338335
0.12102762 -0.39604917 -0.39205995 0.26304471 -0.25258654 -0.17290115 0.29933023 -0.57202804
-0.4521492 0.23008601 -0.025258169 -0.08019773 -0.71269506 -0.046941422 -0.3730994 0.34192625
-0.17742774 -0.22337459 -0.38734984 -0.11953816 0.05865308 0.07990911 0.23188752 0.27786124
-0.5518532 0.32400772 -0.20190592 0.15812844 -0.23929924 -0.091361485 0.09581174 -0.15284345
1.2219224 -0.52692854 -0.057504058 -0.008470775 0.1557493 -0.03474055 -0.07634448 0.39382598
1.9982667 0.34386697 0.5193018 -0.059698652 0.10825198 -0.04281992 0.13215098 0.064446725
-0.64792454 -0.07141428 -0.2416027 0.17699671 -0.11595441 -0.10426944 0.15095745 0.08435224

conv2.bias f4 [16]
00000000: 4939 f3bd 5688 fcbc 9b76 c63c 4dad 8bbd
00000010: 78b2 ce3d 0ec9 8cbd 9609 eebd 7d01 b2bc
00000020: 5d46 363e 14ff 043c 7860 ff3c 88a1 05bb
00000030: 2e19 183d 33e2 bbbe c581 50bd 1d9c 593e
-0.11876161 -0.030826729 0.024226477 -0.06820164 0.10092634 -0.06874286 -0.11622922 -0.021729225
0.17800279 0.008117456 0.03117393 -0.002039047 0.03713339 -0.36696014 -0.050905008 0.21250959

conv3.weight f4 [8, 16, 3]
00000000: b36c 24be a0b7 82bd 2c94 c4be a832 67bd
00000010: 4d01 153e a257 7ebe 7e95 0b3f 6dff e2bc
00000020: f8e8 623f 1360 4f3e afbf 20be f1ad bdbd
00000030: 31d0 703c 0ef9 e3bd e729 b33e c7c1 753e
00000040: d42c 22be 665a 10be 44eb 6dbe b1d0 04bd
00000050: d3b2 cabe ffed 5f3e 21d9 193d de13 633e
00000060: ba70 1d3e dbdc 1d3e 1702 1b3e 106e 5d3e
00000070: 5337 f03d c330 ba3b 73f7 e73e fe53 4bba
00000080: eba0 1b3f 5658 86bf f5fd 9dbd a93b c2be
00000090: b6fb 423e 316a c73d 6160 2d3d 1d13 883b
000000a0: 615e f7be e88f bbbe 949d 6e3e 6796 09be
000000b0: e789 1ebe 3041 103e 2006 3b3d 9922 0a3f
000000c0: 0067 5a3d 3392 c2bd 7854 a43e 4a3f 423e
000000d0: 06ad 513b 60b0 fc3d 335f fc3e 393d 76be
000000e0: 9e43 c63d 7ef3 b0bd 11f6 c83c cfdf 49bd
000000f0: 2fe4 18bd bca2 453d 1003 e2bd 682e 3dbe
00000100: 0022 fe3d d6ee 55bc 3d2b f43d 24e0 543e
00000110: f31a e83d 99b6 cfbb a889 0dbd e231 9ebd
00000120: dfc2 67be 593f 1abd 2517 61be 2131 8b3e
00000130: 4a7e 463e 73fd a63d 61a6 56bd f61a 19be
00000140: a171 5a3e b6f9 a93f b099 d23e b9b6 583f
00000150: 20c8 2f3e c619 853e 85f4 9f3e 43a5 08be
00000160: 3792 f73e ac7a cb3e a8cc cb3d a366 163e
00000170: 50b0 a539 4ae2 f1bd 9068 243d 0238 e8bd
00000180: 0f87 903e 898c a33e 33a6 3dbc bce6 1cbe
00000190: 962d 833e 5149 6e3e db83 aa3e 484f 70bf
000001a0: 94a2 c03f d29e d83d e703 b4bd 5031 14bc
000001b0: 3c1f 533d 621c 03be 9086 0ebb e8c4 ec3e
000001c0: 4834 85be 8d53 513e 5082 9bbe 8bac 743d
000001d0: 6e17 61bd 575e 423e f44d fe3d 98b8 b1be
000001e0: 9447 9a3e f86c eebb 5d01 293e 60fc adbc
000001f0: f7ab 353e 7d4a 4f3e d7ab e33e 7f7d b63c
00000200: 7693 363e 8757 8fbf 140c 81bd be60 50bf
00000210: 63cf 5ebd c7bb 86bd 69eb 8abe 66f1 38be
00000220: f2a5 c2be a0a6 9ebe 763f 66be 7a9f 5d3d
00000230: b604 123e 8c5c 863e 2175 a4bd 4f31 df3c
00000240: 1ac0 c83c 5da1 83bd 77dc ddbe e548 203e
00000250: 180d d53d b7f6 283e bbac b5be c176 bb3e
00000260: 285a b03f 9634 0bbe 2040 43bd 839e 453e
00000270: 7462 b4bc a2c7 e0bd 33ac 3a3e 58c2 aabd
00000280: 814b fbbd f91e b83e b930 f23d e343 863d
00000290: bacc 01be 0754 dcbc 56df 963d aaee bdbe
000002a0: 6ab9 65bd 3cf3 2a3e eecd c93d 5616 b33d
000002b0: fc8d 7dbc 7d9b ec3e 9943 783e 07c9 06bc
000002c0: d780 5c3f 071e eabe 6da0 36bf 3ae4 94bf
000002d0: c921 c1bc e0e6 d1bd eb46 b3bd 46a3 7cbd
000002e0: 5d9c 2bbf 0845 6dbc 27da 8d3e 7124 b7bd
000002f0: 3c50 243e 1d3c 23be 8094 b33d 7470 363e
00000300: 0869 7ebd a55a 41bc 3384 39bd 8280 773e
00000310: 773f f73d 097f 463c d0bd 693f 45ae aa3e
00000320: a1c2 0e3e 591c 58be 7a63 fb3c d88c 023e
00000330: a75e 7f3d b4f2 19be 176c 47bd 03e9 903d
00000340: 6286 8c3d 76bb f13d 58a0 b83e f2dd 263e
00000350: 3375 f13d ab96 6dbe 6e08 69be 9f82 48bd
00000360: 24c5 53be 3d69 43be 0d34 b9be 5153 d83d
00000370: 96d2 123e 804b cfbc 6fc8 663f 88e4 11be
00000380: 1bed 533e 5b4b 893f 3997 193e f979 353f
00000390: 1cd8 633e 57b6 d03d aa26 053e 704e 2e3f
000003a0: b89d 573e 1352 123b 23f9 ce3e 4fb8 683d
000003b0: 33a1 093e 7c62 cdbe 20cc 92be 9de1 ddbd
000003c0: 045e ad3b 36aa a33e 8589 54be 5cb7 dabd
000003d0: a4eb e43b 5676 0fbe 58d9 2c3f 3131 913e
000003e0: b8f6 273f 274c 893e af56 d73d cbdc 383e
000003f0: 0184 37bd 5a7f 773c 926e f53e 0b8b a73e
-0.1605709 -0.0638268 -0.38394296 -0.056444794 0.14551277 -0.24838117 0.5452498 -0.027709687
0.8863673 0.20251493 -0.15698121 -0.09261692 0.014698074 -0.11131488 0.34992906 0.23999701
-0.15837413 -0.14096984 -0.23234278 -0.032425586 -0.39589557 0.21868132 0.037560586 0.22175547
0.15375033 0.15416281 0.15137516 0.21624017 0.11729302 0.0056820824 0.45305976 -0.0007756351
0.60792416 -1.0495708 -0.07714454 -0.37936142 0.19041333 0.09737051 0.042328242 0.004152669
-0.48314193 -0.3663323 0.23302299 -0.1343628 -0.15482293 0.14087367 0.045660138 0.5395904
0.053320885 -0.095005415 0.32095695 0.18969455 0.0031994 0.12338328 0.4929138 -0.24046792
0.09680866 -0.086401924 0.024531396 -0.049285706 -0.037326988 0.0482509 -0.110357404 -0.18474734
0.12408829 -0.013057431 0.119223095 0.20788628 0.11333265 -0.006338906 -0.034555107 -0.07724358
-0.22632931 -0.03765807 -0.21981485 0.2718592 0.19384113 0.0815381 -0.052404765 -0.14951691
0.21332408 1.3279331 0.4113288 0.8465381 0.17166185 0.25996226 0.3124124 -0.13344292
0.4835374 0.3974203 0.099511445 0.1468759 0.00031602615 -0.11810739 0.04013878 -0.11338808
0.28228042 0.31943157 -0.0115752695 -0.15322393 0.25620717 0.23270155 0.33303723 -0.93870974
1.5049615 0.105771676 -0.08789807 -0.00904496 0.05154346 -0.12803796 -0.0021747686 0.46243978
-0.2601645 0.20442028 -0.30372858 0.059734862 -0.054953985 0.189813 0.12417212 -0.34711146
0.30132735 -0.0072761737 0.16504426 -0.021238506 0.1774138 0.20243259 0.4446704 0.022276638
0.1782969 -1.1198586 -0.06301132 -0.81397617 -0.054396998 -0.065787844 -0.2713273 -0.18060836
-0.3801723 -0.309865 -0.22485146 0.054107167 0.1425961 0.26242483 -0.08030153 0.027245192
0.024505664 -0.06427262 -0.43332264 0.15652807 0.10402888 0.16500364 -0.35483345 0.3661404
1.3777514 -0.13594279 -0.047668576 0.19298749 -0.022019602 -0.10975577 0.18229751 -0.083378494
-0.122702606 0.3596113 0.11825699 0.06555917 -0.12675753 -0.026895536 0.07366817 -0.3709615
-0.056085028 0.16694349 0.09853731 0.087444946 -0.015475746 0.46212378 0.24244536 -0.00822664
0.86134094 -0.45726034 -0.7133854 -1.1632149 -0.02357568 -0.10249114 -0.08753761 -0.061679147
-0.67035466 -0.01448179 0.277055 -0.089424975 0.16046232 -0.159409 0.087685585 0.17816335
-0.062111884 -0.0118013965 -0.04529209 0.24170116 0.12072652 0.0121152485 0.91305256 0.33336082
0.13941433 -0.21104564 0.030687083 0.1274904 0.062346127 -0.1503399 -0.048687067 0.070756935
0.06861569 0.118033335 0.36059833 0.16295603 0.11789932 -0.23202007 -0.22757122 -0.048952695
-0.20680672 -0.19083114 -0.36172524 0.10562766 0.14338145 -0.025304556 0.9014959 -0.14247334
0.20695917 1.0726122 0.14999093 0.7088924 0.22250408 0.101910286 0.1300303 0.68088436
0.21056259 0.0022326752 0.4042445 0.056816395 0.13440399 -0.401142 -0.2867136 -0.10834048
0.0052907486 0.31965798 -0.20755585 -0.10679504 0.0069860984 -0.14009985 0.6751914 0.28357843
0.6561084 0.26815912 0.105145805 0.18052976 -0.044803623 0.015106047 0.4793592 0.3272327

conv3.bias f4 [8]
00000000: 61ab 5a3e a4c3 653e 8cd1 823c 48bc d93c
00000010: c81f a8bd 61ac 9dbd acf8 40be 0595 233e
0.21354438 0.22437912 0.01596906 0.026579037 -0.08209187 -0.07698894 -0.18844861 0.15974815

t_conv1.weight f4 [8, 8, 3]
00000000: 4887 64bf a497 f3be e2f5 d23e fc12 4fbe
00000010: af7c d03a 3693 acbd 47ca e3bd 6fc2 c2be
00000020: 834d 45be c74f afbf b65c 983e 806c ac3e
00000030: 2de8 ca3e 8af0 6e3e 0c77 823d f95e 2c3e
00000040: e336 ff3b 5e6d 54c0 0876 9b3d f841 963e
00000050: adab 663e b62c 35bd a4fb cc3e 197a 9c3e
00000060: 7b1a 8fbd 6796 8f3d c787 2b3e ee22 5bbe
00000070: 6f1d 8cbd 6a0c dfbe 1b86 823e 4976 6b3e
00000080: ef82 353e 03d1 3fbd 6c55 78be 724e c4bd
00000090: ba0b 9dbe 23bd 29bf 8208 8a3d b678 253e
000000a0: b591 aebd b76d f9bf 8865 92be b447 12bf
000000b0: 520e 70bd b5eb b03e 5e59 4ebc e40d c9be
000000c0: 9207 54bf 25ed 203e 9f41 703e b9e6 0e3e
000000d0: d2df b6bc 0445 483e d5a5 883d 7b8c 84be
000000e0: 8aa6 6d3d 1663 bb3e a06b 43bd 418b e53e
000000f0: 94df 1d3e a369 083e bd1e aabd 82e2 9b3f
00000100: 28f3 9cbe 3cd3 30c0 34fa 303e a538 3e3e
00000110: f49a 223d df1f ec3e 022f 33bf 2cc7 103f
00000120: 63f5 00bf 6ff2 0abe 9c9b 473e 7c67 023f
00000130: d4bd 473e 2ae9 ddbd 939c 1abd 4017 a13d
00000140: eaf5 423d bfa8 08bf d12e 8a3e 920a b93e
00000150: 8872 033f e92a 4c3c 0b46 6f3d d39b 103f
00000160: 9992 363e ff4f 2dc0 d2dc 4d3e a39f 0c3e
00000170: 2df4 243e a91f 643d b4df 873e dbda 61be
00000180: 48f8 28be 882d ad3e 3499 4b3e c63c 57bd
00000190: c79f 98be 202b 8dbe 4f2e 783e 0394 643e
000001a0: 3070 da3d 57de 9bbe 7f43 8d3e 5f53 8dbe
000001b0: 5a1d 913d 04fa cebe 7289 de3e 73d8 923e
000001c0: 0ef5 183e a41b 8d3f a2e3 363e db16 7fbf
000001d0: 79e8 713e 82bd b73e 5605 c73e f41a 9b3d
000001e0: 5a16 043f 8a83 6f3e fd63 983e ce67 a03e
000001f0: 9d69 493e 90c9 613e 4fa5 d03e 77b2 233e
00000200: de0b b33e 5a7d 7bbf 440d bb3d 9058 2d3e
00000210: d360 f03d 9c35 1bbd fcbd 9cbd e40f 0e3f
00000220: dcbf a53e 2efd 01c0 f459 eb3e 2f48 ce3d
00000230: 0be0 123e 4e19 39be 5f77 41bd b2a7 d2bd
00000240: 70fb c6be 7742 603c 2848 013f c049 923e
00000250: f7c8 d83e 53a1 f73e 3042 493e 51f5 893e
00000260: 4c2a 0c3d 0454 203f 9738 1e3e 5aa4 85bf
00000270: ca95 85be 0b3b 83be 53b7 ff3e 314f 2f3f
00000280: 42e9 723e 2f2a d7bf b0d7 1a3d 41b1 b8bd
00000290: da32 d23e 27e7 c13c b3a8 1f3c 82e9 d8be
000002a0: f475 b9be 7de9 8ebd 26f8 413e 8da7 093f
000002b0: 0dd8 2f3e 5126 d13d eee2 2a3e f822 933e
000002c0: 2190 0c3e 3a08 663f dfef 38be e5a9 b2bf
000002d0: 8787 4fbe 4c6d 46be 1b32 f03d 9567 b53e
000002e0: 44b2 57bd 5303 17c0 ee49 4ebe 9120 cabe
000002f0: 0f7b a4be b25b 823e de35 cfbe 7647 7bbe
-0.8926892 -0.4757663 0.4120322 -0.20222086 0.0015906299 -0.08426516 -0.11122566 -0.38038966
-0.1926785 -1.3696221 0.29758233 0.3367653 0.3963026 0.23333946 0.06370363 0.16833104
0.0077885254 -3.3191752 0.07590872 0.29347205 0.22526427 -0.044232093 0.40035737 0.30561903
-0.069874726 0.07011109 0.16751014 -0.21400043 -0.068415515 -0.4356416 0.2549294 0.22994341
0.17725728 -0.04683019 -0.24251336 -0.09585275 -0.3067301 -0.66304225 0.06739904 0.16159329
-0.08523885 -1.9486607 -0.28593087 -0.5714066 -0.058607407 0.3455483 -0.012594549 -0.3926841
-0.8282405 0.15715463 0.23462532 0.13955201 -0.022323523 0.19557577 0.06672255 -0.25888428
0.058020152 0.36599034 -0.04771006 0.44832805 0.1541732 0.13321547 -0.08306644 1.21785
-0.30654263 -2.7628927 0.17282945 0.18576296 0.039698556 0.46118066 -0.69993603 0.5655391
-0.5037443 -0.13569044 0.19492954 0.50939155 0.19506007 -0.10835488 -0.037746977 0.07865763
0.047597803 -0.53382486 0.26988843 0.36140877 0.51346636 0.012461402 0.058416408 0.5648777
0.1782936 -2.7080076 0.20103768 0.13732772 0.1610877 0.055694256 0.2653786 -0.22056143
-0.16500962 0.338238 0.19882661 -0.052548192 -0.298094 -0.27571964 0.24236415 0.22322087
0.10665929 -0.3044307 0.27590558 -0.2760267 0.070856765 -0.40425122 0.43464237 0.28680763
0.14937231 1.102406 0.17860273 -0.9964425 0.23623838 0.3588677 0.38871258 0.075735
0.51596606 0.23390022 0.29763785 0.31329197 0.19669195 0.22049546 0.4075112 0.15986048
0.3496999 -0.98238146 0.091333896 0.16928315 0.11737218 -0.037892923 -0.07653424 0.55493
0.3237294 -2.0310779 0.45967066 0.10072362 0.14343278 -0.18076059 -0.04723298 -0.102858916
-0.38863707 0.013687721 0.50500727 0.28571892 0.42340824 0.48365268 0.19654155 0.26944974
0.034220025 0.626282 0.15451275 -1.0440781 -0.26090842 -0.25630984 0.49944553 0.6848021
0.23721793 -1.6809748 0.037803352 -0.090181835 0.41054422 0.023669792 0.009744811 -0.42365652
-0.36222804 -0.06978128 0.18942317 0.5377129 0.1717226 0.102123864 0.1668813 0.28737617
0.13726856 0.898563 -0.18060254 -1.3958098 -0.20266543 -0.19377631 0.11728307 0.3543059
-0.05266024 -2.359578 -0.2014539 -0.3947797 -0.32125136 0.25460583 -0.40470785 -0.24538979

t_conv1.bias f4 [8]
00000000: d301 bc3d 975c 79be a21c 6b3e 5a4b a83d
00000010: d4f2 7abb 1bf7 5c3e 3221 6c3d ba05 6b3d
0.091800354 -0.24351726 0.22960141 0.08217497 -0.003829171 0.21578638 0.057648845 0.05737851

t_conv2.weight f4 [8, 16, 2]
00000000: 5f25 eebe 9247 9e3c ba0f 80bd d96f 423e
00000010: 7583 8cbd 14b4 023f 1f40 54bc 9fc0 aa3e
00000020: 6db5 2c3e a17a c13d 6045 f6bd baac 08be
00000030: 9ab9 ed3a 029b 343c 5bc2 943e 6b9c a03e
00000040: 80a3 1d3f 5e1a aa3a e905 a2bd 1d71 c13d
00000050: c0a3 ed3d f4c6 dc3e 86d7 833e fb0f 4c3d
00000060: acc9 49be a5a7 723e e275 833e 908c 99bd
00000070: 0f9a d6be 6a29 8b3c 9aad e33d 1f06 7c3d
00000080: 10d1 0cbd 6316 bb3d d6b4 3cbe 897d 7d3e
00000090: 3e1d 113f c1f9 d13c f8ff 23be 52e8 5f3d
000000a0: d847 17bf d901 45bd 130a 083f 2d55 8bbc
000000b0: c8a8 be3a 5c37 11bf b7bf 8e3d 7fd4 6abe
000000c0: a998 06be 9686 623d f948 ffbe 8db6 a5bd
000000d0: 86cd c33d 4035 6a3d a4ce e23e 937d c03d
000000e0: 7b20 953e 6388 533b 877e 503e cf7f b83e
000000f0: 9534 913e 75c6 c5be ca71 2abe a696 c43e
00000100: 7e87 8fbe 7d4a e2bd bea8 40be b353 01be
00000110: 01a6 26be 67b4 3fbe e644 063e 816f 473d
00000120: 7431 983e fce1 9b3e 0703 9abc 9533 7abc
00000130: f8a9 7a3e c30b 8a3e 9055 773e ad23 693e
00000140: 3f1b 1abf a00a 33be a3c1 893d b1e2 9bbd
00000150: fb6b 0bbe e778 8dbe c9f1 a4bd 5cb0 f7bd
00000160: 82b9 a3bd 1bfc 0abe cf9a b0bd 3798 7cbd
00000170: edbb 6abe d440 88bc 2f36 24be f808 0bbe
00000180: 8f14 813e 93d5 613e bbb6 01be 00d3 edbc
00000190: 5fcb bb3e 64d6 8f3e cda3 3abf 1d51 f83e
000001a0: 15d0 acbe 7f07 3fbe 95d1 48be 4217 5dbd
000001b0: 40d7 adbe f304 f1be 0a9f 77be e7eb 16be
000001c0: 843f d03c 4e8e 7b3d d56f b83e c1e9 2bbe
000001d0: 5daa 213e 5c93 703e 742b 5fbe 6e96 1e3f
000001e0: 26af 773d c6e3 1abc c5f0 be3e 0392 94bf
000001f0: 72ed 423e da99 b8bf 99f5 3abd 5725 33be
00000200: e26b 833d 981e b33e d3c2 dbbd c71b a83d
00000210: 3489 b1be 1d93 8f3e 0816 183f 3171 b3bd
00000220: 4f90 333e aa25 eabe 8404 8b3e a03b 6b3e
00000230: da88 73be 8b6d 943d 406d 85be f0bd 3b3e
00000240: 80ce c9be 59ba f93c 6db7 f03e e0ff 353d
00000250: ebb4 8d3e afdb da3d da4c 173e 0a28 26bb
00000260: 3904 afbd 3680 4f3e a81b 283e 35d5 a73e
00000270: 6d90 8e3c d196 ab3e 4525 0e3d ebb0 41be
00000280: e414 1fbe 6993 1bbe 2215 a23d 7746 5fbd
00000290: eb34 ca3d 2230 24be f0b3 e3bf 4df0 a83e
000002a0: 185c 003e 1270 e63d 4c21 b7be 02f9 013e
000002b0: 9998 b43d f482 8c3d ec2d cf3e 089d 373e
000002c0: 4a07 313f cc4c 03be 1735 3ebe fbf6 743d
000002d0: cc41 41be 13bc 033a b0dc 113e 568e ad3e
000002e0: 8e25 e33e 238f 2a3e b77e 3a3e 38cd a13e
000002f0: 1e2a 07bf 031d 05c0 f8ed d73d 94a2 6c3e
00000300: 474d 963e 329e 663d b7eb 01be 0fdf c43e
00000310: 6eac 893d 3a07 2f3e 2197 153e b9f1 94bc
00000320: ae9c 6fbd 58b7 23bf 673d 063e 8122 143e
00000330: 5d04 78be 5a4a fdbd 86a3 3abf 5905 07bf
00000340: 714e a5be 0503 a3bd 8f65 893d c8d2 dfbd
00000350: 134a 513d 74a6 723e c854 143e dfb0 b53e
00000360: c499 45be 81aa fa3b 2568 853e 4b76 643e
00000370: 3777 173d 8a21 b43d 447f 47be f35c d63d
00000380: 4811 993e 7187 ae3b 0830 03be d4e7 493e
00000390: 42a4 403e 0b34 323d 401f b5be 5e53 95be
000003a0: 4d9c 41be 7c9a c83c eed7 3e3e ca62 37be
000003b0: 6406 ac3e 5906 02bf 7fc8 31bf 3a99 473d
000003c0: 4cc7 75be c5fe 07be 70a2 a4bd 7acf 15be
000003d0: d2b0 a23e bd03 dbbc 38be 63be 07ea 1bbf
000003e0: 8ac4 cf3e 4fed 16be 6799 8fbe 3510 abbe
000003f0: 9e19 47bf a81d dcbe 6191 1ebe a927 a03e
-0.46512887 0.019321237 -0.062529996 0.18987979 -0.06861011 0.5105603 -0.012954741 0.33350083
0.16866083 0.09447218 -0.12024951 -0.1334714 0.0018136979 0.011023285 0.2905453 0.31369337
0.61577606 0.0012977829 -0.079112835 0.09445403 0.116034985 0.4312054 0.2575037 0.049819928
-0.19705838 0.23696764 0.25675875 -0.07497513 -0.41914412 0.016987521 0.11117096 0.061529275
-0.034379065 0.09135129 -0.18428358 0.24754919 0.56685245 0.025631787 -0.16015613 0.054664917
-0.59094 -0.048097465 0.5314037 -0.017008388 0.001454615 -0.56725097 0.069701605 -0.22932623
-0.13144173 0.055304132 -0.4986036 -0.080914594 0.09560685 0.05717969 0.4429828 0.093989514
0.29126343 0.0032277338 0.20360766 0.3603501 0.2836043 -0.38627973 -0.1664497 0.38396186
-0.2803306 -0.11049364 -0.1881437 -0.12629585 -0.16274263 -0.18721162 0.1311222 0.048690323
0.2972523 0.3044585 -0.018800272 -0.015271087 0.244789 0.26962098 0.24153733 0.22767515
-0.60197824 -0.17484522 0.067263864 -0.07611597 -0.1361541 -0.27631304 -0.08053929 -0.12094185
-0.07994367 -0.13572733 -0.086232774 -0.0616686 -0.2292325 -0.016632475 -0.16036294 -0.1357764
0.25210997 0.22054128 -0.12667362 -0.029031277 0.36678597 0.28093255 -0.7290619 0.48499385
-0.33752504 -0.18655203 -0.19611199 -0.05397726 -0.33953285 -0.47074088 -0.24181762 -0.14738427
0.025420912 0.06141501 0.3602282 -0.16788389 0.15787645 0.23493713 -0.2179392 0.6194829
0.06046977 -0.0094537195 0.37293068 -1.1607059 0.1903589 -1.4421952 -0.045644376 -0.17494713
0.064170614 0.3498428 -0.10730519 0.08208423 -0.3467499 0.28041926 0.59408617 -0.08761824
0.17535518 -0.4573186 0.27151883 0.22971964 -0.23782673 0.07247456 -0.26059914 0.18334174
-0.3941536 0.030484365 0.47014943 0.044433475 0.27677092 0.106864326 0.1477541 -0.0025353455
-0.08545727 0.20263752 0.164168 0.32779852 0.017402852 0.335135 0.03470351 -0.18915145
-0.15535313 -0.15192951 0.07914187 -0.05451056 0.098733746 -0.16033986 -1.7789288 0.32995835
0.12535131 0.112518445 -0.3576759 0.12692645 0.08818168 0.06860915 0.40464723 0.17930996
0.6915175 -0.12822264 -0.1857494 0.05980585 -0.18872756 0.00050252787 0.14244342 0.33897656
0.4436459 0.16656165 0.182124 0.31601882 -0.5279864 -2.0798957 0.10543436 0.23108894
0.29355833 0.05630321 -0.12687574 0.3845143 0.067223415 0.170926 0.14608432 -0.018181669
-0.05849903 -0.63951635 0.1310936 0.14466287 -0.24220414 -0.12367697 -0.72905767 -0.52742535
-0.3228641 -0.0795956 0.06708824 -0.10928875 0.051096033 0.2369631 0.14485466 0.35486504
-0.19296938 0.00764972 0.26056018 0.2231075 0.036978927 0.087954596 -0.19482142 0.104669474
0.29895997 0.0053262045 -0.12811291 0.19717342 0.1881266 0.043506663 -0.35375404 -0.29165167
-0.1890728 0.024487726 0.18637058 -0.17908779 0.33598626 -0.50790936 -0.6944656 0.048730113
-0.24001807 -0.1328078 -0.08038795 -0.14629927 0.31775528 -0.026735181 -0.22240531 -0.6090397
0.40579635 -0.14738964 -0.28046724 -0.33410802 -0.77773464 -0.42991376 -0.15485145 0.31280258

t_conv2.bias f4 [16]
00000000: 0f7c 703d eb6e 013c e658 10bd d0dd a33c
00000010: 4071 3abb 5619 9e3d f7ce bc3d 9733 61be
00000020: 70ad 63be 0b3e 16bf 0117 0c3e dc6e c4bd
00000030: 51c8 403d cf30 ebbd ac93 2b3d fbef 6fbe
0.05871206 0.00789998 -0.03524103 0.02000323 -0.002844885 0.07719676 0.09219163 -0.21992336
-0.2223413 -0.5868842 0.1368065 -0.09591457 0.047066037 -0.11483919 0.041888878 -0.23431389

t_conv3.weight f4 [16, 32, 2]
00000000: 6dbe 5f3e 4baf 1a3e 71da ae3e 9baf 2c3e
00000010: 79a9 b2bd 4155 77be 413d a0bd b48e 5cbe
00000020: 42cc 08be 56b5 d3be e248 c43d d51a be3d
00000030: a66b 123d 40ad ac3c ea35 0d3e 17b9 4ebd
00000040: e4f4 723e 7031 063d 1560 bc3c 5a30 f53c
00000050: 7011 733e 4263 2f3e 8748 a43e 8196 893e
00000060: 001d 6c3d 1a96 883e 54ac cd3a 2677 a83e
00000070: 419a 34be 2f6a 8cbe ca2e 293e bccc f3bd
00000080: 8625 0e3b 6ee1 38bf 77af 80be 383a 27be
00000090: f217 753e d92f c73d b3b9 66be 75ee 13be
000000a0: 1729 39bf 3796 a7be a59d 363e 6c87 a3bd
000000b0: 9d0c dbba fec5 26bf 2766 91bd 460a 95bf
000000c0: d08a 5d3e 7bd7 7b3e 9824 eb3d b0fd e03d
000000d0: d5db 9e3d 9b26 043e 4675 b4be 70ea 7fbd
000000e0: 3669 90bd b924 883e c557 483e 281b 773d
000000f0: 3016 e53c f599 2f3e 8416 673e 675f 1bbd
00000100: 2951 533d cfdd 6a3e d24b 853d afd1 4ebc
00000110: 73df 47bd 563a 11bb f9b0 18bf b15c f3be
00000120: 8b9f ecbd c412 07be 9eb1 a5bd 4a54 d2ba
00000130: 48b8 ea3d 5e27 fe3d 26b2 893d c208 ce3d
00000140: 974f e63d 5239 333e 1984 503d 5d5d 7d3c
00000150: bc04 2d3e 778c 8f3d 0e68 6b3e 85c1 353e
00000160: ff95 233d 25d9 5b3e 3f32 00bd 4733 7a3e
00000170: 382d afbd d79b 8bbe 0b5a 873e 33b3 68be
00000180: e1cf e6bc ec01 a13f 3d7b 05be 4f50 123e
00000190: 0580 093e 91fb 7a3e 4ef2 b9be ca74 61be
000001a0: 8cd1 d53e 0d40 973e 0612 2e3e 172d c3bd
000001b0: fa67 b73d f3e9 d7be dfdd 60bd 96f0 50bf
000001c0: c9cd da3d 5dcb 3e3e cfb5 903e a233 013f
000001d0: f472 ec3d 3f3b 433e 7de6 373e 85e3 ac3d
000001e0: 28f6 7abd 1439 89be 74bb 9cbd f678 c3bd
000001f0: c812 513d 8b74 a5bd 3e7d 84be fc6d 4f3e
00000200: 9564 af3d 5ea5 0e3e 43a1 2c3e a6e7 fdbd
00000210: 09d5 fabc 9c59 933e 84b9 87bf e8cf 533e
00000220: 01eb dc3c d748 78be 6e55 33bd 8dd7 1dbe
00000230: 76f3 86bc 9aa9 3e3c bed3 0dbd 0754 93bc
00000240: da57 2c3e 0c88 2ebd fbf0 fb3d fe41 113e
00000250: abf9 163c ff9f 0c3e 5a78 bf3c 6f19 173e
00000260: 119d 493d b809 343e 4b20 18be 97b4 8e3e
00000270: 51cd 20be 43ed 86be f4b3 32bc f2e9 57be
00000280: d597 90be 70f2 28be 3867 1fbe 6de4 63be
00000290: 109e 8c3d de44 6d3e 5272 13bd f065 60bd
000002a0: dd76 99bf c5e5 f9be a874 ccbc 3281 48be
000002b0: 27db 8f3c 688a 003f 7cdf 4d3d c616 bb3d
000002c0: 4464 a53c ffba ba3d a384 813e e660 813e
000002d0: af1c c13d 465e f63d 1fca a0bd bc7c a13e
000002e0: e03e edbd 2f29 113e dce2 9c3e d05b 483c
000002f0: d6c7 c0bd 2de6 743e 0ed5 6b3a b3d0 0ebc
00000300: 1a8d 5e3d dd7a 6fbe 21a8 01bf 82e5 e23b
00000310: bc28 9c3d 9a49 fa3d 635c 963e 4b1a 723e
00000320: e610 23be 7155 333e 6382 a33d f8a1 8fbd
00000330: 18f6 1d3e d66b bdbe f64d 2ebe b799 043d
00000340: 6130 b2bd fac0 8f3d e912 f33d dbd4 4c3e
00000350: b64e 363e 0e98 51be 3cda 443e d2a8 6d3c
00000360: 28f7 c13d 0e5c 02bd 8cb3 7cbe 607f 60bc
00000370: c360 753e 254d 5b3e 74ed a0be 2bd6 1cbf
00000380: bba6 a0bf 5eb6 b1bd eb85 9d3e 3688 853d
00000390: 8735 193c 0012 923c dcd4 a03e 8650 983e
000003a0: 974a 10bb 3882 59bd 4fe1 f93e bae4 803c
000003b0: 71ec f4ba 6cb4 ac3e 918d 0dbe 7fc1 6ebd
000003c0: 4910 983d 9959 253e de07 d1bd aa0a febc
000003d0: a5e8 1bbc 3315 05be 34fc ccbd e2e9 273e
000003e0: e238 e7bd fdf2 5d3d f2ce 47be 100e 5dbd
000003f0: 5a3e aabd a864 f5be b5d0 50bf 6517 f8bd
0.21849985 0.15105931 0.34151033 0.16863863 -0.087237306 -0.24153616 -0.07824183 -0.21538812
-0.13359168 -0.41349286 0.09584214 0.092824616 0.035747193 0.021078706 0.13790098 -0.050469484
0.23726231 0.03276199 0.022995034 0.029930282 0.2373712 0.17127708 0.32086584 0.26872638
0.057644844 0.26677018 0.0015691617 0.32903403 -0.17636968 -0.27424762 0.16521755 -0.11904284
0.0021689846 -0.7221898 -0.2513387 -0.16330802 0.23934916 0.09725923 -0.22531776 -0.14446433
-0.72328323 -0.32731792 0.17833574 -0.07984814 -0.0016712133 -0.6514586 -0.07099562 -1.164376
0.21634984 0.24593918 0.11481589 0.10985887 0.077567734 0.12905352 -0.35245723 -0.062479436
-0.070513174 0.26590517 0.19564731 0.060328633 0.027964681 0.17148574 0.22567183 -0.03793278
0.051591072 0.22936176 0.06508602 -0.012623235 -0.048797082 -0.0022160015 -0.5964504 -0.47531655
-0.11553868 -0.13190752 -0.080905184 -0.0016046849 0.1146093 0.124098524 0.06723432 0.10060264
0.11245649 0.17502335 0.05090723 0.015464154 0.16896337 0.070092134 0.22988912 0.17749603
0.03993797 0.21469553 -0.03129792 0.24433623 -0.08553547 -0.27267334 0.26435885 -0.22724609
-0.028175296 1.2578712 -0.13035293 0.14288448 0.13427742 0.24510027 -0.36317676 -0.22017208
0.41761434 0.29541054 0.16999063 -0.095300846 0.08955379 -0.42170677 -0.054899093 -0.81617105
0.10683782 0.18632264 0.2826371 0.5046941 0.11545363 0.1906557 0.17959018 0.084418334
-0.06126991 -0.2680136 -0.07652941 -0.09544556 0.0510433 -0.080788694 -0.25876802 0.202568
0.085641064 0.1393027 0.16858391 -0.12397699 -0.030619161 0.28779304 -1.060349 0.20684779
0.026967527 -0.24246536 -0.043782644 -0.15414257 -0.016473513 0.011637116 -0.03462576 -0.017984403
0.16830388 -0.042610213 0.12301823 0.1418533 0.009214799 0.13732909 0.023372818 0.14755796
0.049222056 0.17581832 -0.14856069 0.27872154 -0.15703322 -0.2635289 -0.010907162 -0.21085337
-0.2824084 -0.16498733 -0.15566719 -0.22255106 0.068660855 0.23170802 -0.035997696 -0.054784715
-1.1989399 -0.48808113 -0.02495797 -0.19580534 0.017560555 0.5021119 0.05026196 0.09135203
0.020189412 0.09117698 0.25296506 0.2526924 0.09429299 0.120297 -0.078510515 0.31540477
-0.11584258 0.14175867 0.3064183 0.012228921 -0.09413116 0.2391593 0.0008996286 -0.00871675
0.054333784 -0.23386712 -0.5064717 0.006924332 0.07624957 0.1222107 0.2936736 0.23642842
-0.15924415 0.17513062 0.07983854 -0.07013315 0.15425909 -0.36996335 -0.17021927 0.032373156
-0.08700634 0.07019229 0.11868841 0.20003073 0.17803463 -0.2046816 0.19223875 0.014505582
0.094709694 -0.03182607 -0.24677867 -0.013702244 0.23962693 0.21416147 -0.31431162 -0.61264294
-1.2550882 -0.08677362 0.30766234 0.06520121 0.009351141 0.017830849 0.314124 0.29748935
-0.0022017115 -0.053102702 0.4880471 0.015734065 -0.0018686188 0.337314 -0.13823535 -0.05829
0.07424981 0.1614746 -0.10206579 -0.031010944 -0.009515916 -0.12996368 -0.100090414 0.16397813
-0.112901464 0.05418681 -0.19512537 -0.05396849 -0.08312674 -0.47928357 -0.8156846 -0.12113837

t_conv3.bias f4 [32]
00000000: ead7 293e ad31 a03d e7b0 a0bd 6840 52bd
00000010: b080 0fbe 1ded 083c eab9 103e 9fd4 943d
00000020: c5dd 0f3e e56d b13d 96aa 233e 3ae3 013e
00000030: acca 253e 4b89 283e 77cd 0fbd c1b6 abbc
00000040: 788b 8a3d 0eed c33d fcab 573e 4738 fc38
00000050: 5980 3b3e abdb 09bf c98e bebe dc67 5dbe
00000060: 3635 073e 9294 113c 4670 953c b31c 333d
00000070: 31b0 b6be c9cb 8dbe d60c a7be c9f3 4b3d
0.16586271 0.07821975 -0.078462414 -0.051330954 -0.14013934 0.008357313 0.1413342 0.07267117
0.14049442 0.08663539 0.15983042 0.12684336 0.16190594 0.16458623 -0.035108056 -0.020961167
0.06764883 0.09566699 0.210617 0.00012026779 0.1831068 -0.5385081 -0.3721831 -0.2162165
0.13203892 0.00888552 0.018242013 0.04372854 -0.35681298 -0.27694538 -0.3262698 0.04979304

conv_out.weight f4 [1, 32, 3]
00000000: 4fe8 f2bd 6dfa e5bd 3e22 9fbd e183 48be
00000010: 4b69 60bd 7a86 be3d aef5 6d3e 6c5c fb3d
00000020: 5411 683c dcd1 81bd b089 1abf 3c03 16bf
00000030: 2172 0fbf 21c6 21bf 7c13 f0be 4d04 10bd
00000040: 66be 5d3c 97a9 7fbd 10c0 683c e30d 06be
00000050: 9cbf c6bd 88be 68bd 92e5 9e3d 7339 1cbe
00000060: bcf2 27be 4e1e 143c 0b82 1cbe b45d 19be
00000070: 1fc7 4d3d 6e16 e1bd ba26 17bd 44a0 1fbe
00000080: 08ea 42be 561b 6ebe a542 35be 5b8e 29be
00000090: e160 44be b333 2fbe 69dc 70bd 26b9 8bbe
000000a0: d002 a1bd 16e1 7f3b 1a82 403e bc38 483d
000000b0: 6e59 5e3e cacc 6a3e fdc1 16be 359c 86be
000000c0: fdbd 883e 5ec4 4b3d 91a8 afbe 30df 4e3e
000000d0: 1c77 0a3e 9655 983e 1e1d 4dbe 3b84 dfbd
000000e0: 9586 50be 6ca3 e43d 4bfd 003e 71e3 393e
000000f0: 15f9 2b3e a5e1 953d 902b b1be e459 d33e
00000100: 526f 7e3f a83d 643f 47bd a1bf 6b09 d4bf
00000110: 768c d1bd 1e34 0d3e 7ea5 393e db6b 9b3e
00000120: fb5d 32be 29dd 8bbc f5da 06be f47c efbe
00000130: 62e3 52be c95f e9bd 4619 cabd 0eed 833d
00000140: 684b 09be 8c9b 8fbe f4f1 a53e 55b1 f3bc
00000150: 169b e73e 1368 043f 3ba5 a73e 0b5d 383e
00000160: f7f5 d53d 6e49 0c3f dc65 8c3f 12f1 873f
00000170: 1744 4a3f 6407 5dbe ab79 2fba 70c5 4f3e
-0.118607156 -0.112294056 -0.07770203 -0.19581558 -0.054787915 0.09302993 0.2323825 0.122734874
0.014164288 -0.063388556 -0.60366344 -0.58598685 -0.5603352 -0.63192946 -0.46889865 -0.03516035
0.013534164 -0.062417593 0.0142059475 -0.13091235 -0.09704515 -0.05682233 0.07758631 -0.1525629
-0.1640119 0.009040428 -0.15283982 -0.14977151 0.050238725 -0.10990606 -0.036902167 -0.1558848
-0.19034588 -0.23252615 -0.17701204 -0.1655821 -0.19177581 -0.17109565 -0.05880395 -0.27289695
-0.078618646 0.0039044074 0.1879963 0.04888223 0.21713802 0.22929683 -0.14722438 -0.26291052
0.2670745 0.049747817 -0.34308293 0.20202327 0.13521999 0.29752797 -0.20030639 -0.10913893
-0.20363839 0.11163983 0.12596624 0.18153168 0.16794236 0.07318429 -0.34603548 0.4127952
0.9938861 0.8915658 -1.2635888 -1.6565374 -0.10231869 0.13789412 0.18129537 0.30355725
-0.17418663 -0.01707323 -0.13169463 -0.4677502 -0.20594552 -0.11395223 -0.09868102 0.06441699
-0.13407671 -0.2804836 0.32411158 -0.029747644 0.4523551 0.51721305 0.32743248 0.18004243
0.10447305 0.54799545 1.0968585 1.0620444 0.79010147 -0.2158485 -0.000669385 0.2029016
