dAE_PyTorch/checkpoints/spectra_dae_epoch_8.pth (torch, 18875 bytes, 13 tensors)

conv1.weight f4 [32, 1, 3]
0	0x3f1f5e80	0.6225357
1	0x3f0ae2a3	0.5425207
2	0xbe0beee2	-0.13665345
3	0xbdf97b0d	-0.12181673
4	0xbe2f43e1	-0.17115737
5	0x3f00787e	0.50183856
6	0xbf2400a3	-0.6406347
7	0x3f1fbbb0	0.62395763
8	0x3c4afb11	0.01238896
9	0xbcea0e8b	-0.028571388
10	0xbd25cadc	-0.040476665
11	0x3f497cd2	0.78706086
12	0x3f06a0ed	0.52589303
13	0xbe036112	-0.12829998
14	0xbe3760ff	-0.17908095
15	0x3c570816	0.013124486
16	0xbf345627	-0.7044396
17	0x3ee87043	0.4539815
18	0xbf0e6b9e	-0.5563296
19	0xbf1886ef	-0.5958089
20	0x3e9a24cc	0.301062
21	0x3f325974	0.69667745
22	0x3e28f84d	0.16500969
23	0xbf153893	-0.5828945
24	0xbc91c32c	-0.01779326
25	0xbf7d875b	-0.9903466
26	0x3b17e358	0.002317628
27	0x3ce3e623	0.027819699
28	0x3ec65399	0.38735655
29	0x3f002423	0.5005514
30	0xbef259a7	-0.47334024
31	0x3e9f3bdc	0.31100357
32	0xbf17076a	-0.5899569
33	0xbf1b031e	-0.6055163
34	0xbc93461c	-0.017977767
35	0x3f195a43	0.59903353
36	0x3e6d9239	0.23200311
37	0x3df657d3	0.1202847
38	0x3ed1d4f3	0.4098278
39	0x3f04c95a	0.5186974
40	0xbecd5f84	-0.40111935
41	0xbf34e75e	-0.7066554
42	0x3f17009a	0.5898529
43	0xbd8d03fb	-0.06885525
44	0x3e82be39	0.25535753
45	0xbe46168a	-0.19344535
46	0x3f32c1d8	0.6982703
47	0xbebee073	-0.37280616
48	0xb96dde13	-0.0002268481
49	0xbf955e29	-1.166936
50	0xb9b2f658	-0.00034134346
51	0x3e94f5cf	0.29093787
52	0x3e7aebbf	0.24503992
53	0x3e8f1eee	0.27953285
54	0xbf733bb3	-0.9501297
55	0x3db18378	0.08667654
56	0x3d826759	0.06367368
57	0x3eb2b901	0.34906772
58	0x3e666015	0.2249759
59	0x3ea2eaca	0.31819755
60	0x3e06e198	0.13171995
61	0x3e78f878	0.24313533
62	0xbdf9c854	-0.12196413
63	0xbf5ce6b6	-0.86289537
64	0x3ceb7a35	0.028744796
65	0x3c175a65	0.00923786
66	0x3f469315	0.7756818
67	0xbeaa1868	-0.33221745
68	0xbe00505b	-0.12530653
69	0xbef73755	-0.48284402
70	0xbf251922	-0.64491475
71	0xbf20f44a	-0.62872756
72	0xbf02d70b	-0.5110938
73	0xbf2aa214	-0.6665356
74	0x3d5eeb34	0.054423526
75	0xbed5737c	-0.4168967
76	0xbed5797a	-0.41694242
77	0xbf0e8fa8	-0.5568795
78	0xbeb8c3c0	-0.36086845
79	0xbefbcf89	-0.49181774
80	0xbebe0ac9	-0.37117603
81	0x3e2c1235	0.1680382
82	0x3eaaf5f0	0.3339076
83	0xbfbb8419	-1.4649688
84	0xbe838823	-0.25689802
85	0xbe9ec37d	-0.3100852
86	0xbf38f611	-0.7225047
87	0xbd6be19c	-0.057588205
88	0x3e650544	0.2236529
89	0xbf5a4081	-0.85254675
90	0xbcc83ced	-0.024443114
91	0x3f505dce	0.81393135
92	0xbd10b476	-0.03532835
93	0xbfa7671a	-1.3078339
94	0x3e6cf917	0.23141895
95	0x3de67fad	0.11254821

conv1.bias f4 [32]
0	0xbe5c7d5a	-0.21532193
1	0xbd8fefbd	-0.07028148
2	0xbd14ce0e	-0.03632932
3	0xbf32c714	-0.6983502
4	0xbe8da760	-0.2766676
5	0xba314a37	-0.0006763073
6	0x3e70fe1a	0.23534432
7	0xbe728312	-0.23682812
8	0x3e56ae4f	0.20964931
9	0xbeaa4f12	-0.3326345
10	0x3eae19c3	0.3400403
11	0xbdae2d71	-0.08504761
12	0xbedc7cf3	-0.4306408
13	0x3e100892	0.1406577
14	0xbe73b590	-0.2379973
15	0xbeda6595	-0.42655626
16	0x3db4437a	0.08801933
17	0xbe7c01da	-0.24610081
18	0x3ea2b2e7	0.31777117
19	0xbf25ca87	-0.6476216
20	0xbe21e2f1	-0.15809228
21	0x3e827d94	0.25486434
22	0xbeb9c2f5	-0.36281553
23	0xbd79db58	-0.061000198
24	0x3f24eae4	0.64420915
25	0xbd03157e	-0.03200292
26	0x3ee11b1e	0.43966
27	0xbdfedab4	-0.12444058
28	0xbea7b4d5	-0.3275515
29	0x3e766d34	0.24065095
30	0xbf3bb5bd	-0.73324186
31	0xbd9d707b	-0.076874696

conv2.weight f4 [16, 32, 3]
0	0xbd06cb1c	-0.032908544
1	0x3dd28210	0.10278714
2	0x3cb7771a	0.02239566
3	0x3d64838f	0.055789527
4	0xbe1b9cef	-0.15196584
5	0x3e7f73c1	0.249465
6	0x3e850e32	0.25987393
7	0x3e020a14	0.12699157
8	0x3d5982c5	0.053103227
9	0x3f1698dc	0.58826995
10	0x3f9d3730	1.2282467
11	0x4022df25	2.5448697
12	0xbcdbe304	-0.026841648
13	0xbcd4e1b1	-0.025986524
14	0x3d2c59d0	0.04207784
15	0xbece2bfd	-0.40267935
16	0xbe1f3c0b	-0.15550248
17	0xbe2ee2b0	-0.17078662
18	0xbe704533	-0.23463897
19	0xbe6732d5	-0.22577985
20	0xbe727ecd	-0.23681183
21	0xbe2bc29a	-0.16773453
22	0x3e11401e	0.14184615
23	0xbe7b9299	-0.24567641
24	0xbe0c42ad	-0.1369731
25	0xbd2aa973	-0.041665506
26	0xbe70e2bb	-0.23523991
27	0x3d2b1e52	0.041776963
28	0x3d4742fc	0.048647866
29	0x3ed2d235	0.41176
30	0x3d9b489a	0.07582207
31	0x3dc87196	0.0978729
32	0xbf2d1b65	-0.67619926
33	0x3e805996	0.2506835
34	0x3edd037b	0.43166718
35	0x3de5c682	0.11219503
36	0xbc0bf727	-0.008542812
37	0x3e80c5f4	0.25151026
38	0x3f237851	0.63855463
39	0xbde1b040	-0.11019945
40	0x3e756118	0.2396282
41	0xbf04d122	-0.5188161
42	0xbdfc89c4	-0.12330964
43	0x3d43b099	0.04777584
44	0x3e7d7d98	0.24754941
45	0x3e21f9a6	0.1581789
46	0x3dbcbf66	0.09216194
47	0x3d42a31f	0.047518846
48	0xbe95842a	-0.29202396
49	0xbeaa98e9	-0.33319786
50	0xbe7c179d	-0.24618383
51	0xbe15ba02	-0.14621738
52	0x3daf7f8a	0.08569248
53	0x3e4bec0e	0.19914266
54	0x3e5bc4d1	0.21461798
55	0x3dc8efac	0.09811339
56	0xbe1f0711	-0.1553004
57	0xbe7b2e35	-0.24529345
58	0x3f150926	0.58217084
59	0x3ea9853e	0.33109468
60	0xbe56d531	-0.20979764
61	0x3e82ab0b	0.2552112
62	0xbb59e046	-0.003324525
63	0xbdfdfe72	-0.12402047
64	0xbe19d275	-0.15021689
65	0x3e30bb11	0.1725886
66	0xbead7d2e	-0.33884567
67	0xbd953176	-0.072848246
68	0xbe0164a2	-0.12636045
69	0xbdca2d43	-0.09871914
70	0xbdcd501f	-0.100250475
71	0xbe501040	-0.20318699
72	0xbd3114b0	-0.04323262
73	0xbd7d4cbd	-0.06184076
74	0xbe99c5af	-0.30033633
75	0xbdd9f7d9	-0.10642976
76	0xbe6372cc	-0.2221176
77	0xbe71fae1	-0.23630859
78	0x3e35f00f	0.17767356
79	0xbeda3a91	-0.42622808
80	0xbe23b8d4	-0.15988475
81	0xbe520f45	-0.20513637
82	0x3d572818	0.05252847
83	0xbe94af81	-0.2904015
84	0xbc8abb31	-0.016934963
85	0xbca758c6	-0.020428073
86	0xbe9b267a	-0.30302793
87	0x3be4d60b	0.0069835237
88	0x3e820eda	0.25401956
89	0xbfb8f138	-1.4448614
90	0x3f3ac7a1	0.7296086
91	0x3efdf1d5	0.49598566
92	0x3fc8d6b3	1.5690521
93	0xbefca6dd	-0.49346057
94	0xbe826825	-0.2547008
95	0xbdc01c77	-0.09380429
96	0xbc1f637c	-0.009728309
97	0x3d0eff53	0.034911465
98	0x3de8cd85	0.11367325
99	0xbe86d7d6	-0.26336545
100	0xbd73d618	-0.059530348
101	0x3ea19b41	0.31563762
102	0xbe58948a	-0.21150413
103	0x3e308a28	0.17240202
104	0x3cd54f8f	0.026038913
105	0x3ebc74a7	0.3680775
106	0xbe445b00	-0.19175339
107	0x3f72cac9	0.94840676
108	0x3ddf124b	0.10892161
109	0x3bafe48a	0.00536782
110	0xbe501f3d	-0.20324416
111	0xbcdfddd6	-0.02732746
112	0x3e4bbb57	0.19895683
113	0x3ddc9695	0.10770909
114	0x3e4da180	0.20081139
115	0xbd668808	-0.056282073
116	0x3e08f102	0.13373187
117	0x3e3cd38b	0.18440072
118	0xbe0b611e	-0.13611266
119	0xbf114175	-0.56740505
120	0x3e6ae689	0.22939505
121	0x3ea295c6	0.31754893
122	0x3dab6cb1	0.083703406
123	0xbd3bffb9	-0.045898173
124	0xbd4fa2f6	-0.05069252
125	0x3eb15db8	0.34641814
126	0xbdf81b1e	-0.12114547
127	0x3e54dde5	0.20787771
128	0xbecc8bb7	-0.39950344
129	0xbe98c705	-0.2983934
130	0x3ee4f832	0.44720608
131	0x3e242c81	0.16032602
132	0xbdcd3005	-0.100189246
133	0xbe1221e8	-0.14270747
134	0x3e7cbbdd	0.24681039
135	0xbb480ff4	-0.0030527087
136	0x3f27b082	0.65503705
137	0xbf616742	-0.88048184
138	0x3d52ee4e	0.051496796
139	0x3ced8b98	0.028997228
140	0x3e1248f8	0.14285648
141	0x3e3b9ff5	0.18322738
142	0x3d19a36c	0.037509367
143	0xbdee00ff	-0.11621284
144	0xbe2ffa85	-0.1718541
145	0xbe46015f	-0.1933646
146	0xbe90a099	-0.28247526
147	0xbcd4c77d	-0.02597403
148	0x3d03d724	0.032187596
149	0x3e66515c	0.22491974
150	0xbde5864e	-0.11207257
151	0x3e0a8e5d	0.1353087
152	0x3e3ef189	0.18646826
153	0xbf1a93ef	-0.6038198
154	0xbf0ea84c	-0.5572555
155	0xbe5e686b	-0.2171952
156	0x3e72bb54	0.23704273
157	0xbead56eb	-0.33855376
158	0xbe61595b	-0.22006743
159	0x3ed23cbc	0.41061962
160	0x3e012de2	0.12615159
161	0x3cefb108	0.02925922
162	0x3e82cd08	0.2554705
163	0xbd8032d2	-0.06259693
164	0xbf1714d5	-0.5901616
165	0xbdbd3d37	-0.092401914
166	0xbe15d2d1	-0.14631201
167	0xbe0c5600	-0.13704681
168	0xbe456ff0	-0.19280982
169	0xbd5b2c0c	-0.053508803
170	0xbe2c41b0	-0.16821933
171	0xbde5dfb3	-0.11224308
172	0xbdeeb4ae	-0.11655556
173	0xbe25641e	-0.16151473
174	0x3f0e2c3e	0.5553626
175	0x3d45b1c4	0.048265234
176	0xbe93f735	-0.28899541
177	0x3cf56d35	0.0299593
178	0xbde975dd	-0.11399434
179	0xbe671c88	-0.22569478
180	0x3c2760a5	0.010215913
181	0xbd1f915a	-0.038956977
182	0xbe5acdcb	-0.21367566
183	0x3cade3e8	0.021226838
184	0x3ed6d8e7	0.41962358
185	0xbf6f73c4	-0.9353602
186	0x3f24bc4e	0.6434983
187	0xbde88899	-0.11354179
188	0xbdd3c8dd	-0.10341046
189	0xbe9df7a8	-0.3085301
190	0x3e92f8a6	0.2870533
191	0x3e9248d9	0.28571203
192	0xbde61f26	-0.1123641
193	0x3dbe04db	0.0927827
194	0xbda17c46	-0.078850314
195	0xbeaa23b9	-0.3323038
196	0xbe3fa457	-0.18715034
197	0x3e685ea8	0.22692358
198	0xbe236d98	-0.15959775
199	0xbdc8d730	-0.09806669
200	0x3cb7f776	0.022456866
201	0xbec9e30d	-0.39431038
202	0xbef319d4	-0.47480643
203	0x3e41a48e	0.18910429
204	0xbe83c11b	-0.25733265
205	0xbe4f3ba7	-0.202376
206	0x3e9f6c32	0.31137234
207	0xbf14fc1d	-0.58197194
208	0xbed81915	-0.42206636
209	0x3e1ea4c1	0.15492536
210	0xbd30b8f7	-0.043145146
211	0xbcee83ea	-0.029115636
212	0xbf2dc3c1	-0.6787682
213	0x3d4f1193	0.05055387
214	0xbe7910be	-0.24322793
215	0x3e892e11	0.26792958
216	0xbe95d895	-0.292668
217	0xbe548b6d	-0.20756312
218	0xbe22debf	-0.15905283
219	0xbdac9dc1	-0.08428527
220	0x3e139be1	0.14414932
221	0x3dd17dbb	0.10229059
222	0x3e5ea079	0.21740903
223	0x3e905b9e	0.28194898
224	0xbf2da53a	-0.6783024
225	0x3e5caa22	0.21549276
226	0xbe753109	-0.23944487
227	0xbdba49d6	-0.09096114
228	0xbd5861a4	-0.052827492
229	0x3d9f1084	0.07766822
230	0x3e385710	0.18001962
231	0xbe493cb9	-0.1965207
232	0x3fc110c9	1.5083247
233	0xbedb6896	-0.4285323
234	0xbcead04b	-0.028663775
235	0x39dec0d9	0.00042486822
236	0x3e14671b	0.14492457
237	0xbdad536e	-0.084631786
238	0xbe27f06e	-0.1640031
239	0x3ee2da35	0.44307104
240	0x3ff8cfd7	1.9438428
241	0x3e7259cf	0.23667072
242	0x3f0c53fd	0.54815656
243	0x3c667494	0.01406588
244	0x3e320f5f	0.17388676
245	0xbcad212a	-0.021133978
246	0x3d90ca2e	0.07069813
247	0x3d221ead	0.039580036
248	0xbf58640b	-0.84527653
249	0xbdc9d701	-0.09855462
250	0xbe06b889	-0.13156332
251	0x3ea6cdd0	0.32578897
252	0xbdc7c361	-0.097540624
253	0xbe1da8f7	-0.15396486
254	0x3e36ede5	0.17864187
255	0x3dad8df2	0.084743395

conv2.bias f4 [16]
0	0xbdf32265	-0.118717946
1	0xbd6d5dc3	-0.057950746
2	0x3d567985	0.052361984
3	0xbd72224e	-0.059114747
4	0x3dd2cc3d	0.102928616
5	0xbd6c86f0	-0.057745874
6	0xbdf990cd	-0.12185822
7	0xbd63e095	-0.0556341
8	0x3e2fa8a0	0.17154169
9	0x3c84c5fc	0.016207688
10	0x3d2d3cc1	0.042294268
11	0x3ca5575a	0.020183254
12	0x3d65323a	0.055956103
13	0xbeceba20	-0.40376377
14	0xbd6887d7	-0.056770172
15	0x3e64546b	0.22297828

conv3.weight f4 [8, 16, 3]
0	0xbe366a68	-0.17814028
1	0xbd05d027	-0.032669213
2	0xbeb6d21a	-0.3570717
3	0xbd980ff9	-0.074249215
4	0x3e3a00ab	0.18164317
5	0xbea6889f	-0.3252611
6	0x3f6390e4	0.8889296
7	0x3dedffde	0.116210684
8	0x3f9a3826	1.2048385
9	0x3e33ae63	0.17546992
10	0xbe1d8e49	-0.15386309
11	0xbd81ede8	-0.06344205
12	0x3d02b686	0.03191235
13	0xbdb30fc4	-0.087432414
14	0x3ea6f803	0.32611093
15	0x3e77a69d	0.24184652
16	0xbe23fdb6	-0.16014752
17	0xbe1e6647	-0.15468703
18	0xbe84e913	-0.25959072
19	0xbdc648e4	-0.096818715
20	0xbeebae37	-0.46031353
21	0x3eaaef3c	0.33385646
22	0xbd966dca	-0.07345159
23	0x3ea71c72	0.3263889
24	0x3e234877	0.15945612
25	0x3e1ee0af	0.15515397
26	0x3e23cc8c	0.15995997
27	0x3e021367	0.12702714
28	0x3e37de0c	0.17955798
29	0xbd84f214	-0.06491485
30	0x3eb1625f	0.34645364
31	0x3debe3a0	0.115180254
32	0x3eef8496	0.46780843
33	0xbf9e0309	-1.2344676
34	0xbe39b54d	-0.18135567
35	0xbe9e42a4	-0.30910218
36	0x3e67b4e2	0.22627595
37	0x3dfa9048	0.12234551
38	0x3ce04d87	0.027380718
39	0x3d953d72	0.072871104
40	0xbf168b6a	-0.5880648
41	0xbeed81ec	-0.46388185
42	0x3e7cba9e	0.24680564
43	0xbdcaf672	-0.09910287
44	0xbe47f170	-0.19525695
45	0x3dfc55c5	0.12321047
46	0x3dbad3da	0.09122439
47	0x3f165dd8	0.58736944
48	0x3d452ab8	0.048136443
49	0xbdb01cb7	-0.08599227
50	0x3e9d1059	0.30676535
51	0x3e2a1d4f	0.16612743
52	0xbd0f4971	-0.03498215
53	0x3e18a45d	0.1490645
54	0x3ecca627	0.39970514
55	0xbe5bdb7a	-0.21470442
56	0x3ddfdc11	0.10930646
57	0xbe0b88cb	-0.13626401
58	0x3d34b991	0.044122282
59	0xbdd18f65	-0.102324285
60	0x3d121255	0.035662014
61	0x3d2a233e	0.041537516
62	0xbe057412	-0.13032559
63	0xbe48be9f	-0.19603966
64	0x3dbd8877	0.09254544
65	0xbce427de	-0.027851041
66	0x3e12a205	0.14319618
67	0x3e4872d2	0.1957505
68	0x3dbf6765	0.09345893
69	0x3b08a3ae	0.0020849514
70	0xbd6763f5	-0.05649181
71	0xbdbbd9ec	-0.09172425
72	0xbe749108	-0.2388345
73	0xbc9f6926	-0.019459318
74	0xbe6689d3	-0.22513513
75	0x3e90b8be	0.28265947
76	0x3e3dc984	0.18533903
77	0x3dd31ef9	0.10308642
78	0xbcd90897	-0.026493354
79	0xbe4ac7d8	-0.19802797
80	0x3da16c0e	0.07881938
81	0x3fc869f2	1.5657332
82	0x3eb0f766	0.3456375
83	0x3f870716	1.0549037
84	0x3e7ffdae	0.24999115
85	0x3e8c2e7c	0.27379215
86	0x3eb3d6d4	0.35124838
87	0xbb812fda	-0.003942472
88	0x3f104ae2	0.5636426
89	0x3f04f19e	0.5193118
90	0x3dc41a66	0.095753476
91	0x3e1dc24e	0.15406153
92	0xbb316935	-0.0027070765
93	0xbdddb478	-0.10825437
94	0x3d5fca96	0.05463656
95	0xbda72ca2	-0.0816281
96	0x3eaa1b4d	0.33223954
97	0x3e94032b	0.28908667
98	0xbda66414	-0.08124557
99	0xbe49344c	-0.19648856
100	0x3e2b4d5e	0.16728732
101	0x3e9b16a7	0.3029072
102	0x3ef32979	0.4749258
103	0xbf9761a7	-1.1826676
104	0x3fe54988	1.7913065
105	0x3e258742	0.16164878
106	0xbde48548	-0.11158234
107	0x3c98068c	0.01855781
108	0xbd1a45a4	-0.03766407
109	0xbe0e523d	-0.13898559
110	0x3d4e3c09	0.050350223
111	0x3efb0eb2	0.4903465
112	0xbe5be25e	-0.21473071
113	0x3e5b58de	0.21420619
114	0xbed3f83d	-0.41400328
115	0x3e1fcaea	0.1560475
116	0xbd8579e4	-0.065173894
117	0x3e01d760	0.12679815
118	0x3da5aa98	0.08089179
119	0xbea17c08	-0.3153994
120	0x3ec1a7cc	0.3782333
121	0x3bd80bb4	0.006593192
122	0x3e3df6fe	0.18551251
123	0xbca73fc6	-0.020416152
124	0x3e1b68a6	0.15176639
125	0x3e9f4be4	0.31112587
126	0x3f00722d	0.5017422
127	0x3de48d5d	0.111597754
128	0x3e963615	0.29338136
129	0xbf9ab27d	-1.208572
130	0x3df5e886	0.12007241
131	0xbf570507	-0.83992046
132	0xbd5058c3	-0.0508659
133	0xbd944524	-0.0723975
134	0xbe828ed8	-0.25499606
135	0xbe7809f6	-0.2422255
136	0xbecc0937	-0.3985078
137	0xbe80246e	-0.25027794
138	0xbe8b08e8	-0.27155232
139	0x3d60d8ff	0.054894444
140	0x3e169096	0.14703593
141	0x3e8b74e7	0.27237627
142	0xbdb12ef1	-0.086515315
143	0x3db6e123	0.0892966
144	0x3c9b6323	0.01896817
145	0xbdaef2c7	-0.085424
146	0xbeeb92ce	-0.4601044
147	0x3e17ba77	0.14817224
148	0x3d95cb36	0.0731415
149	0x3e59446d	0.21217509
150	0xbee3e5dd	-0.4451131
151	0x3f124ea2	0.57151234
152	0x3fb681c1	1.4258348
153	0xbdc3b62a	-0.095562294
154	0xbcbb7c22	-0.02288634
155	0x3e6e4bf5	0.23271163
156	0xbd783df8	-0.060605973
157	0xbd606608	-0.054784805
158	0x3e7bd22b	0.24591891
159	0xbdcb4a43	-0.09926274
160	0xbdaa6bd4	-0.08321348
161	0x3ebef099	0.37292936
162	0x3e237051	0.15960814
163	0x3d0578ac	0.032585785
164	0xbe1d22e2	-0.15345338
165	0x3cfab4ad	0.030603731
166	0x3d9b8298	0.07593268
167	0xbeaed4e6	-0.34146804
168	0xbddc2611	-0.10749448
169	0x3e1a1326	0.15046367
170	0x3db5bed7	0.088742904
171	0x3db72ff8	0.08944696
172	0xbd5b8e7b	-0.053602677
173	0x3f0ec098	0.55762625
174	0x3e5d7f05	0.21630485
175	0x3ced5b1e	0.028974112
176	0x3f605f08	0.87645006
177	0xbf08ab59	-0.53386456
178	0xbf348ecc	-0.7053039
179	0xbfb13de2	-1.384701
180	0xbc715ab7	-0.014731101
181	0xbdfac8e0	-0.12245345
182	0xbdba5391	-0.0909797
183	0xbc7a55ed	-0.015279275
184	0xbf3c61b5	-0.7358659
185	0xbda61eb7	-0.08111327
186	0x3e8e2e0f	0.27769515
187	0xbd461f6b	-0.048369806
188	0x3e3f6227	0.18689786
189	0xbe6b1d95	-0.22960503
190	0x3d2ca320	0.042147756
191	0x3e5aba30	0.21360087
192	0xbdd6a99e	-0.10481571
193	0x3d235c3e	0.03988289
194	0xbe035c26	-0.1282812
195	0x3e82e39a	0.2556427
196	0x3d2bac98	0.041912645
197	0xbc8a5168	-0.01688452
198	0x3f8fef95	1.124499
199	0x3e8a9052	0.27063233
200	0x3e6a43d4	0.22877437
201	0xbedcecd4	-0.43149436
202	0xbcc93266	-0.024560165
203	0x3d3e91fb	0.046525937
204	0x3ea34439	0.31887987
205	0xbe56fe74	-0.20995504
206	0x3c925fcb	0.017867943
207	0xbad99f7c	-0.0016603316
208	0x3defcde2	0.11709191
209	0x3e0532b4	0.13007623
210	0x3ed0c660	0.40776348
211	0x3dfd5808	0.12370306
212	0x3e0a8f94	0.13531333
213	0xbf0a66cf	-0.54063123
214	0xbe680d2d	-0.22661276
215	0x3d8b6d37	0.068079405
216	0xbe1471d2	-0.14496544
217	0xbcb40a28	-0.0219775
218	0xbea335bd	-0.31876937
219	0x3d9234db	0.07138988
220	0x3dc8bdde	0.09801839
221	0x3cc3a810	0.02388385
222	0x3f391263	0.7229368
223	0xbe7c81ed	-0.24658938
224	0x3e0c1c62	0.13682702
225	0x3fa9b8ba	1.3259499
226	0x3ebf0085	0.37305084
227	0x3f9cc27b	1.2246851
228	0x3e9d0ddc	0.30674636
229	0x3dedabc7	0.116050296
230	0x3da5be1c	0.08092901
231	0x3f435252	0.76297486
232	0x3e448825	0.1919256
233	0xbd243a54	-0.04009469
234	0x3eef1530	0.46695852
235	0x3c6286db	0.013826097
236	0x3dc85dbb	0.09783503
237	0xbeae5354	-0.3404795
238	0xbe59e15e	-0.21277377
239	0xbde9ad23	-0.11409976
240	0x3d68c5df	0.05682933
241	0x3ea3463f	0.3188953
242	0xbe8c1d45	-0.2736608
243	0xbddf936a	-0.10916789
244	0x3c92f5ed	0.017939532
245	0xbe898e47	-0.26866361
246	0x3f700052	0.9375049
247	0x3ec601e9	0.38673332
248	0x3e97980f	0.296082
249	0x3ead5ef1	0.33861497
250	0x3e455849	0.1927196
251	0x3e7af179	0.24506177
252	0xbd2438b5	-0.040093143
253	0x3d685792	0.05672414
254	0x3f17a073	0.592292
255	0x3e9758a7	0.29559824

conv3.bias f4 [8]
0	0x3e6df24c	0.2323696
1	0x3e89c9b8	0.26911712
2	0x3b6f6d83	0.003653378
3	0xbc3b955b	-0.011449183
4	0xbd9a22db	-0.075261794
5	0xbe051ed4	-0.13000041
6	0xbe5ccb96	-0.21562037
7	0x3e3c6007	0.18396007

t_conv1.weight f4 [8, 8, 3]
0	0xbf7ccc88	-0.9874959
1	0xbed401e7	-0.414077
2	0x3ec5b7f4	0.38616908
3	0xbe983747	-0.29729673
4	0xbd416f9a	-0.047225572
5	0xbdd0a769	-0.10188181
6	0xbe23a1bf	-0.1597967
7	0xbec1c533	-0.37845764
8	0xbe49f681	-0.1972294
9	0xbfb96a90	-1.4485645
10	0x3e9da212	0.30787712
11	0x3e9c576c	0.30535448
12	0x3edbb60a	0.42912322
13	0x3e76f572	0.24117067
14	0x3d91c831	0.071182616
15	0x3d2f2861	0.042763118
16	0x3a1c9f7e	0.0005974694
17	0xc07f5546	-3.9895797
18	0x3dac863d	0.084240414
19	0x3e9701cb	0.29493555
20	0x3e84c3ef	0.25930735
21	0xbcb5fb14	-0.02221445
22	0x3efc1308	0.4923327
23	0x3e72abb2	0.23698309
24	0xbdc69cec	-0.09697899
25	0x3d9eca68	0.0775345
26	0x3e9ea57a	0.30985624
27	0xbe5aba92	-0.21360233
28	0xbd3d570d	-0.046225596
29	0xbeca3061	-0.39490035
30	0x3e861d09	0.26194027
31	0x3e80a929	0.2512906
32	0x3e698995	0.2280639
33	0xbcd871e0	-0.026421487
34	0xbe936991	-0.28791478
35	0xbe8ff48d	-0.28116265
36	0xbea76dad	-0.32700863
37	0xbf0a1896	-0.53943765
38	0x3cce1399	0.02515583
39	0x3e8414fe	0.25797266
40	0xbd309971	-0.043115083
41	0xc01069d6	-2.2564597
42	0xbe7a8727	-0.24465619
43	0xbf23f95e	-0.6405238
44	0xbd9525ea	-0.07282622
45	0x3ed48c91	0.41513494
46	0xbcd4a50d	-0.025957609
47	0xbef514f4	-0.47867548
48	0xbf86f0f5	-1.0542284
49	0x3e2dd023	0.16973929
50	0x3f09e167	0.5385956
51	0x3e3b20fe	0.18274304
52	0x3dbf2aa7	0.09334307
53	0x3e6c30bc	0.23065466
54	0x3d9a04e4	0.07520464
55	0xbe980636	-0.2969224
56	0xbc072a1b	-0.008249785
57	0x3ef431d2	0.4769426
58	0x3c4d7f33	0.012542534
59	0x3f1b6bbe	0.60711277
60	0x3e2c4dd2	0.16826561
61	0x3e043706	0.12911615
62	0xbdbfc25b	-0.09363242
63	0x3fb5220f	1.4151019
64	0xbe85a0b9	-0.26099184
65	0xc05bdf87	-3.435518
66	0x3e682026	0.22668514
67	0x3e3e4a72	0.18583086
68	0x3d3a64b4	0.045506194
69	0x3ee08393	0.43850383
70	0xbf2176a3	-0.6307165
71	0x3f18e5a4	0.59725404
72	0xbf0ca1a9	-0.54934174
73	0xbe097e5f	-0.13427113
74	0x3d9b4606	0.07581715
75	0x3f10a970	0.5650854
76	0x3e479bdc	0.1949305
77	0xbdffbafc	-0.12486836
78	0xbce66622	-0.028124873
79	0x3dc8342c	0.09775576
80	0x3caf5fd5	0.021408001
81	0xbeea38d7	-0.4574649
82	0x3e8a460e	0.27006572
83	0x3c5ba8b6	0.013406923
84	0x3ef75024	0.4830333
85	0xbd138df0	-0.036024034
86	0x3d8345ed	0.06409822
87	0x3f471aab	0.7777507
88	0x3e4eadcd	0.20183487
89	0xc053193e	-3.2984157
90	0x3e4f02ae	0.20215866
91	0x3d08c949	0.033395085
92	0x3e11ac46	0.14225873
93	0x3d2ec4a7	0.04266801
94	0x3e4433dc	0.19160408
95	0xbe91623c	-0.2839526
96	0xbe81a963	-0.25324544
97	0x3ec76cb5	0.38950124
98	0x3e5953d3	0.21223383
99	0xbdd688bc	-0.10475299
100	0xbede9e7c	-0.4348029
101	0xbebb127f	-0.3653755
102	0x3e83a79e	0.2571382
103	0x3e3fde40	0.18737125
104	0x3df3fb4d	0.11913166
105	0xbea4e937	-0.3220918
106	0x3e94b21f	0.29042146
107	0x3f0048bd	0.5011099
108	0x3dcd21aa	0.100161865
109	0xbee7303b	-0.45153984
110	0x3ee375c2	0.4442578
111	0x3e8c8bf8	0.27450538
112	0x3dd78b1f	0.10524582
113	0x3fc072d6	1.5035045
114	0x3e78e32c	0.24305409
115	0xbf8df913	-1.1091636
116	0x3e9cd34f	0.30629966
117	0x3e8008e0	0.2500677
118	0x3ed6e0a3	0.4196826
119	0x3da7cf03	0.08193781
120	0x3f0b653a	0.54451334
121	0x3d8c7a23	0.06859233
122	0x3e045791	0.12924029
123	0x3eab9c08	0.3351748
124	0x3e4860c9	0.1956817
125	0x3e973761	0.29534438
126	0x3ec784b5	0.38968435
127	0x3e178310	0.1479609
128	0x3e576061	0.2103286
129	0xbf865e2e	-1.0497491
130	0x3de01d40	0.10943079
131	0xbd97ea1d	-0.074177004
132	0x3dcf6192	0.10126032
133	0xbd5f9d0c	-0.05459313
134	0x3d16fce0	0.036862254
135	0x3ece68f1	0.4031444
136	0x3ead08ef	0.33795878
137	0xc008b47f	-2.1360166
138	0x3ed246a8	0.4106953
139	0x3e12ab73	0.14323215
140	0x3d8e0fc3	0.069366
141	0xbe7133de	-0.23554942
142	0xbd5bbdd6	-0.05364784
143	0xbd9f528c	-0.077794164
144	0xbed7dead	-0.42162076
145	0xbd3d2ed8	-0.04618725
146	0x3eb6e95c	0.35724914
147	0x3e886e21	0.26646522
148	0x3ed2f750	0.4120431
149	0x3f0244bf	0.5088615
150	0x3e258ca3	0.1616693
151	0x3e9c1471	0.30484346
152	0x3da80193	0.08203425
153	0x3efd274b	0.4944404
154	0x3e444903	0.19168477
155	0xbf405bc0	-0.7514
156	0xbe7adb3a	-0.24497691
157	0xbe75d5b6	-0.24007306
158	0x3f001d99	0.5004516
159	0x3f8cc1e9	1.0996677
160	0x3e9897ce	0.29803318
161	0xbff1aa86	-1.8880165
162	0xbcb5d2a8	-0.022195175
163	0xbdbc6db1	-0.092006095
164	0x3eba4ba8	0.36385846
165	0xb9c527ac	-0.00037604326
166	0xbd1104a8	-0.03540483
167	0xbec91d91	-0.3928037
168	0xbee5404e	-0.44775623
169	0xbdbb8f49	-0.09158189
170	0x3e841a78	0.25801444
171	0x3f036418	0.51324606
172	0x3e883c59	0.26608542
173	0x3e1c8f8b	0.15289132
174	0x3e426454	0.18983585
175	0x3ea67c59	0.32516745
176	0x3e0d2487	0.13783465
177	0x3f65424e	0.895543
178	0xbe4315c6	-0.19051275
179	0xbfb1b7b8	-1.3884192
180	0xbe4b15f9	-0.198326
181	0xbe5bdc36	-0.21470723
182	0x3db51bc4	0.088431865
183	0x3de7791c	0.11302397
184	0xbdc3e251	-0.09564651
185	0xc0349115	-2.821355
186	0xbe83f438	-0.25772262
187	0xbead14ea	-0.3380502
188	0xbec7845a	-0.38968164
189	0x3e6ecc2d	0.23320074
190	0xbece9274	-0.4034611
191	0xbe38de61	-0.18053581

t_conv1.bias f4 [8]
0	0x3db1d0bb	0.0868239
1	0xbe77b98d	-0.24191876
2	0x3e87a413	0.26492366
3	0x3dc02123	0.0938132
4	0x3bf173a5	0.007368522
5	0x3e55cb19	0.20878257
6	0xbb838921	-0.00401415
7	0xbbd2d8b0	-0.0064345226

t_conv2.weight f4 [8, 16, 2]
0	0xbd89c952	-0.06727852
1	0xbdb0c9a4	-0.0863221
2	0xbd800fba	-0.062529996
3	0x3e5d1881	0.21591379
4	0xbd29ff9a	-0.041503526
5	0x3ebc06d6	0.36723965
6	0xbc536e1b	-0.012904669
7	0x3ebd611d	0.36988154
8	0x3e74a59a	0.23891297
9	0x3dc40e48	0.095730364
10	0xbe7548cd	-0.23953553
11	0xbe1b270f	-0.15151618
12	0xbc4c4af7	-0.012469045
13	0x3be30ce0	0.006929025
14	0x3edbb521	0.42911628
15	0x3ea29d95	0.3176085
16	0x3f1dd776	0.6165689
17	0x3aaa1a5e	0.0012977829
18	0xbdaa067e	-0.083020195
19	0x3dc1711d	0.09445403
20	0x3e35f423	0.17768912
21	0x3eed9264	0.4640075
22	0x3e99e203	0.30055246
23	0x3d815dea	0.06316741
24	0xbe8fa6b4	-0.28056872
25	0x3ea7894f	0.32721946
26	0x3eaa5d0c	0.33274114
27	0xbd9205b6	-0.071299955
28	0xbec76918	-0.38947368
29	0x3de8f84e	0.11375485
30	0x3de3ad9a	0.11117096
31	0xbbb5b51c	-0.0055452716
32	0xbdac7449	-0.08420617
33	0x3e3a7461	0.18208458
34	0xbe3cb4d6	-0.18428358
35	0x3e8f8501	0.2803116
36	0x3f202052	0.62549317
37	0x3ce80374	0.02832196
38	0xbe3d7f33	-0.18505554
39	0xbd553c25	-0.05205931
40	0xbf184b38	-0.59489775
41	0xbc3ecd1a	-0.01164558
42	0x3f0b8373	0.5449745
43	0xbdc063c7	-0.09394031
44	0x3c8cecd3	0.01720277
45	0xbf0700de	-0.527357
46	0x3dc94ed1	0.09829486
47	0xbe047bd8	-0.12937868
48	0xbe33f2ab	-0.17573039
49	0x3d628696	0.055304132
50	0xbefe7102	-0.49695593
51	0xbda5b68d	-0.080914594
52	0x3d3fb8dc	0.046807155
53	0x3cf940a6	0.030426335
54	0x3f0139a0	0.50478554
55	0x3e0d61df	0.13806866
56	0x3d7d2dd2	0.061811276
57	0xbc1cfbc5	-0.009581511
58	0x3e6cefcb	0.23138349
59	0x3eabdbb8	0.3356607
60	0x3ed8d632	0.42350918
61	0xbee156ed	-0.44011632
62	0xbe2c8d83	-0.16850857
63	0x3ed67a24	0.4189006
64	0xbe30c83b	-0.17263882
65	0xbdabeab0	-0.083943725
66	0xbe40a8be	-0.1881437
67	0xbdfccf13	-0.12344184
68	0xbe3b1920	-0.18271303
69	0xbdd68fa7	-0.10476618
70	0x3e09c36a	0.13453451
71	0x3d551b91	0.052028242
72	0x3ea4527d	0.32094184
73	0x3ea63f5a	0.32470208
74	0x3cd2e128	0.025742128
75	0x3be68e95	0.00703604
76	0x3e8bf554	0.27335608
77	0x3e90162c	0.28141916
78	0x3e7fa89f	0.24966668
79	0x3e6b2936	0.2296494
80	0xbf24c7ca	-0.64367354
81	0xbe330aa0	-0.17484522
82	0x3daf5350	0.085608125
83	0xbd9be2b1	-0.07611597
84	0xbe12e72f	-0.14346002
85	0xbe91f43f	-0.28506657
86	0xbd8e5346	-0.06949477
87	0xbe1b3c21	-0.15159656
88	0xbdca2878	-0.09871
89	0xbe15e539	-0.14638223
90	0xbdd53e69	-0.104122944
91	0xbd6c077b	-0.05762432
92	0xbea3e634	-0.3201157
93	0xba89d3e7	-0.0010515422
94	0xbe2433e0	-0.16035414
95	0xbe1d0bb9	-0.15336503
96	0x3e97cf7d	0.29650488
97	0x3e759d04	0.23985678
98	0xbe01b6bb	-0.12667362
99	0xbdae6025	-0.08514432
100	0x3e91024a	0.2832206
101	0x3eb9dc23	0.36300763
102	0xbf2c0284	-0.6719134
103	0x3eb65030	0.35608053
104	0xbea6a0aa	-0.32544452
105	0xbe38833f	-0.18018816
106	0xbe5e157c	-0.21687883
107	0xbdb07f95	-0.08618084
108	0xbeba5d61	-0.36399367
109	0xbedbea32	-0.42952114
110	0xbe509b9e	-0.20371863
111	0xbe1b84a3	-0.15187316
112	0xbdcafaeb	-0.0991114
113	0x3d7b8e4e	0.06141501
114	0x3ee7f573	0.4530445
115	0xbe2be9c1	-0.16788389
116	0x3e27ad38	0.16374671
117	0x3e65943a	0.22419825
118	0xbe6da6b2	-0.2320812
119	0x3f152700	0.58262634
120	0xbc5e9dc8	-0.013587423
121	0xbdb00619	-0.08594913
122	0x3eb67c48	0.35641694
123	0xbf8c245a	-1.0948594
124	0x3e135621	0.14388324
125	0xbf9f288f	-1.2434253
126	0xbd3af599	-0.045644376
127	0xbe20a369	-0.15687336
128	0xbba29f37	-0.0049628275
129	0x3eb094c6	0.34488505
130	0xbddbc2d3	-0.10730519
131	0x3db8ed55	0.090296425
132	0xbeb29551	-0.34879544
133	0x3e9a3ee2	0.301261
134	0x3f0a69ef	0.5406789
135	0xbb980c48	-0.004640136
136	0x3e4686b6	0.19387326
137	0xbec93833	-0.3930069
138	0x3e82aa23	0.2552043
139	0x3e2fe38e	0.17176649
140	0xbe8f2822	-0.27960306
141	0x3dda2b72	0.10652818
142	0xbeadcf64	-0.3394729
143	0x3e37563a	0.17903987
144	0xbee7ebc2	-0.45297056
145	0x3cf9ba59	0.030484365
146	0x3ef7c40f	0.48391768
147	0x3d35ffe0	0.044433475
148	0x3e83a5be	0.2571239
149	0x3de652e8	0.11246282
150	0x3e0e924d	0.13922997
151	0xbd0c174f	-0.034201916
152	0xbdb3e3a2	-0.08783652
153	0x3e7adfd1	0.24499442
154	0x3e3b70b7	0.18304716
155	0x3e9e8560	0.30961132
156	0xbca3f4e0	-0.020014226
157	0x3eb8dd8f	0.36106536
158	0x3cd35b12	0.025800262
159	0xbe22178c	-0.15829295
160	0xbe11665d	-0.14199205
161	0xbe34e71a	-0.17666283
162	0x3da21522	0.07914187
163	0xbde5428d	-0.11194334
164	0x3e033bfa	0.12815848
165	0xbd764ebc	-0.06013368
166	0xc02454ac	-2.567668
167	0x3ec5e4f2	0.38651234
168	0x3d995812	0.07487501
169	0x3e12f2ba	0.14350405
170	0xbeeaa757	-0.45830795
171	0x3d78c42b	0.060733955
172	0x3d8979ad	0.06712661
173	0x3d5dcbe8	0.05414954
174	0x3ed34088	0.4126017
175	0x3df74dd4	0.120753914
176	0x3f2d4b5c	0.67693114
177	0xbe034ccc	-0.12822264
178	0xbe600e58	-0.21880472
179	0x3d74f6fb	0.05980585
180	0xbe857fab	-0.26073965
181	0xbd5a5782	-0.05330611
182	0x3dfc564f	0.123211496
183	0x3eac9bb8	0.33712554
184	0x3f104587	0.5635609
185	0x3ea187cd	0.3154892
186	0x3e2fb792	0.1715987
187	0x3e9087dd	0.28228655
188	0xbf1cb43e	-0.6121253
189	0xc009dc9a	-2.1540895
190	0x3db69672	0.08915414
191	0x3e366017	0.17810093
192	0x3e584dca	0.21123424
193	0x3d3aa908	0.045571357
194	0xbe01ebb7	-0.12687574
195	0x3ec87b86	0.3915674
196	0x3d79a297	0.060946073
197	0x3e163cf6	0.14671692
198	0x3e1d180f	0.15341209
199	0x3ddae764	0.106886655
200	0xbdd3af2e	-0.10336147
201	0xbf3298bf	-0.6976432
202	0x3ddc4acb	0.10756453
203	0x3e378254	0.1792081
204	0xbe7b877c	-0.24563402
205	0xbe13ae2c	-0.1442191
206	0xbefd1336	-0.4942872
207	0xbebb56e0	-0.36589718
208	0xbe870378	-0.26369834
209	0xbda30305	-0.0795956
210	0x3d6c1dbe	0.05764555
211	0xbddfd2c8	-0.10928875
212	0x3ca60edc	0.020270757
213	0x3e736aef	0.2377126
214	0x3e3c6ab8	0.18400085
215	0x3ead807e	0.33887094
216	0xbe891215	-0.26771608
217	0xbdd91205	-0.1059914
218	0x3e99345d	0.29922763
219	0x3e6414b7	0.22273527
220	0x3c1837b6	0.009290626
221	0x3d93b9d7	0.072131805
222	0xbe4c3738	-0.1994294
223	0x3d6e7cb1	0.058224384
224	0x3eaa31d1	0.33241132
225	0xbce39b22	-0.027783934
226	0xbe033008	-0.12811291
227	0x3e51fcf0	0.20506644
228	0x3e69a8b6	0.22818264
229	0x3cb9dfe2	0.022689763
230	0xbebd615e	-0.36988348
231	0xbea23d7f	-0.31687543
232	0xbe4284f4	-0.1899603
233	0x3cd9ee9f	0.026603041
234	0x3e50b45b	0.203813
235	0xbe3620eb	-0.17785995
236	0x3ea45dca	0.32102805
237	0xbef08f06	-0.46984118
238	0xbf2e186b	-0.6800601
239	0x3d4ed34b	0.050494473
240	0xbe2ff0ef	-0.17181753
241	0xbe07fec5	-0.1328078
242	0xbd7f2225	-0.062288422
243	0xbe15cf7a	-0.14629927
244	0x3ea2143c	0.31656063
245	0xbd3a8fee	-0.04554742
246	0xbe58f1f5	-0.2118605
247	0xbf127288	-0.5720601
248	0x3ee9b5da	0.45646554
249	0xbe4e10ca	-0.20123592
250	0xbe917a73	-0.28413734
251	0xbea41efc	-0.3205489
252	0xbf2dc9be	-0.6788596
253	0xbedafbd4	-0.42770255
254	0xbe2243c4	-0.15846163
255	0x3ec1b2e5	0.37831798

t_conv2.bias f4 [16]
0	0x3ce8ef78	0.0284345
1	0xb9a27c86	-0.00030991825
2	0xbe144dfc	-0.14482874
3	0x3cc90166	0.0245368
4	0x3c72c2fd	0.014816997
5	0x3d91edaf	0.07125413
6	0x3dea82d8	0.11450738
7	0xbe543d99	-0.20726623
8	0xbec3dc77	-0.3825414
9	0xbf29a6e5	-0.66270286
10	0x3e18fe77	0.1494082
11	0xbe055ec8	-0.13024437
12	0x3d268659	0.040655468
13	0xbe250e1a	-0.1611866
14	0x3d474658	0.04865107
15	0xbe952005	-0.2912599

t_conv3.weight f4 [16, 32, 2]
0	0x3e369d34	0.17833406
1	0x3de62520	0.1123755
2	0xbd1bb500	-0.038014412
3	0x3dd286a9	0.10279591
4	0xbdb2a979	-0.087237306
5	0xbece801b	-0.40332112
6	0xbdc460ed	-0.095887996
7	0x3bee3edc	0.007270677
8	0xbe08cc42	-0.13359168
9	0xbee0074d	-0.4375557
10	0xbd50c38f	-0.05096775
11	0x3e2ff2e6	0.17182502
12	0xbdae7ad3	-0.085195206
13	0xbdfeab69	-0.12435038
14	0x3d99efb9	0.075164266
15	0x3ceb2557	0.028704328
16	0x3e4e2526	0.20131359
17	0xbbd80df9	-0.0065934625
18	0xbd03fdf0	-0.032224596
19	0xbd9dba8d	-0.07701597
20	0x3e6acbd7	0.22929321
21	0x3e199b3f	0.15000628
22	0x3ea77b71	0.32711366
23	0x3e86e67e	0.26347727
24	0x3d028016	0.031860434
25	0x3e84c136	0.25928658
26	0xbd96c890	-0.07362473
27	0x3e9e1df7	0.30882236
28	0xbe52dba5	-0.205916
29	0xbee5a53d	-0.4485263
30	0x3e456955	0.19278462
31	0xbd8c8e9b	-0.06863137
32	0x3d4c4f98	0.049880594
33	0xbf1db32d	-0.61601526
34	0xbe6f6577	-0.2337855
35	0xbe3587dd	-0.17727609
36	0x3e7da8aa	0.24771371
37	0x3dcc9986	0.0999022
38	0xbead928d	-0.33900872
39	0xbe46ba8a	-0.19407097
40	0xbf15c5db	-0.5850503
41	0xbe72085b	-0.23636
42	0x3e5a0730	0.21291804
43	0x3cfd67ff	0.030933378
44	0xbadb0c9d	-0.0016712133
45	0xbf7bf8ec	-0.984267
46	0xbd916627	-0.07099562
47	0xbfd9e9d6	-1.7024486
48	0x3e42a0b7	0.1900662
49	0x3e59be9e	0.21264121
50	0x3dec3471	0.1153344
51	0x3e3cd65a	0.18441144
52	0xbca38c58	-0.019964382
53	0x3d01d911	0.03170115
54	0xbee4f6e3	-0.4471961
55	0x3e324460	0.17408895
56	0xbd906936	-0.070513174
57	0x3ee24db0	0.44199896
58	0x3e827683	0.25481042
59	0x3d1f86ed	0.038947035
60	0x3ce51630	0.027964681
61	0x3e3635bc	0.17793936
62	0x3eadce3e	0.33946413
63	0xbcd72a43	-0.02626527
64	0x3cc7ecfa	0.024404991
65	0x3e57e002	0.21081546
66	0xbe3da089	-0.1851827
67	0xbd451cc8	-0.04812315
68	0xbd47df73	-0.048797082
69	0xbd68346a	-0.05669061
70	0xbf52aae0	-0.82291985
71	0xbf2231ca	-0.6335722
72	0xbdec9f8b	-0.11553868
73	0xbe047dea	-0.12938657
74	0xbe248526	-0.16066417
75	0x3de4e7d4	0.1117703
76	0x3d1f1647	0.038839605
77	0x3cac9d24	0.021071024
78	0x3cac225a	0.021012474
79	0x3c050e25	0.008121048
80	0x3dbd6eb0	0.092496276
81	0x3e018b62	0.12650827
82	0xbce37fb1	-0.027770849
83	0xbc43a822	-0.011941941
84	0x3e2713ef	0.16316198
85	0x3d8d9981	0.06914044
86	0x3e7560ad	0.2396266
87	0x3e45a1c6	0.19299993
88	0x3c93d945	0.018047938
89	0x3e555bd6	0.20835814
90	0xbd3b770c	-0.04576783
91	0x3e72d641	0.23714544
92	0xbdb8fdc5	-0.09032778
93	0xbd8a25d6	-0.06745498
94	0x3e9098f1	0.28241685
95	0xbf148d8f	-0.580285
96	0xbb8ef53d	-0.004362731
97	0x3f99c4c8	1.2013178
98	0xbe8421f5	-0.25807157
99	0x3e3baedf	0.18328427
100	0x3e16b6e6	0.14718208
101	0x3e763478	0.24043453
102	0xbe9d7faf	-0.30761477
103	0xbe969834	-0.29412997
104	0x3ecc1ee3	0.39867315
105	0xbcfa5990	-0.030560285
106	0x3e28aae4	0.1647144
107	0x3d5b3856	0.053520523
108	0x3db767fa	0.08955379
109	0xbed6d261	-0.4195738
110	0xbd60dddf	-0.054899093
111	0xbf88a559	-1.067546
112	0x3dbd280c	0.09236154
113	0x3e1f742c	0.1557166
114	0x3e92783b	0.28607354
115	0x3f11925c	0.5686395
116	0x3d471cc5	0.04861142
117	0xbd8b4a17	-0.06801241
118	0x3d8a4a1f	0.06752419
119	0xbe14782d	-0.14498968
120	0xbd7af628	-0.06126991
121	0xbee6a737	-0.4504945
122	0x3c3fe1c5	0.0117115425
123	0xbdc378f6	-0.09544556
124	0x3d5112c8	0.0510433
125	0xbda95996	-0.0826904
126	0xbc884291	-0.016633304
127	0x3e6e880d	0.23294087
128	0x3d908d9e	0.07058261
129	0x3dbb1f81	0.09136868
130	0x3e113986	0.141821
131	0xbe43bbc6	-0.19114599
132	0xbcfad509	-0.030619161
133	0x3e774f7d	0.24151416
134	0xbf95c371	-1.1700269
135	0x3e2a197c	0.16611284
136	0x3cdceb01	0.026967527
137	0xbe799751	-0.24374129
138	0xbe0572c1	-0.13032056
139	0xbed985e9	-0.42484978
140	0xbdf6cc49	-0.12050683
141	0xbe17f7ce	-0.14840624
142	0x3a7b7829	0.00095927954
143	0x3e0095b5	0.12557109
144	0x3e0ef425	0.13960321
145	0xbde8f89a	-0.11375542
146	0x3d6056b1	0.054770175
147	0x3e375a69	0.17905582
148	0x3c43c9b3	0.011949944
149	0x3e0f4841	0.13992406
150	0x3d35552c	0.04427068
151	0x3e161560	0.14656591
152	0x3d1d6fea	0.038436808
153	0x3e1690fb	0.14703743
154	0xbd92748c	-0.07151136
155	0x3e4065ef	0.18788885
156	0xbe698f1e	-0.22808501
157	0xbe7e1590	-0.24812913
158	0x3e3ea961	0.186193
159	0xbedb2f4b	-0.4280952
160	0xbf1b0afb	-0.6056363
161	0xbec9ce1b	-0.39415058
162	0xbe9b30f5	-0.3031079
163	0xbee5223b	-0.44752678
164	0x3db0fd49	0.0864206
165	0x3e5caf2c	0.21551198
166	0xbd71635a	-0.05893264
167	0xbd3ea409	-0.046543155
168	0xbf878abc	-1.0589213
169	0xbf01b36e	-0.5066441
170	0xbd1530e3	-0.036423575
171	0xbee72f0b	-0.45153078
172	0x3c8fdb27	0.017560555
173	0x3eef0d53	0.46689853
174	0x3d3b1605	0.045675296
175	0x3e8e507c	0.2779578
176	0xbc11cca6	-0.00889889
177	0x3cc58069	0.024109082
178	0x3e9d6ac4	0.30745518
179	0x3e82d134	0.25550234
180	0xbd9d8e76	-0.07693188
181	0x3dcf64b4	0.101266295
182	0x3e007277	0.12543665
183	0x3b6c565a	0.0036062212
184	0xbded3ee0	-0.11584258
185	0x3ec7688f	0.3894696
186	0x3e943604	0.2894746
187	0xbb760e14	-0.0037545012
188	0xbdc0c7d6	-0.09413116
189	0x3e9c95b8	0.30582976
190	0xbe07a723	-0.13247351
191	0xbe0a4b87	-0.13505374
192	0x3d10b0e0	0.03532493
193	0xbe7dd4ef	-0.24788259
194	0xbf5c49bd	-0.86050016
195	0xbaff8d3e	-0.001949705
196	0x3d9c28bc	0.07624957
197	0x3d9884a2	0.07447173
198	0x3ea414aa	0.32047015
199	0x3ebecb12	0.37264305
200	0xbe2310e6	-0.15924415
201	0x3e0e2be1	0.13883926
202	0xbd7262cf	-0.059176262
203	0xbe5855b8	-0.21126449
204	0x3e2a04a4	0.16603333
205	0xbeb3f15b	-0.35145077
206	0xbe9d050a	-0.30667907
207	0x3e2268cf	0.15860294
208	0xbe101faf	-0.14074586
209	0x3dcfea65	0.10152129
210	0x3d04c934	0.032418445
211	0x3e2bceb7	0.16778074
212	0x3e540673	0.20705585
213	0xbe75c25e	-0.23999926
214	0x3e6c4379	0.23072614
215	0x3cb58592	0.022158418
216	0x3defe1d7	0.117129974
217	0x3b0ddedc	0.0021647727
218	0xbe4f9c89	-0.20274557
219	0xbdcdbad2	-0.10045399
220	0x3e8b1de4	0.27171242
221	0x3e4c84a1	0.19972469
222	0xbe9fc3f4	-0.31204188
223	0xbf24f5f7	-0.6443781
224	0xbf44703d	-0.7673376
225	0x3b82ba5c	0.003989501
226	0x3eadc081	0.3393593
227	0x3d9be1ce	0.07611428
228	0x3cac61b8	0.02104269
229	0x3d6f5d23	0.05843843
230	0x3eac295a	0.336253
231	0x3ea29952	0.317576
232	0xbd6c17fa	-0.057640053
233	0xbe434859	-0.19070567
234	0x3f07591b	0.5287034
235	0x3d268ada	0.040659763
236	0xbaf4ec71	-0.0018686188
237	0x3eabc6ff	0.3355026
238	0xbe0d8d91	-0.13823535
239	0xbdecb61f	-0.11558174
240	0x3d1cd4e1	0.038288955
241	0x3e320fbb	0.17388813
242	0xbe3c1a18	-0.18369329
243	0xbd2597a5	-0.040427823
244	0xbc54c628	-0.012986697
245	0xbe22f242	-0.15912727
246	0xbea95e8c	-0.33079946
247	0x3dbd01e7	0.092288785
248	0xbde738e2	-0.112901464
249	0x3caf6094	0.021408357
250	0xbe38dd69	-0.18053211
251	0xbd5d0e10	-0.05396849
252	0xbdaa3e5a	-0.08312674
253	0xbee5b0fd	-0.44861594
254	0xbf6bc870	-0.9210272
255	0x3d83b6eb	0.06431373

t_conv3.bias f4 [32]
0	0x3e31ab64	0.17350537
1	0x3dc2a069	0.09503252
2	0xbd842a2c	-0.06453356
3	0xbd80c490	-0.06287491
4	0xbe24da57	-0.16098915
5	0xbcbb2a1d	-0.02284723
6	0x3d9668e1	0.07344223
7	0x3b718d88	0.003685804
8	0x3e069c7f	0.13145636
9	0x3d1d4494	0.03839548
10	0x3e384a63	0.17997126
11	0x3e19df09	0.15026487
12	0x3e388738	0.18020332
13	0x3e422051	0.1895764
14	0xbd29260e	-0.041296057
15	0xbc8f0ed9	-0.017463135
16	0x3d594b40	0.05305028
17	0x3ded023d	0.115726925
18	0x3e785156	0.24249777
19	0x3c1686cb	0.009187411
20	0x3e4af19d	0.1981873
21	0xbf20a9f4	-0.6275933
22	0xbed81865	-0.42206112
23	0xbe6ee9c8	-0.23331368
24	0x3e1020f6	0.14075074
25	0x3c4d0630	0.012513682
26	0x3ba404b0	0.0050054416
27	0x3d46f456	0.04857286
28	0xbeb614c7	-0.35562727
29	0xbe9105ff	-0.28324887
30	0xbebadf9c	-0.36498725
31	0x3c796b2e	0.015223308

conv_out.weight f4 [1, 32, 3]
0	0xbde0d8ee	-0.10978876
1	0xbdba850b	-0.09107407
2	0xbd5170b0	-0.051132858
3	0xbe49c684	-0.19704634
4	0xbca2aae6	-0.019856881
5	0x3e29bed9	0.16576709
6	0x3e5e14c7	0.21687613
7	0x3dbdafce	0.09262048
8	0xbcaf9f47	-0.021438254
9	0xbdf8a58e	-0.12140952
10	0xbf0ca451	-0.54938227
11	0xbf14a84e	-0.5806931
12	0xbf13ce4d	-0.57736665
13	0xbf19004a	-0.59766066
14	0xbebb8cee	-0.36630958
15	0xbe7cae85	-0.24675949
16	0x3db99ed2	0.09063496
17	0xbe70dc7d	-0.2352161
18	0x3d8b372c	0.067976326
19	0xbda8e8b5	-0.0824751
20	0xbce0473f	-0.027377723
21	0x3c6291c0	0.013828695
22	0x3e2579b7	0.16159712
23	0xbe54a344	-0.20765406
24	0xbe135892	-0.14389256
25	0x3d2663d7	0.04062256
26	0xbe0eaa22	-0.13932088
27	0xbd8c4d32	-0.06850661
28	0x3dfc142a	0.123085335
29	0xbd989be4	-0.07451609
30	0xbd1c1598	-0.03810653
31	0xbe212579	-0.15736951
32	0xbe4b44ff	-0.19850539
33	0xbe6e4029	-0.23266663
34	0xbe36da7c	-0.17856783
35	0xbe31742b	-0.17329471
36	0xbe43ac62	-0.19108728
37	0xbe26f504	-0.16304404
38	0xbd5cfd42	-0.053952463
39	0xbe88f5e1	-0.2675009
40	0xbdc0174e	-0.09379445
41	0x3d1e6712	0.038672514
42	0x3e367166	0.17816696
43	0x3cc37431	0.023859115
44	0x3e512507	0.20424281
45	0x3e5cc382	0.21558955
46	0xbe241600	-0.16024017
47	0xbe7d59e7	-0.24741326
48	0x3e83d0b1	0.25745156
49	0x3d8e0c07	0.06935888
50	0xbeb0a9ce	-0.3450455
51	0x3e4daf17	0.20086323
52	0x3e12ce58	0.14336526
53	0x3e985145	0.29749504
54	0xbe5d73f5	-0.21626265
55	0xbdf21c76	-0.11821835
56	0xbe612285	-0.21985824
57	0x3dc20822	0.094742075
58	0x3df4ce98	0.11953467
59	0x3e256be6	0.16154441
60	0x3e24bb9f	0.16087197
61	0x3d650270	0.055910528
62	0xbe9ad5b7	-0.30241176
63	0x3ed85bf7	0.42257664
64	0x3f70ac21	0.9401265
65	0x3f4b7b87	0.7948536
66	0xbf94cc1d	-1.162479
67	0xbfd0a7fc	-1.6301265
68	0xbe8c7485	-0.27432647
69	0x3dac4bb4	0.08412877
70	0x3e4c67d1	0.19961478
71	0x3e89e6ba	0.26933843
72	0xbe263d4b	-0.16234319
73	0x3c232426	0.009957349
74	0xbde683c4	-0.11255601
75	0xbefe9518	-0.49723125
76	0xbe823728	-0.25432706
77	0xbe137e0a	-0.14403549
78	0xbcc7347a	-0.024317015
79	0x3e36bdce	0.17845842
80	0xbe11d03c	-0.14239591
81	0xbea35063	-0.31897268
82	0x3ea12f47	0.31481382
83	0x3b35f436	0.002776397
84	0x3f04b420	0.5183735
85	0x3f13b24a	0.5769392
86	0x3eba049c	0.36331642
87	0x3d9c4f1b	0.07632276
88	0x3da73ef6	0.08166306
89	0x3f010be9	0.504088
90	0x3f89619f	1.0732917
91	0x3f84e4b8	1.03823
92	0x3f29478a	0.66124785
93	0xbe665f35	-0.22497256
94	0x3c7b85c1	0.015351714
95	0x3e883131	0.2660003
