dAE_PyTorch/checkpoints/spectra_dae_epoch_6.pth (torch, 18875 bytes, 13 tensors)

conv1.weight f4 [32, 1, 3]
000000 02 92 24 3f d6 e3 0c 3f ac a7 21 be ab e5 ec bd
       0.6428529 0.5503515 -0.15786618 -0.11567243
000010 7e 10 42 be ad af fa 3e 47 37 1d bf 4f cc 1c 3f
       -0.18951604 0.48962155 -0.6141247 0.6124925
000020 20 a3 12 3c ba 4f dd bc 72 6a 22 bd 95 22 46 3f
       0.008950025 -0.027015556 -0.039652295 0.7739652
000030 9b a0 05 3f f6 39 1d be 4c 9f 4a be 36 c4 b2 3c
       0.5219819 -0.15354142 -0.1978733 0.021822076
000040 89 ad 2b bf c1 df e0 3e 79 af 0a bf 82 08 14 bf
       -0.6706167 0.4392071 -0.54174 -0.5782548
000050 58 da 9f 3e 32 9e 34 3f 44 b5 29 3e 68 a4 0e bf
       0.3122127 0.70553887 0.16573054 -0.55719614
000060 38 09 5d bc aa d9 62 bf f8 41 06 3c cf 22 62 3d
       -0.013490967 -0.8861338 0.008194439 0.055208977
000070 a7 47 bf 3e d2 b7 03 3f 3a 6d e7 be b8 6d a8 3e
       0.37359354 0.5145236 -0.4520052 0.3289621
000080 50 6e 13 bf 4d 10 1d bf e3 3d 02 bd d5 fc 12 3f
       -0.575902 -0.61353 -0.0317973 0.5741704
000090 82 25 6a 3e 00 ca c5 3d 91 25 df 3e 94 b7 05 3f
       0.2286587 0.09657669 0.43583348 0.52233243
0000a0 17 ee c5 be 21 37 32 bf 6b bf 18 3f 6a 4d 2f bd
       -0.3865821 -0.6961537 0.5966708 -0.042798437
0000b0 22 42 83 3e bc 38 4f be 41 e4 3b 3f b8 27 c0 be
       0.25636393 -0.20236486 0.7339516 -0.37530303
0000c0 d7 d3 1f bb a7 e0 91 bf b0 c4 1b bb ae 39 a2 3e
       -0.002438774 -1.1396683 -0.0023768358 0.3168463
0000d0 94 df 8d 3e 16 d4 97 3e 31 17 6f bf d6 0c 9f 3d
       0.2770964 0.29653996 -0.9339476 0.0776612
0000e0 b7 1b df 3d d1 da ac 3e b3 4b 4d 3e 43 54 a4 3e
       0.10893958 0.33760694 0.20048408 0.32095537
0000f0 9e 57 99 3d 0d 9d 4f 3e 33 f2 ca bd ab 84 50 bf
       0.07487415 0.20274754 -0.09909477 -0.81452435
000100 ce fc a5 bc 21 de 73 bd ef 59 46 3f 5b 2a 9a be
       -0.020262148 -0.05953801 0.7748098 -0.3011044
000110 ce 8a bf bd 7c cb f2 be 0c 78 22 bf 4b 61 19 bf
       -0.09352647 -0.4742087 -0.63464427 -0.5991408
000120 f8 3e 01 bf a0 c6 2a bf fa ea 73 3d 3f 3d cd be
       -0.5048671 -0.6670933 0.059550263 -0.4008579
000130 c1 8a cd be 36 0c 09 bf 70 fc b3 be 51 96 f6 be
       -0.40144923 -0.5353426 -0.35153532 -0.48161557
000140 ef 87 a4 be f2 6f 2b 3e 73 70 ae 3e fb e7 b0 bf
       -0.3213496 0.16741922 0.34070167 -1.3820795
000150 c7 fd 80 be a7 27 9c be 99 fd 34 bf ae e2 60 bd
       -0.25193617 -0.30499002 -0.7069946 -0.05490368
000160 83 c6 60 3e 30 7e 55 bf ee a1 df bc 73 da 4c 3f
       0.21950726 -0.8339567 -0.027298894 0.8002083
000170 08 cc 3a bd 93 f1 a0 bf d5 d7 88 3e 0c 35 fa 3d
       -0.045604736 -1.2573723 0.26727167 0.12217149

conv1.bias f4 [32]
000000 d4 1c 46 be 00 09 77 bd 52 e6 fb bc 22 de 2c bf
       -0.19346935 -0.060311317 -0.030749474 -0.6752645
000010 57 ce 7b be cf 99 94 3b 2d 1a 85 3e c8 bd 80 be
       -0.24590431 0.004534937 0.25996533 -0.25144792
000020 95 2b 49 3e 11 ef a6 be 61 33 b0 3e 91 bc d0 bd
       0.19645531 -0.32604268 0.344142 -0.10192216
000030 f0 c6 cc be f3 28 0c 3e 0b 8e 6c be 10 5a d9 be
       -0.39995527 0.13687496 -0.2310106 -0.42451525
000040 46 12 96 3d ae 77 5e be 55 35 ac 3e ae b4 1f bf
       0.07327704 -0.21725342 0.3363444 -0.6238507
000050 ce fe 30 be 0c da 4a 3e a1 1c ac be e9 39 97 bd
       -0.172847 0.19809741 -0.33615592 -0.07384092
000060 18 ea 23 3f 5e 84 3a bd db 9c de 3e d9 e2 eb bd
       0.64029074 -0.04553639 0.43479046 -0.11517877
000070 73 27 b2 be dc 9f 73 3e 91 83 35 bf 4c e8 84 bd
       -0.34795722 0.2379145 -0.7090388 -0.064896196

conv2.weight f4 [16, 32, 3]
000000 bc 30 7a bc b0 2e cd 3d 2e 39 e8 3c e3 f5 77 3d
       -0.015270408 0.100186706 0.028347578 0.06053723
000010 b6 a3 c4 bd e6 da 82 3e 8b 4f 52 3e d9 ea e9 3d
       -0.09601538 0.2555763 0.20538156 0.11421747
000020 a3 dc 2f 3d 9f 61 1e 3f 51 8c 9e 3f f7 4c 20 40
       0.042935025 0.6186771 1.2386571 2.5046976
000030 83 d3 ae 3b e7 c2 18 bd 42 67 8d 3c e3 05 81 be
       0.0053352728 -0.03729525 0.017261151 -0.25199804
000040 9b e5 d0 bc 3f 62 31 be 36 c6 09 be fc fb e4 bd
       -0.02550011 -0.17322634 -0.13454518 -0.11180875
000050 7f a7 8c be 03 8e 25 be 9b 2c 95 3d d3 59 0f be
       -0.2747154 -0.16167454 0.072838984 -0.13999109
000060 6b ab 8f bd 80 4d 9d 3c b1 a6 7a be 1a d6 67 3d
       -0.07015117 0.019201994 -0.2447765 0.056600668
000070 d3 b5 57 3d fd 95 c9 3e ed e7 30 3d 63 69 c1 3c
       0.052663635 0.39372244 0.04318993 0.023609823
000080 2c 69 33 bf 82 d6 5c 3e 4e c6 ea 3e 7f 1b 4c 3e
       -0.70082355 0.21566203 0.4585442 0.19932364
000090 1b 80 e0 bb 26 9d 79 3e d0 c9 23 3f 62 7d 3f be
       -0.006851209 0.24376354 0.63979816 -0.18700173
0000a0 e4 fd 18 3e 91 8d 0a bf 05 8a cf bd 4b 13 68 3d
       0.14940602 -0.54122263 -0.10133747 0.056659024
0000b0 17 97 7d 3e f5 1f 2a 3e 34 73 a4 3d 1f 02 20 3d
       0.24764667 0.16613753 0.08029786 0.039064523
0000c0 c7 9d 99 be b2 52 a0 be 7c 77 74 be 79 78 fe bd
       -0.30003187 -0.31313092 -0.23873705 -0.12425322
0000d0 18 96 a9 3d 51 af 43 3e b9 a6 2c 3e b2 47 93 3d
       0.08280581 0.19109847 0.16860475 0.07191409
0000e0 f0 15 20 be 87 68 0a be 9e 5c 12 3f 87 5a bb 3e
       -0.15633368 -0.13516437 0.5717257 0.36592504
0000f0 9f 1e 1e be 1a 92 73 3e 1a 99 5a 3d 9a fe e4 bc
       -0.15441369 0.23786202 0.053368665 -0.027953435
000100 b4 b9 06 be b3 bf f0 3d 67 e8 9c be 3f 84 aa bd
       -0.13156778 0.11755314 -0.3064606 -0.08326005
000110 8d 31 8c bd df 0e c4 bd de 7e b1 bd 46 de 2d be
       -0.068453886 -0.09573149 -0.08666776 -0.16979322
000120 10 23 b6 bd df 84 c4 bd 1c 79 b8 be a9 9b d3 bd
       -0.088934064 -0.09595656 -0.360299 -0.10332424
000130 da 88 55 be 57 d7 4c be 04 89 c3 3d 2b cf b9 be
       -0.20852986 -0.2000402 0.09547618 -0.3629087
000140 8b 60 bd bd 95 0b 35 be 82 8e af 3d b9 55 4b be
       -0.0924693 -0.176802 0.08572103 -0.1985692
000150 32 de 47 bc 33 8d 05 bc c6 48 89 be 12 2d e5 3c
       -0.012198972 -0.00815134 -0.26813334 0.027975593
000160 0c 18 42 3e e4 36 a3 bf d6 75 40 3f 8c d6 f4 3e
       0.18954486 -1.2751126 0.75179803 0.47819936
000170 c0 42 c5 3f 57 a7 f2 be 2d 39 80 be ac c5 87 bd
       1.5410995 -0.47393295 -0.25043622 -0.066295
000180 11 fc 8f 39 f2 71 89 3d 4e c0 0d 3e 09 c6 5a be
       0.0002746289 0.067111865 0.1384289 -0.21364607
000190 15 cd 14 3c 6b 0e a4 3e 70 d7 72 be ca 9a 3e 3e
       0.0090820985 0.3204225 -0.23714995 0.18613735
0001a0 ef cd cc 3d 70 ea a9 3e f6 7b 44 be cd 07 81 3f
       0.10000216 0.33186674 -0.19187912 1.0080506
0001b0 29 db b8 3d aa 8a 0d bb ad a4 2b be c4 64 8c 3b
       0.090261765 -0.0021597543 -0.16762038 0.004284473
0001c0 1b 00 7f 3e 6c a8 5f 3e a9 d4 90 3e 91 6c 1f 3d
       0.24902384 0.21841592 0.28287247 0.038921896
0001d0 49 17 27 3e 34 fe 30 3e 53 27 20 be ed cd 1f bf
       0.16317476 0.17284471 -0.15640001 -0.6242359
0001e0 4a 2b 52 3e 74 6b 9b 3e 38 ce 41 3d 84 54 03 bc
       0.20524326 0.30355418 0.047315806 -0.008015756
0001f0 97 c6 cd bc df cd a0 3e ce 6a f4 bd c2 6c 50 3e
       -0.02511911 0.31407067 -0.11934434 0.20353988
000200 6d 88 a8 be 9b 3e aa be cf bf f0 3e 09 5c 59 3e
       -0.32916585 -0.3325089 0.47021338 0.21226515
000210 77 fb 07 be 80 fe 54 be 20 26 88 3e 1a a4 5f 3d
       -0.1327952 -0.20800209 0.26591587 0.05459986
000220 15 60 38 3f dd d9 60 bf 36 de 89 3d e7 ea 2d 3d
       0.7202161 -0.87832433 0.067318365 0.04246035
000230 93 ef 22 3e 68 40 15 3e c9 47 fa 3c 9e 4f d5 bd
       0.15911703 0.1457535 0.030551808 -0.104155764
000240 48 e2 73 be e2 c3 8c be 64 e6 a3 be 4e bd 89 3b
       -0.23816788 -0.27493197 -0.32011712 0.004203475
000250 a4 e5 42 3d fb 37 5b 3e 3d 1b ca bd 50 b5 0a 3e
       0.047582284 0.21408074 -0.098684765 0.13545728
000260 94 87 23 3e b4 21 36 bf 60 ec 2b bf 0c fc 8e be
       0.15969688 -0.71145177 -0.67157555 -0.27926672
000270 b6 5a 2e 3e 79 46 a8 be 96 93 23 be 40 42 b0 3e
       0.17026791 -0.32866266 -0.15974268 0.34425545
000280 35 f1 28 3e 3b 39 14 3d f9 7b 82 3e 61 ba 07 be
       0.16498263 0.03618739 0.2548521 -0.13254692
000290 94 b9 05 bf d1 41 c8 bd b4 cf 25 be 7d 8d 0a be
       -0.52236295 -0.097781785 -0.16192514 -0.13530536
0002a0 fd 24 23 be 2a f3 78 bd ce 6c 34 be fb aa ef bd
       -0.15932079 -0.060778774 -0.1761963 -0.11702534
0002b0 db 47 05 be c3 c6 1f be e8 d6 27 3f fe 5d 06 bd
       -0.13015692 -0.15603165 0.65562296 -0.03280448
0002c0 13 2b 88 be d1 05 3c 3d 1d 4a a7 bd 8f 92 2b be
       -0.26595363 0.045903984 -0.08168433 -0.16755126
0002d0 e1 59 56 bb 1a da 4e bd f0 86 57 be 4b 84 91 3d
       -0.003270738 -0.050500967 -0.21047568 0.07105311
0002e0 c9 54 ca 3e 58 7d 6b bf b8 32 0f 3f c2 aa 0d be
       0.3951781 -0.91988134 0.55936766 -0.1383467
0002f0 dd 1d 92 bd 6c 21 a7 be 00 75 99 3e ea 32 98 3e
       -0.07134602 -0.32642686 0.29972076 0.29726344
000300 1c d7 00 be ac 58 48 3d 23 ae b6 bd 14 7f a4 be
       -0.12582058 0.04891269 -0.08919933 -0.32128203
000310 b7 2b 30 be 1a b7 74 3e 72 3e 1b be 1b d3 bb bd
       -0.17204176 0.23897973 -0.1516054 -0.091711245
000320 ac 86 93 3d c6 73 c7 be 92 fc dd be e5 24 67 3e
       0.07203421 -0.38955516 -0.43356758 0.22572668
000330 61 ef 79 be b1 fd 34 be 1d 50 96 3e ff e8 15 bf
       -0.24407722 -0.176749 0.29357997 -0.5855865
000340 49 27 f3 be f2 60 36 3e 80 24 2f bd af a9 b1 bd
       -0.4749091 0.17810419 -0.04275942 -0.08674943
000350 1d 76 33 bf 07 b1 00 bb 91 36 91 be 21 bb a1 3e
       -0.701021 -0.0019636767 -0.28361943 0.3158808
000360 df dc 74 be 63 ac 50 be 1b 2e 8a be 0c 65 ad bd
       -0.2391238 -0.2037826 -0.269883 -0.08466539
000370 d7 55 b9 3d 76 b8 ae 3d 9d 01 5c 3e 31 c6 8b 3e
       0.09049576 0.08531277 0.2148499 0.27299646
000380 96 e5 1e bf 04 a4 87 3e 10 69 77 be e6 da 05 3d
       -0.6206907 0.26492321 -0.24161172 0.03267946
000390 61 3b 12 be b3 c7 02 bd 4b 7a f3 3d 29 69 51 be
       -0.14280464 -0.03192873 0.1188856 -0.20450272
0003a0 10 08 b5 3f 22 87 f3 be 32 c2 55 bd 4c 27 44 ba
       1.4143085 -0.47564036 -0.052187152 -0.00074826623
0003b0 71 f1 0f 3e f0 08 5e bd 35 33 f4 bd 3c 77 d9 3e
       0.14056946 -0.054207742 -0.119238295 0.4247378
0003c0 3b ac fc 3f c1 68 9a 3e 40 f3 09 3f cc 29 86 bc
       1.974006 0.30158046 0.53886795 -0.016377352
0003d0 e8 4e 08 3e 6c c2 2f bd df 9e cd 3d 56 8c 2d 3d
       0.1331135 -0.042910025 0.10040068 0.042370163
0003e0 09 8d 3c bf f5 d4 99 bd 39 d0 3d be 98 8c 72 3e
       -0.736527 -0.075113215 -0.18536462 0.23686445
0003f0 77 d2 fd bd b6 85 e6 bd 82 10 2d 3e 23 30 9e 3d
       -0.123936586 -0.11255972 0.16900828 0.07724025

conv2.bias f4 [16]
000000 5e fb fc bd d2 7d 13 bd 32 cc 0d 3d de 19 91 bd
       -0.12352632 -0.036008663 0.034618564 -0.07085012
000010 1e b7 c6 3d 5f e3 83 bd 43 35 f6 bd 2a 77 02 bd
       0.097028956 -0.06439852 -0.120218776 -0.031851925
000020 e4 33 35 3e 58 fa 90 3c 4e 55 01 3d f0 7c 41 3c
       0.17695576 0.017697498 0.031575494 0.011809573
000030 39 a4 3d 3d 9f 4b c1 be 85 e9 3b bd 35 83 5f 3e
       0.046299193 -0.37753007 -0.045877 0.21827395

conv3.weight f4 [8, 16, 3]
000000 eb 1b 30 be 53 1d 68 bd dd 35 c9 be dc 48 8c bd
       -0.1719815 -0.05666859 -0.39298907 -0.06849834
000010 6d df 30 3e cf 41 95 be 85 67 2f 3f d6 64 58 3d
       0.1727273 -0.2915177 0.68517333 0.05283054
000020 de 87 86 3f 89 59 3e 3e 3d d5 37 be 21 46 c9 bd
       1.0510213 0.18588842 -0.17952438 -0.09827829
000030 56 df de 3c e4 1f d5 bd 66 1a b1 3e 4d a1 6c 3e
       0.027206104 -0.10406473 0.34590453 0.23108406
000040 76 14 30 be 31 56 1a be b8 45 79 be 88 d5 85 bd
       -0.17195305 -0.15071942 -0.24343002 -0.065348685
000050 e8 21 df be a5 7b 95 3e 9c e9 bc bc 98 96 8a 3e
       -0.43580556 0.29195896 -0.023060612 0.2706802
000060 39 02 17 3e c4 11 1e 3e a0 be 27 3e 8f 00 34 3e
       0.14746942 0.15436465 0.16381311 0.17578338
000070 47 c1 17 3e b2 b3 0d bd 66 68 be 3e 41 b6 98 3d
       0.14819823 -0.0345952 0.37189025 0.07456637
000080 25 ee 03 3f ea 69 92 bf b0 33 f3 bd f9 a4 b0 be
       0.51535255 -1.1438572 -0.11875093 -0.34500864
000090 7e fa 5c 3e 36 12 e4 3d 12 e9 17 3d c7 0a 21 3d
       0.2157993 0.11136286 0.037087508 0.03931692
0000a0 ef 07 09 bf 76 17 db be 9e 2f 79 3e 6f de ee bd
       -0.5352773 -0.42791337 0.24334571 -0.116635196
0000b0 e8 24 3a be d8 1e 03 3e 05 31 95 3d b5 eb 11 3f
       -0.18178141 0.12804735 0.0728474 0.57000285
0000c0 77 95 69 3d 11 c9 ae bd 31 a5 a2 3e 97 d3 31 3e
       0.057027306 -0.08534444 0.31766656 0.17365871
0000d0 01 a8 8e bc 06 13 09 3e c7 d9 03 3f 18 b9 59 be
       -0.017414095 0.13386163 0.51504177 -0.21262014
0000e0 d1 1e 06 3e 24 50 d9 bd 0c af 1c 3d 6a 43 85 bd
       0.13097693 -0.10610989 0.038252875 -0.06506999
0000f0 2b 8e 04 b9 41 38 4f 3d 91 5e d9 bd 2d 5a 3a be
       -0.00012641463 0.050590757 -0.1061374 -0.18198462
000100 64 04 de 3d f4 db a7 bc 24 a1 03 3e 1c 23 54 3e
       0.10840681 -0.020490624 0.12854439 0.20716518
000110 29 c0 e0 3d 6d 7a 7b 3a fd a7 56 bd 95 00 89 bd
       0.10974152 0.0009593133 -0.0524063 -0.06689564
000120 20 28 68 be 10 31 f5 bc 53 da 64 be c9 58 8e 3e
       -0.22671556 -0.029930621 -0.22348909 0.27802113
000130 e1 ae 42 3e 1d 08 c0 3d b3 e9 2b bd a0 ea 25 be
       0.19012024 0.093765475 -0.04197092 -0.16202784
000140 2d 82 35 3e 18 68 b7 3f 25 32 c7 3e 84 8c 72 3f
       0.1772544 1.4328642 0.38905445 0.9474566
000150 58 e9 54 3e 08 87 88 3e 6f 02 a9 3e 59 88 99 bd
       0.20792139 0.2666552 0.3300967 -0.074967094
000160 08 5e 09 3f 49 46 f0 3e 50 16 be 3d f2 af 1b 3e
       0.53659105 0.46928623 0.092815995 0.15203837
000170 12 54 72 3b c0 50 e9 bd 82 a9 3e 3d 6f 8a cb bd
       0.003697638 -0.11392355 0.046548374 -0.099385135
000180 75 6f 9d 3e 5f 85 98 3e 19 66 58 bd 3c 28 36 be
       0.30749097 0.29789254 -0.052831743 -0.17788786
000190 c0 16 5a 3e 99 4f 96 3e cf 91 b9 3e a7 ae 8b bf
       0.21297741 0.29357603 0.36244056 -1.0912675
0001a0 46 54 cd 3f c9 c6 08 3e 22 ff fc bd 42 b7 26 bb
       1.6041343 0.1335708 -0.1235335 -0.002543882
0001b0 5f b0 1d 3a 07 ed 0c be 4e c9 42 3c a1 0a f7 3e
       0.0006015356 -0.13762294 0.011888815 0.48250297
0001c0 4f 93 7c be 7d 09 60 3e 7d 86 b9 be 71 23 c8 3d
       -0.24665569 0.2187862 -0.3623542 0.09772385
0001d0 c0 d1 85 bd 09 04 23 3e 4c e9 aa 3d 14 22 bc be
       -0.06534147 0.15919508 0.08345279 -0.3674475
0001e0 8f 3b af 3e b4 00 d5 3b 20 bb 39 3e 96 57 9f bc
       0.34225127 0.006500328 0.18137789 -0.019450944
0001f0 55 77 2a 3e 56 20 88 3e 83 70 d9 3e dc d0 9a 3c
       0.16647084 0.2658717 0.42468652 0.01889842
000200 4d 81 65 3e ad 0c 9a bf b1 e2 00 3d eb 1f 57 bf
       0.22412606 -1.2035118 0.03146619 -0.8403308
000210 e5 5f 56 bd 04 7a 89 bd 34 9b 85 be a8 a2 60 be
       -0.052337546 -0.06712726 -0.26094973 -0.21937048
000220 01 ca c8 be 16 2d 97 be 88 34 83 be ae 04 4f 3d
       -0.39216617 -0.29526585 -0.25626016 0.050541572
000230 da 13 14 3e 3a dc 8b 3e 1e 5b 9e bd 3a 59 7a 3d
       0.14460698 0.27316457 -0.07732223 0.06112025
000240 b7 d8 26 3c 8c fc 98 bd 4d bd e9 be d8 86 2c 3e
       0.010183505 -0.074700445 -0.45652238 0.16848314
000250 61 37 ca 3d 32 31 41 3e 78 e3 dd be 19 52 f3 3e
       0.09873844 0.18866423 -0.43337607 0.47523573
000260 5e 06 b4 3f 4d 26 04 be dd 01 37 bd 75 0e 58 3e
       1.4064443 -0.12905236 -0.04467951 0.21099265
000270 ce ae 39 bd 11 5d bb bd 5f 80 59 3e 90 ad c6 bd
       -0.045332722 -0.091486104 0.21240376 -0.09701073
000280 9e 33 d2 bd 6b a1 bb 3e 3a c2 05 3e 54 cf 23 3d
       -0.102637514 0.3664659 0.13062373 0.039992645
000290 61 c1 08 be 87 af e6 ba f2 c6 4d 3d b9 f3 c0 be
       -0.13355018 -0.0017599919 0.050238557 -0.37685946
0002a0 5f 98 9d bd 5c 86 2a 3e 4d df be 3d a2 39 bd 3d
       -0.07695078 0.16652817 0.09319935 0.09239508
0002b0 34 4d da bc a1 b6 03 3f 31 e4 6d 3e 9e 32 ee bc
       -0.026648141 0.51450545 0.2323158 -0.02907687
0002c0 72 67 59 3f 9a c3 01 bf 8b fd 37 bf 43 89 a3 bf
       0.8492347 -0.5068909 -0.7187125 -1.2776264
0002d0 33 1b 5b bc 37 6f d8 bd 09 17 a6 bd f7 63 75 bd
       -0.013373184 -0.105680875 -0.08109862 -0.059909787
0002e0 b1 38 38 bf 6d 3d 68 bd b0 46 8e 3e e4 a1 8f bd
       -0.71961504 -0.056699205 0.27788305 -0.070133
0002f0 ed a1 38 3e c9 31 40 be d9 d1 8c 3d b5 d3 4b 3e
       0.1803052 -0.18768992 0.06875963 0.19904979
000300 23 21 aa bd 8b 2b fb 3b 12 a8 b9 bd fd 12 83 3e
       -0.083071016 0.007665103 -0.0906526 0.25600424
000310 cd f4 a9 3d 2d 40 e6 bb df 05 89 3f 60 2d b4 3e
       0.08298645 -0.0070266933 1.0704917 0.35190868
000320 5a ed 46 3e 2c 21 a4 be bc 5e 68 3c cf f8 de 3d
       0.1942648 -0.32056558 0.014182743 0.108873
000330 15 08 3d 3e f7 32 5c be 48 82 80 3b c8 f1 3e 3d
       0.18460114 -0.21503817 0.0039217807 0.0466173
000340 11 fa ab 3d 9c 5e 0f 3e f4 a1 c5 3e 32 e6 13 3e
       0.08397306 0.14000934 0.38600123 0.14443281
000350 bc 69 fb 3d 2b b0 e8 be f8 a2 85 be c0 fc 51 3d
       0.122760266 -0.45446905 -0.26100898 0.05126643
000360 70 3d 24 be 8b 42 e9 bd 08 84 b5 be 48 3a bb 3d
       -0.16039062 -0.11389645 -0.35452294 0.09141976
000370 8e 31 fb 3d b8 53 07 bb e4 69 5f 3f 87 32 6e be
       0.12265311 -0.0020649265 0.8727095 -0.23261462
000380 dd 33 54 3e 54 b4 9a 3f 1a f7 6a 3e a2 f9 72 3f
       0.2072291 1.2086282 0.22945824 0.9491216
000390 9b 06 85 3e b6 e7 dd 3d 11 3f de 3d 3c e1 3a 3f
       0.25981602 0.10835211 0.10851873 0.7299993
0003a0 4c 83 4b 3e ec 31 39 bc f6 a7 e0 3e 72 e6 12 3d
       0.19874305 -0.011303406 0.43878144 0.0358643
0003b0 b9 fc 00 3e 39 34 ba be ca ae 8d be 87 7f d9 bd
       0.12596406 -0.36367968 -0.27672416 -0.10620027
0003c0 e2 ce e7 3c 3e b5 a8 3e 3d 9e 76 be ba bf d4 bd
       0.028296892 0.32950777 -0.240838 -0.103881314
0003d0 f0 14 18 3c 36 c2 4b be 6d 84 4f 3f d9 a2 9a 3e
       0.009282336 -0.19898304 0.8106144 0.30202368
0003e0 32 ef ff 3e 4d 1f 97 3e ae 21 07 3e 26 50 54 3e
       0.4998718 0.29516068 0.13196442 0.20733699
0003f0 a8 90 44 bd e5 e8 a6 3c 5f 0a 08 3f 3e 0e 9d 3e
       -0.047989517 0.020374725 0.53140825 0.30674928

conv3.bias f4 [8]
000000 d2 26 66 3e 3b db 7b 3e 9f 29 59 3c b7 a1 6b 3c
       0.22475746 0.24595349 0.013254552 0.014381818
000010 81 21 a3 bd dc f0 d4 bd 7f e5 45 be e9 19 31 3e
       -0.07965375 -0.10397503 -0.19325827 0.1729504

t_conv1.weight f4 [8, 8, 3]
000000 3d 17 79 bf 86 80 e0 be 1f 23 c0 3e 5d 3d 7d be
       -0.97301084 -0.43848056 0.37526795 -0.2473044
000010 28 9e a7 bc 61 49 a6 bd 9e d0 04 be 1a 63 c1 be
       -0.020461157 -0.08119465 -0.12970206 -0.3777092
000020 33 92 49 be db 90 b9 bf 08 d0 9c 3e 0f 0e 9c 3e
       -0.19684677 -1.4497331 0.30627465 0.30479476
000030 48 39 d4 3e 81 2f 71 3e c0 2c 92 3d 0f 53 ad 3d
       0.41449952 0.23553278 0.07137442 0.08463108
000040 94 08 2c 3d 8b 3e 6d c0 8c cf ad 3d 57 0d 9b 3e
       0.04200037 -3.7069423 0.08486852 0.30283615
000050 dd 55 80 3e 98 df 2b bd 23 2e e8 3e f7 e7 8d 3e
       0.25065508 -0.041961282 0.453477 0.27716038
000060 80 d0 93 bd 63 28 94 3d 1c 4c 75 3e b1 72 58 be
       -0.072175026 0.07234266 0.23954815 -0.21137501
000070 a0 81 57 bd 1c 45 d1 be d5 9c 82 3e 70 0d 78 3e
       -0.052613854 -0.4087304 0.25510278 0.24223876
000080 fc d4 4f 3e b9 48 b8 bc ad 90 84 be 08 1a 3d be
       0.20296091 -0.022495614 -0.2589163 -0.18466961
000090 84 84 a5 be 30 c7 25 bf cb 44 4f 3d be cf 5e 3e
       -0.32327664 -0.6475706 0.050602715 0.21758935
0000a0 75 bc 75 bd 2b 08 08 c0 48 89 87 be cb 31 1f bf
       -0.05999418 -2.1254985 -0.26471925 -0.62185353
0000b0 d0 68 67 bd 0a 97 cb 3e c4 ea 4e bc 59 7a df be
       -0.05649644 0.3976367 -0.012629215 -0.4364803
0000c0 61 c5 7e bf 73 3c 48 3e aa 3b d1 3e f9 cc 35 3e
       -0.99519926 0.1955431 0.40865833 0.17753972
0000d0 45 7b 8a 3c c0 84 56 3e 24 d4 84 3d 15 76 84 be
       0.016904483 0.20949078 0.06485775 -0.2587134
0000e0 de 41 38 3d 2a 71 e0 3e 9a 3b cc bc 85 f8 03 3f
       0.04498469 0.43836337 -0.024930764 0.51551086
0000f0 88 bb 2b 3e 48 c5 05 3e 76 b8 cd bd a9 3e a6 3f
       0.16770756 0.13063538 -0.10044949 1.2987872
000100 36 7f 9b be d8 f3 48 c0 c0 f6 5f 3e f9 2a 49 3e
       -0.30370492 -3.139883 0.21871471 0.19645299
000110 f5 1e 2b 3d 5c fe e3 3e fe ca 33 bf d9 ef 13 3f
       0.04177757 0.44529998 -0.70231616 0.57787853
000120 ca 8f 18 bf a1 e7 04 be 8d a0 02 3e 74 e2 09 3f
       -0.59594405 -0.12978984 0.12756558 0.53861165
000130 f3 49 56 3e 90 cf df bd bb 0b df bc 1e 06 af 3d
       0.20926647 -0.10928261 -0.027227273 0.08546089
000140 23 31 ef 3c 33 67 08 bf da 6d 88 3e 71 14 15 3e
       0.029198235 -0.5328247 0.2664631 0.14558579
000150 df 28 01 3f 3f d1 88 bc 5b 27 89 3d fc 50 28 3f
       0.5045299 -0.016701339 0.066969596 0.6574857
000160 6c 3a 58 3e 4b a8 43 c0 b4 25 4f 3e 23 ba a1 3d
       0.21116036 -3.0571468 0.20229226 0.07896831
000170 a2 84 25 3e 43 de 14 3d c9 eb 69 3e 6c 16 7e be
       0.16163877 0.036344778 0.22843851 -0.24813241
000180 f5 68 50 be e8 49 b9 3e 99 fe 50 3e 85 84 aa bd
       -0.20352538 0.36189198 0.20409621 -0.08326057
000190 cf 97 b2 be 3f b0 a0 be db f6 7c 3e 0a de 50 3e
       -0.34881446 -0.31384465 0.24703543 0.20397201
0001a0 48 e2 e7 3d 50 05 9d be a8 38 97 3e a1 f7 37 3e
       0.113224566 -0.30668116 0.29535413 0.17965557
0001b0 d0 07 a1 3d d9 88 da be a9 b9 e8 3e 05 29 9b 3e
       0.07862818 -0.4268253 0.45454147 0.30304733
0001c0 39 42 08 3e 67 ac ac 3f 26 4b 59 3e 39 2c 89 bf
       0.13306512 1.3490113 0.21220073 -1.0716621
0001d0 d7 2c 8c 3e 5d 3f a6 3e 5d a6 d4 3e 5e 46 b0 3d
       0.2737796 0.32470217 0.41533175 0.086071715
0001e0 7a 8b 0d 3f 25 8c 38 3e f1 e8 6c 3e c7 09 a1 3e
       0.5529095 0.18022211 0.23135735 0.31452772
0001f0 1f e4 3e 3e da 79 77 3e 88 16 cd 3e c2 5b 29 3e
       0.18641709 0.24167576 0.40056252 0.16538909
000200 89 0a 95 3e 3f b7 80 bf 72 49 b2 3d 04 bd 09 3d
       0.291096 -1.0055922 0.08705415 0.033627525
000210 6c 7b c4 3d 1f 1f a8 bd 05 9f 0e bd a3 b0 01 3f
       0.09593853 -0.08209061 -0.03481962 0.5066015
000220 82 47 a6 3e ae 15 06 c0 33 bc db 3e d3 85 a6 3d
       0.3247643 -2.0950732 0.42917022 0.08130994
000230 f9 85 c9 3d 74 87 4e be ed df 29 bd eb 25 d8 bd
       0.098400064 -0.20168859 -0.041473318 -0.10554107
000240 42 a5 d2 be fa 36 5d bc 32 ce de 3e 0d 8b 8a 3e
       -0.41141707 -0.013501877 0.4351669 0.27059212
000250 52 d0 de 3e fc 51 ff 3e b2 87 3a 3e 75 3f 93 3e
       0.4351831 0.49867237 0.18215826 0.2875935
000260 74 f9 69 3d 67 61 0c 3f 6c 6b 2a 3e ef e9 68 bf
       0.057122663 0.54836124 0.1664254 -0.90981954
000270 97 cc 80 be a0 60 86 be 24 cb 01 3f 34 59 71 3f
       -0.2515609 -0.26245594 0.50700593 0.9427674
000280 1d b6 8c 3e cf 8a e5 bf 3b 4c 49 3c 4a c1 e7 bd
       0.2748269 -1.7932986 0.012286241 -0.11316164
000290 09 8f c7 3e 9e f8 6e 3c a7 5d 9a 3b cb 27 c8 be
       0.38976315 0.014585642 0.0047108713 -0.3909286
0002a0 e6 42 cd be 63 f3 ae bd 28 3f 6e 3e 9d 9f 0a 3f
       -0.40090102 -0.08542516 0.2326628 0.541498
0002b0 7f a8 59 3e af dd 07 3e 2a 92 2d 3e 32 31 9d 3e
       0.21255682 0.1326816 0.16950288 0.30701596
0002c0 5d d2 12 3e a9 2a 6a 3f c3 18 3d be c6 20 b9 bf
       0.1433806 0.91471344 -0.18466477 -1.4463127
0002d0 11 2c 43 be 1a 50 61 be bb f9 c7 3d 9d 3b 78 3e
       -0.19059779 -0.22003213 0.09764429 0.2424149
0002e0 ab b3 9a bd 59 e1 27 c0 d0 41 60 be 64 c6 b9 be
       -0.075538 -2.6231291 -0.21900105 -0.36284173
0002f0 c4 d1 b6 be 11 49 83 3e c9 f9 d1 be af e3 59 be
       -0.35706913 0.25641683 -0.41010883 -0.2127826

t_conv1.bias f4 [8]
000000 a9 6f be 3d 2b 63 75 be d3 8d 7e 3e fd 02 be 3d
       0.09298641 -0.23963611 0.24858789 0.09277914
000010 68 d8 49 3b f8 70 63 3e 87 a8 08 3d 11 03 ac 3c
       0.0030799154 0.22211063 0.033363845 0.020997556

t_conv2.weight f4 [8, 16, 2]
000000 4b e0 89 be b4 6f 43 bd ba 0f 80 bd 42 94 61 3e
       -0.26928934 -0.04771395 -0.062529996 0.22029212
000010 6c 97 c8 bd 2e cf df 3e d5 19 e5 3a dc c3 b4 3e
       -0.097945064 0.43712753 0.0017479012 0.3530568
000020 f5 81 53 3e 7e 0c d3 3d 6d b9 38 be 2d 7c 16 be
       0.20655043 0.10305117 -0.18039484 -0.14695807
000030 f2 60 fb bb 2b 1a 9b 3c 14 ee b3 3e f9 8c a4 3e
       -0.007671469 0.018933376 0.35142577 0.32138804
000040 2e e5 20 3f 5e 1a aa 3a 42 a9 d2 bd 1d 71 c1 3d
       0.628497 0.0012977829 -0.102861896 0.09445403
000050 71 57 23 3e 7e 20 e3 3e 49 e5 9a 3e 5b dc 69 3d
       0.15951325 0.44360727 0.30253056 0.057094913
000060 e9 01 8a be 1f 9a 85 3e 29 85 9e 3e 27 4f a9 bd
       -0.26954582 0.26094148 0.30960968 -0.0826705
000070 d5 e5 ac be b6 29 1f 3d 9a ad e3 3d e5 01 0d 3d
       -0.33769098 0.038858138 0.11117096 0.034425635
000080 39 f5 9c bd 5e a7 ee 3d d6 b4 3c be 10 e2 82 3e
       -0.0766396 0.116530165 -0.18428358 0.25563097
000090 d9 7d 1a 3f e4 6b 1c bc 96 ec 3a be 50 2b 3a 3d
       0.6034828 -0.0095472075 -0.18254313 0.045451462
0000a0 7b 83 19 bf 5a 8f c0 bc 9b 84 09 3f 00 d8 23 bd
       -0.5996625 -0.023505855 0.53717965 -0.040000916
0000b0 0f 6f 8e 3c 3d 09 0c bf 92 d0 86 3d 4c 73 4a be
       0.017386941 -0.54701596 0.065827504 -0.19770545
0000c0 eb 79 1a be 96 86 62 3d 05 e0 fb be 8d b6 a5 bd
       -0.1508557 0.055304132 -0.4919435 -0.080914594
0000d0 68 cf 86 3d 5c 8e e8 3c b4 17 ec 3e 30 46 e1 3d
       0.06582528 0.028388195 0.46111834 0.10999715
0000e0 3c 3b 21 3e 98 9f 89 3b b1 bd 3b 3e f8 71 ac 3e
       0.15745252 0.0041999333 0.1833408 0.336807
0000f0 e7 43 ba 3e a4 97 d7 be ca 71 2a be f4 9f ca 3e
       0.3637993 -0.4210788 -0.1664497 0.3957516
000100 64 8c 79 be 14 53 c7 bd be a8 40 be 15 17 04 be
       -0.24369961 -0.09732643 -0.1881437 -0.1289943
000110 dd 38 3a be a9 cd 1f be 5f a8 11 3e 0b 96 33 3d
       -0.18185754 -0.15605797 0.14224385 0.043844264
000120 ee 5a 9d 3e 10 34 a0 3e b6 34 23 3a 30 54 b2 3a
       0.30733436 0.3128972 0.0006225811 0.0013605412
000130 79 cd 81 3e c8 69 8d 3e b1 06 7b 3e 62 cb 67 3e
       0.25352076 0.27619767 0.24514271 0.22636178
000140 38 a2 19 bf a0 0a 33 be b6 86 a5 3d b1 e2 9b bd
       -0.6001315 -0.17484522 0.08082335 -0.07611597
000150 74 81 0d be 20 9b 8e be 4a ce 9f bd 92 2b 11 be
       -0.13818914 -0.27852726 -0.078030184 -0.14176777
000160 8f 70 cc bd eb 64 0e be d1 19 c8 bd 06 99 7c bd
       -0.09982406 -0.13905685 -0.09770549 -0.061669372
000170 03 f6 83 be c5 a4 91 bc 2f 36 24 be ca f4 23 be
       -0.2577363 -0.017778764 -0.16036294 -0.16011348
000180 86 60 95 3e 50 50 7c 3e bb b6 01 be af 56 2e bd
       0.29175204 0.24640012 -0.12667362 -0.042563137
000190 a6 72 b0 3e 36 d0 a8 3e b0 35 29 bf 04 3b d6 3e
       0.3446247 0.32971352 -0.66097546 0.418419
0001a0 8f 07 b2 be 73 57 42 be 36 a8 81 be 85 e7 7b bd
       -0.34771392 -0.18978672 -0.25323647 -0.06150009
0001b0 da ca b1 be a3 04 f1 be ee 5b 2d be ee 4d 2b be
       -0.34725076 -0.4707385 -0.169296 -0.16728947
0001c0 a2 3f 89 bd 4e 8e 7b 3d df 35 ca 3e c1 e9 2b be
       -0.0670159 0.06141501 0.39494225 -0.16788389
0001d0 76 8c 27 3e 0c ec 75 3e aa ce 6a be cf fd 19 3f
       0.16362175 0.24015826 -0.22930399 0.60152906
0001e0 57 41 99 3c 87 b5 15 bd f2 3b be 3e 54 98 8e bf
       0.018707914 -0.03655007 0.3715511 -1.1140237
0001f0 db 67 27 3e 3e b2 b5 bf 99 f5 3a bd 37 52 51 be
       0.16348211 -1.419502 -0.045644376 -0.20441519
000200 2f a3 07 3d 79 65 b5 3e d3 c2 db bd f8 a4 b9 3d
       0.03311461 0.3542898 -0.10730519 0.090646684
000210 64 51 b1 be 59 70 95 3e 40 5c 15 3f 39 df 3c bd
       -0.3463241 0.29187277 0.5834389 -0.04611132
000220 96 70 42 3e 1e db e1 be 66 bf 83 3e b6 53 4c 3e
       0.1898826 -0.44112486 0.25731963 0.19953808
000230 3a 8e 85 be 67 49 b1 3d 49 ae 9c be ef 69 3c 3e
       -0.26085073 0.086565785 -0.3060172 0.18399785
000240 28 ce e1 be 59 ba f9 3c ab f2 f3 3e e0 ff 35 3d
       -0.44102597 0.030484365 0.47646078 0.044433475
000250 7f 98 88 3e cd e1 ed 3d a4 59 11 3e 2a da d0 3a
       0.26678845 0.11615334 0.14194351 0.0015934159
000260 a5 c8 02 be 8c 12 5b 3e d8 53 34 3e 1b bb a9 3e
       -0.12771852 0.21393794 0.17610109 0.33150563
000270 7c 1d d1 3c 5d 07 b0 3e 45 25 0e 3d 08 08 35 be
       0.025526755 0.34380618 0.03470351 -0.17678845
000280 ba 4b 14 be f9 71 2d be 22 15 a2 3d a4 e7 b2 bd
       -0.14482012 -0.16938008 0.07914187 -0.08735588
000290 67 2d 04 3e 96 d8 02 be c8 44 0a c0 1a 72 b8 3e
       0.12907945 -0.12777933 -2.160448 0.36024553
0002a0 51 fa b3 3d 70 c8 fc 3d a4 63 d3 be c5 f1 c0 3d
       0.087879784 0.12342918 -0.41286957 0.09421114
0002b0 b6 82 a2 3d 5e 3d 68 3d 1e c2 d3 3e f4 7b 1a 3e
       0.079350874 0.05669915 0.41359037 0.15086347
0002c0 96 d5 31 3f cc 4c 03 be 88 35 80 be fb f6 74 3d
       0.6946653 -0.12822264 -0.2504084 0.05980585
0002d0 ba 87 74 be f9 98 ba bc e5 98 1e 3e c6 90 b1 3e
       -0.238799 -0.022778021 0.15488012 0.34680766
0002e0 05 4a 0c 3f a0 f0 7b 3e 97 69 3a 3e 3e fc 91 3e
       0.54800445 0.2460351 0.18204342 0.28512758
0002f0 c1 42 10 bf e0 46 09 c0 f8 ed d7 3d ae a9 29 3e
       -0.5635186 -2.1449509 0.10543436 0.16568634
000300 3f 8c 8a 3e 4e 9e 6c 3d b7 eb 01 be 6b 45 c8 3e
       0.27060124 0.05776816 -0.12687574 0.39115462
000310 1c 46 89 3d 87 dd 29 3e 24 27 1f 3e e5 da 8a 3d
       0.067028254 0.16588412 0.15542275 0.06780032
000320 2d ce 8c bd 1b 9c 2c bf d9 cb e5 3d 2f 27 2e 3e
       -0.068752624 -0.674257 0.112205215 0.17007135
000330 52 4a 69 be be 45 08 be 53 40 24 bf 18 24 e6 be
       -0.22782257 -0.13307855 -0.6416065 -0.44949412
000340 ab 9e 90 be 05 03 a3 bd 10 77 4e 3d c8 d2 df bd
       -0.28246054 -0.0795956 0.050406516 -0.10928875
000350 73 82 15 3d af 70 7c 3e 8a d5 2f 3e 5c 3a b2 3e
       0.03650136 0.2465236 0.17171302 0.3481015
000360 3b 30 76 be 1e 61 67 bd c2 32 95 3e 7a 8d 77 3e
       -0.24041836 -0.056489103 0.29140288 0.24175063
000370 04 5b d0 3c 86 78 b1 3d 44 7f 47 be fd 75 a6 3d
       0.025434025 0.08665566 -0.19482142 0.08127973
000380 f7 73 a7 3e 0a 7e 2a bc 08 30 03 be 7b dc 58 3e
       0.32705662 -0.010406027 -0.12811291 0.21177857
000390 81 57 6c 3e 4a b2 12 3d 69 ef b6 be 91 ff ab be
       0.23080255 0.03581456 -0.3572953 -0.3359342
0003a0 51 67 41 be 17 2f 85 3c 46 da 40 3e e2 af 2b be
       -0.18887068 0.016257806 0.18833265 -0.16766313
0003b0 1f da aa 3e 21 22 01 bf 92 52 31 bf 9e bd 28 3d
       0.33369538 -0.504427 -0.6926662 0.041196458
0003c0 c5 92 5c be c5 fe 07 be 92 c3 b4 bd 7a cf 15 be
       -0.21540363 -0.1328078 -0.088263646 -0.14629927
0003d0 91 c9 a7 3e a5 1f 15 bd e9 74 55 be c7 52 12 bf
       0.3277097 -0.03640713 -0.20845379 -0.5715756
0003e0 5e 2a e9 3e 46 ed 43 be 5b e0 88 be 95 c8 a5 be
       0.45540136 -0.19133481 -0.2673367 -0.32379594
0003f0 60 83 47 bf b5 dd e3 be 61 91 1e be 94 ff b4 3e
       -0.7793484 -0.44505087 -0.15485145 0.3535124

t_conv2.bias f4 [16]
000000 71 85 48 3d 58 2d bb 3b fb 63 98 bd 6e 08 f0 3c
       0.048955385 0.0057121925 -0.07440945 0.029300895
000010 3a 82 0f 3b 81 7b 9b 3d bb 3e da 3d b0 6e 59 be
       0.002189769 0.07591916 0.10656496 -0.2123363
000020 4c f2 89 be 8e 6f 22 bf ad 28 14 3e 02 6a d6 bd
       -0.2694267 -0.6345147 0.14468642 -0.10469438
000030 1e c4 24 3d 56 be 02 be 7b b3 32 3d 76 ea 86 be
       0.040226094 -0.1276792 0.043628197 -0.26350754

t_conv3.weight f4 [16, 32, 2]
000000 bf 94 52 3e 52 f5 0d 3e cc e4 9a 3e 78 6e 25 3e
       0.20564555 0.13863114 0.30252683 0.16155422
000010 79 a9 b2 bd 5f 2e a6 be f1 e3 a3 bd f5 26 38 be
       -0.087237306 -0.32457253 -0.08002461 -0.17983611
000020 42 cc 08 be e1 26 e2 be c2 c2 0b bd 08 48 be 3d
       -0.13359168 -0.44170287 -0.034121282 0.092910826
000030 8c 00 bb b9 bb 78 ac bc fc 81 93 3d b2 55 a6 bd
       -0.00035667827 -0.021053663 0.07202527 -0.08121814
000040 1c 9c 6a 3e 98 06 a3 3c 4e 26 0c bc f4 b9 c0 bc
       0.22911114 0.019900605 -0.008554054 -0.02352617
000050 f7 3c 72 3e a5 fd 29 3e 29 53 a8 3e 4d af 8b 3e
       0.23656069 0.16600664 0.32875946 0.2728218
000060 c3 a5 60 3d 42 18 89 3e e3 f1 28 bd ca 04 a6 3e
       0.054845583 0.2677632 -0.041246306 0.3242553
000070 7a 91 2d be 7f 9b b1 be ec 83 3d 3e 37 5c a0 bd
       -0.16950026 -0.34688947 0.18507355 -0.078300886
000080 cc c5 68 3d 2c 0c 2f bf f6 7e 73 be fd 3a 20 be
       0.05682926 -0.6837795 -0.237789 -0.15647502
000090 9f 39 7d 3e 4b dd d2 3d 6a 9d 8a be 13 2c 2f be
       0.24729012 0.102961145 -0.27073222 -0.17106657
0000a0 e2 a1 2b bf bc 90 a5 be 6f f9 4f 3e 24 22 46 bd
       -0.6704389 -0.32336986 0.20309995 -0.048372403
0000b0 9d 0c db ba 0b 5a 40 bf 27 66 91 bd b9 aa c1 bf
       -0.0016712133 -0.75137395 -0.07099562 -1.5130225
0000c0 5d d0 56 3e ad 4c 71 3e da 88 f6 3d 87 47 14 3e
       0.20977922 0.23564406 0.12037821 0.1448041
0000d0 7c bb 26 3d 6c 63 f7 3d 97 8e d4 be f9 c7 a4 3d
       0.040706143 0.1207951 -0.41515037 0.08045954
0000e0 36 69 90 bd 91 52 8b 3e 5c 60 67 3e ed 86 1f 3d
       -0.070513174 0.2721143 0.22595352 0.038947035
0000f0 30 16 e5 3c ea 17 38 3e 5a b0 a4 3e 06 c1 73 ba
       0.027964681 0.17977872 0.32165796 -0.0009298477
000100 35 5d 31 3d 4a aa 65 3e 8c 01 d2 bc 9c 8b 51 bd
       0.04330178 0.22428241 -0.025635503 -0.051158533
000110 73 df 47 bd eb a9 d7 3c 67 c5 38 bf c5 1d 0c bf
       -0.048797082 0.02632614 -0.7217621 -0.54732925
000120 8b 9f ec bd 17 6c fd bd 4b b6 c2 bd 50 3b 3c 3d
       -0.11553868 -0.12374132 -0.09507426 0.045955002
000130 12 24 99 3d a1 09 a0 3d 82 84 ca ba 22 12 0e 3d
       0.07477583 0.078143366 -0.0015450867 0.03468526
000140 9e b8 da 3d 50 50 1e 3e 82 60 5b 3c b6 05 b1 bc
       0.10679744 0.15460324 0.0133897085 -0.021609168
000150 a4 31 2a 3e 11 62 96 3d 5b e2 72 3e 5c 5f 40 3e
       0.16620499 0.073429234 0.2371916 0.18786377
000160 75 2f 0c 3d 47 8e 5a 3e 90 fa 04 bd e9 22 7a 3e
       0.034224946 0.21343337 -0.032465518 0.2442738
000170 3f 02 b1 bd e0 78 29 be e2 60 87 3e d9 5c bf be
       -0.086430065 -0.16550016 0.26441103 -0.37375525
000180 8e 36 91 bd 69 79 a4 3f c3 d3 41 be cc 35 3f 3e
       -0.070904836 1.2849551 -0.18928437 0.18672866
000190 78 3d 12 3e ba e1 7a 3e b1 42 ab be 60 65 89 be
       0.14281261 0.2450017 -0.3344932 -0.26835155
0001a0 b2 0c d1 3e 99 52 0c 3e 77 2c 35 3e 56 77 48 bc
       0.40829998 0.13703384 0.17692743 -0.012235483
0001b0 fa 67 b7 3d ef ef da be df dd 60 bd 79 87 6f bf
       0.08955379 -0.4276118 -0.054899093 -0.9356609
0001c0 3a 52 d8 3d 83 15 33 3e 65 1c 95 3e ff ff 0a 3f
       0.105625585 0.17488675 0.29123226 0.5429687
0001d0 07 a5 91 3d a5 01 14 3e a3 37 0f 3e 8d 57 54 bd
       0.071115546 0.14453752 0.13986067 -0.051841307
0001e0 28 f6 7a bd de e8 99 be 86 76 19 bd f6 78 c3 bd
       -0.06126991 -0.30060476 -0.03746655 -0.09544556
0001f0 c8 12 51 3d 8a d6 ab bd b1 36 38 bc ec ab 6b 3e
       0.0510433 -0.083905295 -0.011243508 0.23014802
000200 4f 8d a7 3d a6 e7 f5 3d c5 e7 01 3e 3b 39 5a be
       0.08181249 0.12007074 0.1268607 -0.21310894
000210 09 d5 fa bc 36 1a 81 3e e3 dc 91 bf 62 2a 26 3e
       -0.030619161 0.2521531 -1.1395534 0.16227105
000220 01 eb dc 3c ce 3a 77 be 56 fe 07 be 2c 8d a2 be
       0.026967527 -0.24143526 -0.13280615 -0.3174833
000230 a7 cc 23 bd 5e e2 24 bd 1c 04 f6 bc 84 1e 72 3d
       -0.039990094 -0.040254943 -0.030031256 0.059111133
000240 af 75 27 3e 4a 1a a2 bd fa a1 aa 3d eb 63 c3 3d
       0.16353486 -0.079151705 0.08331676 0.09540542
000250 73 a7 47 3c b1 32 0c 3e b6 cf 0b 3d b9 ff 18 3e
       0.012185919 0.13691212 0.034133635 0.149413
000260 52 bc 38 3d 85 c4 26 3e 40 5e 0c be 24 05 75 3e
       0.04510147 0.16285904 -0.13707829 0.23927742
000270 91 7b 35 be 9c 21 8f be 51 d6 ce 3d f2 7f b0 be
       -0.17722918 -0.2795533 0.10099471 -0.34472615
000280 65 4e d7 be f9 79 81 be db 08 52 be b9 84 a7 be
       -0.42051998 -0.2528837 -0.2051119 -0.32718447
000290 d5 5f a3 3d 87 25 69 3e eb 6e c0 bc 7c 53 29 bd
       0.07977263 0.22768222 -0.02349039 -0.041339383
0002a0 40 9a 95 bf 61 3a 0a bf 8c df 17 bd 71 89 b6 be
       -1.1687698 -0.5399533 -0.037078425 -0.35651734
0002b0 27 db 8f 3c 7a 99 00 3f 05 16 3b 3d 54 16 5f 3e
       0.017560555 0.50234187 0.045675296 0.21785861
0002c0 37 2b 26 3c da b5 85 3d ca e7 8f 3e 30 88 85 3e
       0.010142139 0.06528826 0.2810653 0.26080465
0002d0 80 94 13 3d c4 64 ef 3d 1a 49 f5 3c 34 8c 1d 3e
       0.036030293 0.116891414 0.029942084 0.15385514
0002e0 e0 3e ed bd de d0 85 3e 13 4c 9c 3e 14 0e 76 bb
       -0.11584258 0.26135916 0.3052679 -0.0037545012
0002f0 d6 c7 c0 bd e5 1c 8e 3e 6f 8c b0 bc 80 3d 59 bd
       -0.09413116 0.2775642 -0.021551339 -0.053037167
000300 3a f3 57 3d 03 fb 7f be f9 1c 22 bf 9a b1 c5 bc
       0.052722193 -0.24998097 -0.6332546 -0.024132539
000310 bc 28 9c 3d e7 72 d6 3d 8d 60 9d 3e 4b 13 97 3e
       0.07624957 0.10471135 0.30737725 0.29506907
000320 e6 10 23 be 96 c9 29 3e 92 27 cc bc 78 8e 94 be
       -0.15924415 0.16580805 -0.024921212 -0.29014945
000330 58 aa 15 3e df 25 ba be 56 2b 6e be 82 34 ab 3d
       0.14615762 -0.36357018 -0.23258719 0.083596244
000340 d3 12 d8 bd bf 13 ac 3d c6 f6 09 3e 3b 6c 4c 3e
       -0.105504654 0.08402204 0.13473043 0.19963162
000350 b9 88 45 3e f6 be 5a be 61 18 5c 3e 04 a2 99 3c
       0.19290437 -0.21361908 0.21493675 0.018754013
000360 64 e0 d8 3d a0 a8 90 bc 59 32 8a be 6b cf 86 bd
       0.10589674 -0.017658532 -0.26991537 -0.065825306
000370 8b db 85 3e a3 32 57 3e 93 c2 a0 be f9 e6 1a bf
       0.2614406 0.2101541 -0.31398448 -0.60508686
000380 85 1d 73 bf 40 3e a2 bd 06 ce a8 3e ed ba 91 3d
       -0.9496692 -0.079220295 0.32969683 0.071157314
000390 ac 4f 85 3c 99 2f 08 3d ab 03 a9 3e 65 83 9d 3e
       0.016273342 0.033248518 0.3301061 0.3076431
0003a0 2c 7f 16 bd 82 4a 0d be a7 37 03 3f 88 2e b3 3c
       -0.036742374 -0.13797954 0.51256794 0.021872774
0003b0 71 ec f4 ba 72 93 aa 3e 91 8d 0d be 9c a7 a0 bd
       -0.0018686188 0.33315617 -0.13823535 -0.07844469
0003c0 5c b5 7f 3d f3 1f 2c 3e 5d 04 1f be 1d d0 7b bd
       0.062428817 0.16809063 -0.15529008 -0.06147777
0003d0 28 7b 98 ba 76 0b 0c be 55 17 89 be e8 1f 2b 3e
       -0.0011633383 -0.13676247 -0.26775613 0.1671139
0003e0 e2 38 e7 bd ee 16 5d 3d 3d 48 5d be 10 0e 5d bd
       -0.112901464 0.053976946 -0.21609588 -0.05396849
0003f0 5a 3e aa bd 57 0e ef be c7 7d 66 bf 87 ad 4d bd
       -0.08312674 -0.46690628 -0.9003567 -0.050214317

t_conv3.bias f4 [32]
000000 9c 41 30 3e 8e 82 cc 3d 53 83 94 bd 71 80 64 bd
       0.17212528 0.09985839 -0.072516106 -0.055786554
000010 aa c1 1a be 9b 18 96 3c aa f7 04 3e b3 a6 d8 3c
       -0.1511294 0.01832228 0.12985101 0.026446676
000020 7c 26 11 3e fd 9f 83 3d c3 cc 2f 3e 8a b6 11 3e
       0.14174837 0.06427 0.17167954 0.1422979
000030 b2 90 31 3e 48 ae 39 3e 7b 7d 26 bd 29 43 1c bc
       0.17340353 0.1813289 -0.04064701 -0.009537497
000040 92 68 58 3d 16 26 da 3d c6 a5 68 3e 7a b9 6f 3b
       0.0528341 0.106517956 0.22719488 0.0036579059
000050 a1 fa 38 3e 47 47 14 bf 41 69 ce be e4 07 66 be
       0.18064357 -0.5792126 -0.40314677 -0.22463948
000060 df 4a 10 3e 47 1c 1c 3c d4 6e 23 3c 0f 9a 40 3d
       0.14091061 0.009528226 0.009975154 0.04702192
000070 5d 08 bc be 9d 9b 8c be 85 90 ad be c5 c6 4b 3d
       -0.3672513 -0.27462474 -0.33899322 0.04975011

conv_out.weight f4 [1, 32, 3]
000000 62 74 f4 bd 49 c5 db bd dd ff 8c bd a8 54 45 be
       -0.11936261 -0.107309885 -0.068847395 -0.19270575
000010 e7 4a ee bc 88 ae 14 3e 24 a9 69 3e 77 ba de 3d
       -0.02908845 0.14519703 0.22818428 0.10875409
000020 fa 4f d3 bb 30 6c c7 bd 08 b5 15 bf e7 7f 17 bf
       -0.006448743 -0.09737432 -0.58479357 -0.5917954
000030 be 08 17 bf 19 d4 1b bf 58 aa d5 be 99 8d 1b bd
       -0.58997715 -0.6087051 -0.41731524 -0.037976835
000040 2b 97 14 3e b8 32 51 bd 2b c4 00 3d e2 ae e6 bd
       0.14510791 -0.05107376 0.03143708 -0.11263825
000050 33 b9 87 bd 19 85 a8 bb 25 4a 09 3e 6c 4f 22 be
       -0.06627121 -0.0051428196 0.1340719 -0.1585061
000060 c9 a5 21 be 33 f7 9d 3c d8 6f 1a be 92 05 f6 bd
       -0.15785898 0.019282913 -0.15081728 -0.12012781
000070 95 70 a0 3d ef f1 be bd f4 05 2f bd 8b a2 23 be
       0.07833973 -0.09323489 -0.042730287 -0.15979974
000080 ad 25 48 be 54 78 72 be b8 e3 38 be a1 b1 2e be
       -0.19545622 -0.23678714 -0.18055618 -0.17059948
000090 b2 57 47 be 83 61 2e be a7 4c 72 bd cb a8 8c be
       -0.19467047 -0.17029385 -0.059155133 -0.2747253
0000a0 dc 18 b5 bd 34 61 67 3c b7 21 3c 3e 71 1e 19 3d
       -0.08842632 0.014122296 0.18372236 0.037382547
0000b0 fe a9 55 3e 27 36 62 3e b2 85 23 be 42 9c 81 be
       0.20865628 0.2209097 -0.1596897 -0.25314528
0000c0 0e af 84 3e 0e f7 5a 3d a5 83 b4 be 3e b0 4e 3e
       0.25914806 0.053458266 -0.35256687 0.20184419
0000d0 bb e6 0f 3e 1e 59 97 3e a4 49 58 be 96 17 ef bd
       0.1405286 0.2956018 -0.21121842 -0.116744205
0000e0 b4 3d 5a be 0f 1f d5 3d 99 13 fb 3d 8c ac 2e 3e
       -0.213126 0.104063146 0.12259597 0.17058009
0000f0 62 7f 20 3e 7b 61 8b 3d 71 df a7 be e1 a5 da 3e
       0.15673593 0.06805702 -0.3278766 0.4270468
000100 0b 5c 77 3f 6f e8 54 3f 8b 1b 9d bf cd 23 d6 bf
       0.9662482 0.83167166 -1.227403 -1.6729676
000110 64 e6 54 be e7 6a d4 3d f0 aa 3b 3e 05 eb 91 3e
       -0.20791012 0.103719525 0.18326926 0.28499618
000120 64 de 2f be 44 ed 1a bc 78 94 00 be 62 16 fa be
       -0.17174679 -0.009455983 -0.12556636 -0.48845202
000130 57 40 6b be 97 8b 09 be f7 18 94 bd 11 9a e2 3d
       -0.22973762 -0.13432156 -0.07231324 0.11064542
000140 df e5 07 be 48 ee 99 be c5 8c a3 3e cd f8 8b bc
       -0.13271283 -0.30064607 0.31943336 -0.01708641
000150 d5 4e f4 3e 61 40 08 3f 02 9f a3 3e d6 96 02 3e
       0.47716394 0.53223234 0.3195725 0.12752852
000160 34 09 af 3d 99 da 02 3f ca 19 8c 3f 69 e5 86 3f
       0.08546677 0.51114804 1.094537 1.053876
000170 c7 3d 3a 3f ad 91 67 be a4 c9 96 3b d8 8b 71 3e
       0.72750515 -0.22614165 0.004601674 0.23588502
