dAE_PyTorch/checkpoints/spectra_dae_epoch_15.pth (torch, 18875 bytes, 13 tensors)

conv1.weight f4 [32, 1, 3]
00000000: 3bfa 1d3f db76 0d3f 70c5 e0bd eea8 e0bd
00000010: dd0a 25be 2f90 013f c016 25bf 6d88 203f
00000020: b9c3 5f3c 20ce e9bc 7bb2 22bd 2bf7 493f
00000030: c09d 063f bcee e8bd 60e1 35be c8bd d63a
00000040: 0fd1 34bf c087 e53e 4f96 0ebf 9db5 16bf
00000050: b765 923e 2723 2f3f 92ff 2d3e 2f11 14bf
00000060: e34f 4dbc 7362 83bf 7721 643b 217f 3c3c
00000070: a1ca cd3e a4c5 fa3e 1c3c f0be 0aec 973e
00000080: b7a3 16bf 30e6 1abf bcb6 7dbc 4272 183f
00000090: 65a0 683e be87 043e 32e6 cd3e db80 013f
000000a0: 329f cdbe 1e3c 34bf e5aa 153f 7dde 96bd
000000b0: 12e4 863e 77a7 3abe 39e1 303f 077f bebe
000000c0: b959 093b 1ee2 94bf e8fb 073b c9c0 913e
000000d0: bd2b 753e aa44 8d3e 0d6e 70bf b309 a13d
000000e0: e984 353d e03e b73e a7c9 6b3e cd7f 9c3e
000000f0: 8f3d 023e 4403 853e 95b9 08be cb3d 5dbf
00000100: 1709 583c c77e 5b3b 1292 463f e624 a9be
00000110: dd10 09be 52ef f6be 9ab8 24bf f9ba 24bf
00000120: dfb6 02bf 0a09 2abf e033 563d b704 d8be
00000130: a302 d8be ed1d 10bf d7bb b0be 86dd ffbe
00000140: bd14 c9be 78e1 2a3e f8f9 a93e f79d bdbf
00000150: 201f 85be 0a0a a1be d044 3abf d330 6abd
00000160: 39be 613e fff6 5abf 3f5f b7bc d045 503f
00000170: 3fe1 ecbc fc0c a7bf f265 5f3e 315d e83d
0.61709946 0.55259484 -0.10975158 -0.10969721 -0.16117425 0.5061063 -0.6448784 0.6270817
0.013657504 -0.02854067 -0.039720993 0.78892773 0.5258446 -0.1137366 -0.17761755 0.0016383464
-0.706315 0.44830132 -0.556981 -0.5887087 0.28593227 0.68413013 0.16992024 -0.5783872
-0.0125312535 -1.0264419 0.0034809986 0.011504919 0.40193656 0.48978913 -0.4692086 0.2967227
-0.5884356 -0.6050749 -0.015485462 0.59549344 0.22717436 0.12942407 0.40214688 0.5058724
-0.4016052 -0.7040423 0.5846389 -0.07366655 0.2634588 -0.18227945 0.6909366 -0.3720629
0.002095802 -1.1631505 0.0020749513 0.28467396 0.23942466 0.2759145 -0.93917924 0.07863178
0.044316206 0.35790157 0.23026143 0.30566254 0.12718795 0.25979054 -0.13352044 -0.86422414
0.013185761 0.0033492313 0.77566636 -0.33035964 -0.13385339 -0.48229462 -0.6434418 -0.643478
-0.5106029 -0.6642004 0.052295566 -0.42191097 -0.42189512 -0.56295663 -0.3451831 -0.49973696
-0.39273635 0.16687572 0.33198524 -1.4813832 -0.2600031 -0.31452972 -0.7276125 -0.05717547
0.2204522 -0.85533136 -0.022384284 0.81356525 -0.028916 -1.3050838 0.21816233 0.113459

conv1.bias f4 [32]
00000000: f99c 53be 51b6 92bd 83d7 1dbd 99b9 35bf
00000010: 604a 96be 8f47 a6bb 3d56 613e ca01 6bbe
00000020: 7f6e 573e 8e62 a5be 45d7 ae3e 8f58 b0bd
00000030: d360 e2be dd72 0e3e c711 69be 1acf dbbe
00000040: efb9 b83d 55de 79be 57fb a73e d0e1 28bf
00000050: e30d 20be d6a7 883e 26f4 bfbe 31a9 6ebd
00000060: 21ca 243f c334 eebc 7540 de3e 2444 09be
00000070: 2683 a6be 0c42 703e a676 3fbf b130 a3bd
-0.20665349 -0.0716368 -0.038535606 -0.70986325 -0.2935362 -0.0050744484 0.22005554 -0.22949901
0.21038245 -0.32301754 0.34148613 -0.08610641 -0.44214496 0.13911004 -0.22760688 -0.42931443
0.09019839 -0.24401219 0.32808945 -0.6596956 -0.15630297 0.2669055 -0.37490958 -0.058266822
0.64370924 -0.029077893 0.43408552 -0.134049 -0.32521933 0.23462695 -0.7479042 -0.079682715

conv2.weight f4 [16, 32, 3]
00000000: 7578 35bd e06b d23d 0d12 ba3c a229 523d
00000010: b7fc 2ebe 5f27 773e 88b3 803e 0971 ed3d
00000020: 5352 723d ad11 123f 607a 9c3f 7b69 2440
00000030: adb7 06bd 3337 0dbd 7595 773d 66c1 f7be
00000040: 61ae 5fbe 9fe8 0ebe 744c 85be dcb9 86be
00000050: fcf4 45be 8cda 27be 7596 203e 3126 87be
00000060: ad48 23be ee1e 48bd 0445 3fbe 1055 ef3c
00000070: 9c81 283d 1616 d23e 2ea9 c23d d06f 1a3e
00000080: 4028 14bf 693d 803e e267 d23e 0657 6f3d
00000090: 6556 aebc b0bf 6c3e 983b 1e3f 9d60 fbbc
000000a0: 013a 883e 7948 e5be 21d9 0dbe 432a 233d
000000b0: 8f5f 783e ddd0 123e fb4b b33d ed6a 363d
000000c0: 5353 90be 61fb abbe 9a7c 7abe 9f61 27be
000000d0: 9524 ad3d fde4 463e 6d81 713e b48d f53d
000000e0: d237 0ebe 0e7a 9bbe c303 073f 1d0a 6c3e
000000f0: ea5e 84be ff86 743e 4f06 3bbd ac2e eebd
00000100: 8e40 18be 4c51 593e 0643 a9be effa 85bd
00000110: aea5 12be 43ed c6bd 8f96 d4bd 0903 5fbe
00000120: 56f1 653b 0f79 9cbc 08ef 77be ee34 d8bd
00000130: 0657 67be 7f36 81be 572c 833e 6bbd debe
00000140: d531 1dbe 5725 5dbe ac6e ec3c 17b6 a4be
00000150: de35 9fbc ad06 d8bc 4705 a4be d3ce c4bc
00000160: cc80 903e b5fc aabf a7cc 373f 67f2 fe3e
00000170: 1cda cb3f 2d59 00bf 92f9 82be 0bde e4bd
00000180: 195c c5bb ce07 073d a8f6 df3d e0be 78be
00000190: 59bc 89bd 5b64 a53e e24f 68be 6da6 2a3e
000001a0: 5e2b b73b d2f7 c43e 3be2 43be d64f 6c3f
000001b0: 5681 1e3e 04d5 1a3b e378 4ebe 8d9a aa3c
000001c0: b752 2a3e c412 023d 666b 4e3e 4cf4 02be
000001d0: 4d46 cf3d c182 513e f94f cebd 8b2f 03bf
000001e0: da5f 8c3e 76d7 8f3e 8210 d53d 3846 6bbd
000001f0: 453e 68bd add8 b63e d483 fbbd 65c7 573e
00000200: 4b12 bdbe 1506 8ebe 7304 f43e 09a1 063e
00000210: a898 9bbd 1c67 b7bd 28e2 803e 4512 183d
00000220: 542b 163f 51ba 52bf 1be4 693d cbcb 113d
00000230: 0ae3 133e 273e 433e dd28 113d 53d3 02be
00000240: 207d 07be 0d22 28be 201c 84be 235e 07bd
00000250: 7d0d 103d 98fb 6d3e d1e6 17be cbf3 053e
00000260: 9daa 4d3e 1c2c 0ebf bfb5 03bf dfca 6bbe
00000270: fc99 803e b22c b1be eedd 69be 2a2a ca3e
00000280: e8a5 753d 7f38 8f3c 5d0e 9a3e 3640 36bd
00000290: 5f93 13bf 68bb c5bd 98a7 12be 6283 0ebe
000002a0: 8dff 37be c1f8 1fbd 5b16 0ebe f290 efbd
000002b0: bd4d eabd 8b68 29be 268b de3e e231 d83c
000002c0: f753 82be f4cf 533c c4cb 02be 8127 7bbe
000002d0: 339b 123c 6b9d 1dbd c3b1 5fbe e8bd 5b3c
000002e0: bf5b d33e 4ddc 55bf d8eb 2c3f 499b d1bd
000002f0: c39e eabd 7a58 99be 1df7 8a3e 2060 903e
00000300: abc7 d6bd c39a e73d 7fe4 babd 766d a7be
00000310: b68a 53be 53c9 4b3e 813c 0abe ecc6 e7bd
00000320: e3f9 c03c 80a1 cabe 0b7f 02bf 225c 0b3e
00000330: aeaf 83be c51c 40be d357 a23e ca14 08bf
00000340: 788f b9be 5512 c23d 899d 09bd 2103 77bb
00000350: 795a 24bf 0f5d 7d3d a705 44be c4d4 3b3e
00000360: ed89 9dbe 9207 80be 8aed 02be 3e2c 9dbd
00000370: ada3 0b3e baf7 933d 1732 603e c6c7 973e
00000380: d995 27bf 9e44 353e 6a63 84be 041f e4bd
00000390: 90f2 22bc 6588 ed3d 176e 333e 2aa7 3bbe
000003a0: 6e6e c23f dc45 c7be 54d6 123b 79c5 223b
000003b0: 0db5 073e 6ff9 b5bd 902d 32be 5899 df3e
000003c0: 7a0a f93f 329b 503e 52e5 0e3f ef86 273d
000003d0: 5311 363e dcda ecbc 8673 2a3d 4f02 973c
000003e0: cf85 5abf be61 e2bd 0f82 e8bd 92b9 b93e
000003f0: 25b7 edbd 8a59 03be 3905 213e 9f90 623d
-0.04430433 0.10274482 0.022713685 0.051309235 -0.1708859 0.24136113 0.2513697 0.11593825
0.05916054 0.5705822 1.2224846 2.568938 -0.03289001 -0.03447647 0.060445268 -0.4838974
-0.21843864 -0.13955925 -0.26034892 -0.26313674 -0.19331735 -0.16391963 0.15682395 -0.26396325
-0.15945692 -0.04885762 -0.18678671 0.029215366 0.04113923 0.41032475 0.09504925 0.15081716
-0.57873917 0.25046852 0.4109488 0.0584326 -0.02128143 0.23119998 0.6180968 -0.030685717
0.26606753 -0.44781855 -0.1385236 0.039835226 0.24255203 0.14337488 0.087547265 0.044535566
-0.2818857 -0.33590224 -0.24461594 -0.16345833 0.08454243 0.1942329 0.23584528 0.11989918
-0.13888481 -0.30366558 0.52740115 0.23050733 -0.25853664 0.23879622 -0.045660313 -0.11629996
-0.14868376 0.21222419 -0.33058947 -0.065420024 -0.14321014 -0.09713223 -0.10380279 -0.21778502
0.0035086474 -0.019100694 -0.24212277 -0.105569705 -0.2259179 -0.2523689 0.25619766 -0.4350389
-0.1535104 -0.21596275 0.028861366 -0.32170174 -0.019434866 -0.02637037 -0.32035276 -0.024024403
0.28223264 -1.335837 0.7179665 0.49794313 1.5925937 -0.5013607 -0.25581032 -0.11175164
-0.006022942 0.032966428 0.10935718 -0.24291563 -0.067253776 0.32303128 -0.22686723 0.16665049
0.0055898866 0.38470322 -0.19129269 0.9230932 0.15479025 0.0023625502 -0.20163302 0.020825649
0.16633116 0.031756178 0.20158157 -0.12788504 0.10120831 0.20460035 -0.10073847 -0.5124442
0.2741688 0.2809407 0.10403539 -0.057440013 -0.05670001 0.35712186 -0.122810036 0.21072157
-0.3692802 -0.27739015 0.47659644 0.13147368 -0.07597476 -0.089552134 0.25172544 0.0371268
0.58659863 -0.82315546 0.057102304 0.035594743 0.14442077 0.19066678 0.03543936 -0.12775926
-0.13231325 -0.1641924 -0.25802708 -0.03304876 0.035169113 0.23240507 -0.14834143 0.13081281
0.20084615 -0.55536056 -0.514492 -0.23026608 0.2511748 -0.34604412 -0.22838566 0.39485294
0.059972674 0.017482994 0.30089083 -0.04449483 -0.57646745 -0.096548855 -0.14321744 -0.13917306
-0.17968579 -0.03905559 -0.13875715 -0.11697568 -0.11440609 -0.16543786 0.43465537 0.026390973
-0.25454685 0.012927998 -0.12773043 -0.24526788 0.008948135 -0.038480204 -0.21845154 0.013411976
0.41280934 -0.8353928 0.6754737 -0.102346964 -0.11456063 -0.29950315 0.27141657 0.28198338
-0.104873024 0.11308815 -0.091256134 -0.327007 -0.20658383 0.19901018 -0.13499643 -0.11317238
0.023556655 -0.3957634 -0.509751 0.13609365 -0.2571997 -0.18760975 0.3170763 -0.5315672
-0.3624227 0.09476153 -0.033597503 -0.0037691074 -0.6420055 0.061856326 -0.19142781 0.18342882
-0.30769292 -0.25005776 -0.12785926 -0.07674454 0.13636656 0.072249845 0.21894108 0.29644603
-0.65463024 0.17701957 -0.25857097 -0.11138728 -0.009945527 0.11598281 0.17522465 -0.18325487
1.518995 -0.38920486 0.0022405582 0.002483694 0.13252659 -0.08885466 -0.17400193 0.4367168
1.9456322 0.20371702 0.55818665 0.040900167 0.17780046 -0.028912954 0.041614078 0.018433718
-0.85360426 -0.11053799 -0.11352932 0.3627439 -0.11607198 -0.12827125 0.15724649 0.055313703

conv2.bias f4 [16]
00000000: e7e7 e2bd 7127 76bd d193 783d 8a78 3bbd
00000010: 6427 dc3d eec9 5fbd ff96 06be 2148 68bd
00000020: d4cb 313e 2cde 833c 48df 503d eed1 0e3d
00000030: 2909 7d3d 5a5e d4be 7cf1 63bd 70a3 663e
-0.11079388 -0.060096208 0.060687844 -0.045769252 0.10749701 -0.054635935 -0.13143538 -0.056709412
0.1736291 0.01609715 0.050994188 0.034868173 0.061776314 -0.41478235 -0.05565022 0.22523284

conv3.weight f4 [8, 16, 3]
00000000: 66b5 5ebe 94df 1ebd 1e39 b6be f715 c6bd
00000010: 1e21 1f3e dc8c b4be fd80 7d3f bd22 4c3e
00000020: 75fd 9c3f b41a 1f3e 7088 0abe 35dc debc
00000030: 6fc1 413d 8648 83bd 902b 9e3e 3e08 6a3e
00000040: e0b1 26be 705e 1dbe f908 80be 189a e5bd
00000050: cf8d e4be a0d8 b73e 106a a7bd b552 b23e
00000060: e6c4 243e 1a9e 163e 971b 193e 7363 bc3d
00000070: 5029 3e3e f893 abbd fa5b af3e 3d7b f53d
00000080: 8718 d33e cae4 a8bf 2821 7abe 20f1 a3be
00000090: 8845 5e3e 9384 ec3d 9ee6 193c baae b83d
000000a0: d72d 1dbf c7b9 e6be 10fc 6c3e 2614 d7bd
000000b0: 28bb 58be 98fb ed3d b868 bf3d ace0 143f
000000c0: d8d4 3b3d 79cc a0bd 41f8 933e e0a6 303e
000000d0: a85d d5bc 7eef 223e c719 913e 4969 45be
000000e0: 84f4 ca3d 4805 03be df64 333d 9179 c5bd
000000f0: afb4 163d 87c9 d03c 862c 11be 644f 3cbe
00000100: 4e81 b93d 396d 07bd da18 e33d 5911 243e
00000110: 7cd2 7c3d 76f4 123c cae4 5abd e7ec cdbd
00000120: 707c 72be b2b3 61bc 1734 66be dba6 8e3e
00000130: 0962 383e ab6b c93d 7cf0 11bd 7e44 33be
00000140: 0345 6a3d 6448 d33f 0b27 bf3e 2d23 9a3f
00000150: 27b7 863e 4e7c 8b3e 06e7 b53e 5770 923c
00000160: fa76 0d3f 4c5e 043f efe9 c93d deb9 1a3e
00000170: 8b65 90bb 1e93 d4bd 1fb1 623d 80c6 90bd
00000180: b037 a03e f760 8f3e a8dc bfbd 154f 5cbe
00000190: f98e 083e 7513 8f3e 96a1 0c3f 67aa 95bf
000001a0: 01f7 e13f ef64 283e b20a d8bd 54fb ad3c
000001b0: 7bdd 4cbd aba4 03be 4524 883d 7f55 f23e
000001c0: 9f38 40be bc27 4f3e c720 d0be a423 373e
000001d0: 104b dcbc ccbf e53d 7a82 953d 24be 86be
000001e0: a1f8 c73e e4bf 753b 2358 3a3e 4b50 d1bc
000001f0: 3348 163e 4205 a83e 43c2 0b3f 7130 263e
00000200: 6b46 8e3e 24fe 98bf 39d3 153e 8ac7 5bbf
00000210: 5296 5fbd 0fb5 a3bd 1743 84be 6105 76be
00000220: 3667 c9be 8fe4 45be 7e2d 91be d3ce 453d
00000230: 0a7c 143e 5d05 8a3e dced c1bd 5305 c53d
00000240: bdc6 57bc 3624 b6bd 2ec5 e7be 6cf7 ea3d
00000250: 8e53 3c3d fec9 553e d206 bbbe 122a 183f
00000260: b595 a63f e87f cbbd 70cc 9fbc 7e6d 673e
00000270: 9368 7bbd c017 e4bc b078 7f3e dcf9 d9bd
00000280: f4cf 93bd 37a4 c03e 2fd9 103e 76bd 653d
00000290: a565 10be a663 4b3d ef35 c53d 951c a0be
000002a0: d39e f6bd 5994 133e d53d b53d d848 b13d
000002b0: 735a 6abd c80e 153f faa5 5e3e 3451 543d
000002c0: c974 5b3f 003e 19bf 36dd 35bf 1898 babf
000002d0: fcca abbc 0f7b 08be 56b9 c9bd 0596 d83b
000002e0: 2161 3bbf fd70 a2bd c3e5 873e 3cec 25bd
000002f0: 6e4d 363e 3837 7ebe 2ec5 063d af3f 5e3e
00000300: f0a2 ebbd 48d2 933d bc06 12be db92 813e
00000310: 7b6f 1c3d 7b06 e5bb 130c 893f 4d4f 723e
00000320: e00d a13e d655 e8be 734a 58bd b571 ce3c
00000330: acaa b03e 730c 09be 2028 413d 6027 22bc
00000340: 070a 113e 7fb5 cf3d 1932 d23e 1657 ff3d
00000350: 6453 153e de6d 05bf 9f26 38be e297 303d
00000360: 52b8 0abe 3bcd 613c 50f3 91be f7ba 853d
00000370: a443 bc3d ea30 5f3d a357 173f 843b 3bbe
00000380: 06fe 053e baa9 a83f de1e 0f3f 3585 bb3f
00000390: 6eab ac3e af1e 013e 6c70 913d f7cf 3d3f
000003a0: 36e6 053e 2fe2 cdbd 5381 f73e d7fd 893c
000003b0: 18d6 b13d 6282 a8be 768b 27be 2329 ccbd
000003c0: c9b0 2d3d 272b 8e3e 0b77 9abe da79 febd
000003d0: aa9b ba3b f734 98be 811b 783f 875d db3e
000003e0: f96f 923e bae9 b43e f854 5a3e f600 703e
000003f0: eba3 56bb c128 dc3d 4b16 1b3f f5c4 923e
-0.21748886 -0.03878744 -0.35590452 -0.09672158 0.15539977 -0.35263717 0.99024945 0.19935127
1.2264849 0.1553753 -0.1352861 -0.027204612 0.047303613 -0.06410317 0.3089261 0.22854707
-0.16278791 -0.15368056 -0.25006846 -0.11211032 -0.4463944 0.3590746 -0.08174527 0.34828725
0.16090736 0.14708748 0.14951931 0.09198656 0.18570447 -0.08377832 0.3424986 0.119863965
0.4122965 -1.3194821 -0.2442671 -0.320199 0.21706212 0.11548724 0.009393362 0.090177014
-0.6139807 -0.45063612 0.23143029 -0.1050189 -0.21165144 0.11620253 0.093461454 0.5815532
0.04585728 -0.078515 0.2890034 0.17251158 -0.026045635 0.15911672 0.2833998 -0.19278444
0.09909919 -0.12794983 0.04379737 -0.096423276 0.036793407 0.02548672 -0.1417714 -0.1838966
0.09057866 -0.033063147 0.110887244 0.16022243 0.06172417 0.008969417 -0.053440847 -0.10054951
-0.23680282 -0.013775753 -0.22480808 0.27861676 0.18006147 0.09834989 -0.035629734 -0.17506596
0.05719472 1.6506467 0.37334475 1.2041985 0.2631161 0.27243274 0.3552782 0.017875833
0.5525967 0.51706386 0.098590724 0.15109965 -0.004406636 -0.10379623 0.055344697 -0.07069111
0.31292486 0.28003666 -0.09368259 -0.21514542 0.1333579 0.27944532 0.5493406 -1.1692628
1.7653505 0.16444753 -0.10548915 0.021238007 -0.050015908 -0.12855785 0.06647543 0.47330853
-0.18771599 0.20230001 -0.40650007 0.1788469 -0.026891261 0.11218223 0.07300277 -0.2631694
0.39056876 0.003749841 0.18197684 -0.025550982 0.1467598 0.3281651 0.54593295 0.16229416
0.277881 -1.1952558 0.14631356 -0.8585135 -0.054586716 -0.079935186 -0.25832435 -0.2402549
-0.39336556 -0.1932547 -0.2835502 0.048292946 0.14500442 0.26957217 -0.09469196 0.09620156
-0.0131699415 -0.088936254 -0.45267624 0.11472973 0.04597812 0.20877835 -0.3652864 0.59439194
1.3014437 -0.099365056 -0.019506663 0.22600362 -0.061379027 -0.027843356 0.24948382 -0.1064336
-0.07217398 0.37625286 0.14145349 0.056088887 -0.14101274 0.04965558 0.09629428 -0.31271806
-0.12042012 0.14412059 0.08849684 0.08656472 -0.057215165 0.5822568 0.21743003 0.051835254
0.85725075 -0.5986023 -0.71040666 -1.4577665 -0.020970814 -0.13328193 -0.09849803 0.0066096806
-0.7319508 -0.07931707 0.26542482 -0.040508494 0.17802975 -0.24825752 0.03290289 0.21703981
-0.11505687 0.07217842 -0.14260381 0.25307354 0.038192254 -0.006989298 1.070681 0.23663063
0.31455898 -0.45377988 -0.052805375 0.025200704 0.34505212 -0.13383655 0.047157407 -0.009897083
0.14163981 0.101420395 0.41053846 0.12467782 0.14582592 -0.5212077 -0.17983483 0.043113597
-0.13546875 0.013781841 -0.28505945 0.06529801 0.09192589 0.054490007 0.591181 -0.18284422
0.13085184 1.3176796 0.55906475 1.4650027 0.3372454 0.12609361 0.07101521 0.74145454
0.130761 -0.10052907 0.48340854 0.016844673 0.08683413 -0.32911974 -0.16361794 -0.09968784
0.042404924 0.27767298 -0.30168948 -0.12425585 0.005694826 -0.2972791 0.9691697 0.42844793
0.28601053 0.3533457 0.21321476 0.23437867 -0.0032751511 0.10749961 0.6058089 0.2866589

conv3.bias f4 [8]
00000000: 0494 6a3e ada5 8b3e 3228 efba 7b26 9bbc
00000010: 00d8 7ebd df27 0fbe 1f59 65be 00d5 453e
0.22908026 0.27274838 -0.0018246232 -0.018939247 -0.062217712 -0.13980053 -0.22397278 0.19319534

t_conv1.weight f4 [8, 8, 3]
00000000: abfd 7bbf fc0b c5be 4fab c43e 6051 a4be
00000010: 038b 91bd 51b8 debd 9365 2ebe 938c b9be
00000020: 752c 45be 56fb b1bf 1175 9b3e 4225 ad3e
00000030: b2be de3e 527d 773e ed7b 8a3d ba6f 473c
00000040: fb00 6d3c f06a 82c0 8d5d a33d 3261 8d3e
00000050: 2325 873e 8641 9fbc c2d1 f73e 52a2 493e
00000060: 1f9b e5bd ba6b a03d 27b2 ae3e 7621 50be
00000070: 92e6 febc 28f7 c2be 4383 853e 2fef 7e3e
00000080: 16b9 773e 9da3 04bc 8fe3 9bbe 35a8 a7be
00000090: 7064 a9be 3fa0 cbbe 467a 6d3c 39b5 833e
000000a0: 3807 31bd bc98 12c0 fd18 71be c3ff 14bf
000000b0: 4d29 a4bd 44c9 d73e 957b 12bd 07b6 f8be
000000c0: 50f3 82bf 1d71 533e 4733 133f 7854 403e
000000d0: 5786 023e 9a9f 803e a40a a93d d498 94be
000000e0: 1739 a0bc 53d6 fa3e dd91 b03c e56c 263f
000000f0: 21a0 233e 1697 0a3e 3669 b8bd ab68 bd3f
00000100: e968 64be 6dbe 60c0 4598 643e 1b57 2b3e
00000110: 3491 4a3d 4598 d93e 2373 0fbf a770 1e3f
00000120: 44b2 e6be dcd6 08be 277c 293d f1ee 143f
00000130: 4f88 473e 1928 eebd 0ace ebbc 26df d93d
00000140: ba24 ca3b d8b5 cebe d17b 903e db50 5cbc
00000150: fc24 ef3e 28ef 72bd ede8 a43d 85c2 5f3f
00000160: 986f 4a3e c813 57c0 1b7a 563e d7ed a53c
00000170: c0fb 163e e408 133d bbc5 1e3e dafb 96be
00000180: fcd0 88be 9e84 cc3e b643 503e e637 e5bd
00000190: 5a7c e5be 1673 c0be 96e5 863e c351 2f3e
000001a0: 1493 f73d 286c c9be 7310 903e 77e8 1a3f
000001b0: a4b9 db3d 0974 e8be 3583 e63e c88b 823e
000001c0: 51a3 b83d e146 c33f 6518 7e3e 0bb0 89bf
000001d0: fefd ab3e 2fa2 483e 803a d93e ca69 cf3d
000001e0: 481e 183f fbf4 743c bc1a 413d d2c0 ab3e
000001f0: e511 493e 9e84 9a3e 0c1b c73e 21cc 103e
00000200: 8bea 4e3e 76e3 8ebf d4b5 ec3d c5f1 1cbe
00000210: 0df4 d63d c0c8 48bd bb8e 853d a5ee aa3e
00000220: 8bda af3e 549f 09c0 70be cb3e 96be 253e
00000230: 6c1f 6b3d c8ce 81be a36c 11bd 2918 a1bd
00000240: 6a09 dbbe f93a 73bd e708 9e3e e5a6 893e
00000250: 196e cc3e dfa0 033f 130a 0e3e 59cb 9f3e
00000260: 0d3a ca3d 6b3b fe3e bd1c 533e a377 32bf
00000270: 0aad 78be fb54 6abe 88f6 f43e 6206 953f
00000280: 41ec 983e 0015 f5bf 716e e2bc 1eda 92bd
00000290: eacc b83e e7b6 863c f293 38bd 8154 cabe
000002a0: 6572 ecbe 536c b3bd 4e2e 8b3e cd6b fe3e
000002b0: 6b6c 8d3e 2abe 123e ac7b 4e3e cfd6 ab3e
000002c0: c2db 093e aa6e 693f 6109 48be a175 a2bf
000002d0: 01b9 56be 4881 45be 1076 9a3d 6e06 f4ba
000002e0: 64ab cdbd 42ab 38c0 5822 89be d45d a6be
000002f0: a118 cfbe 9cf4 4a3e e612 cabe 6186 23be
-0.9843394 -0.38485706 0.38411948 -0.32093334 -0.071065925 -0.10874999 -0.17030935 -0.36240062
-0.1925524 -1.3904827 0.30362752 0.33817488 0.43504864 0.241689 0.06761918 0.012172634
0.014465566 -4.075554 0.07976828 0.27613217 0.2639552 -0.019440424 0.4840222 0.19690827
-0.112112276 0.07833047 0.34120294 -0.20325264 -0.031115804 -0.3807919 0.26076707 0.24895929
0.24191698 -0.008095649 -0.3044705 -0.3274552 -0.3308444 -0.39770696 0.014494484 0.257242
-0.043219775 -2.2905722 -0.23544689 -0.5820276 -0.0801569 0.4214574 -0.03576239 -0.48576376
-1.0230503 0.20648618 0.5750012 0.18782222 0.12746559 0.25121766 0.08253983 -0.2902285
-0.019558473 0.4899164 0.021553928 0.6500991 0.15979053 0.13534197 -0.090044424 1.4797567
-0.22305645 -3.5116227 0.22323711 0.16732447 0.049454883 0.42498985 -0.5603506 0.61890644
-0.4505788 -0.13363212 0.041378167 0.58177096 0.19485591 -0.11628742 -0.02878477 0.10638265
0.006168929 -0.4037311 0.28219464 -0.013447012 0.46707904 -0.05931011 0.080522396 0.8740619
0.19769132 -3.3605824 0.20945017 0.020255012 0.14744473 0.03589715 0.15505116 -0.29489022
-0.26721942 0.3994493 0.2033833 -0.111923024 -0.44821435 -0.37587804 0.26347035 0.17121033
0.120886 -0.3934033 0.2813755 0.60510963 0.107287675 -0.45401028 0.45021978 0.2549727
0.09015525 1.5256006 0.24813993 -1.0756849 0.33592218 0.19593118 0.42427444 0.101275995
0.59421206 0.014950986 0.047144637 0.33545548 0.19635732 0.30179304 0.38887823 0.14140369
0.20206659 -1.1163166 0.115581185 -0.15326603 0.10495768 -0.049019575 0.06521364 0.33385196
0.34346423 -2.1503496 0.3979373 0.16185984 0.057403013 -0.25353074 -0.035503995 -0.07865936
-0.4278062 -0.059382413 0.30866167 0.26885143 0.39927748 0.51417345 0.1387103 0.3120983
0.098743536 0.49654707 0.20616432 -0.697138 -0.24284759 -0.2288398 0.47844338 1.1642573
0.29867747 -1.9147034 -0.027640553 -0.07170509 0.36093837 0.016444637 -0.045062967 -0.39517596
-0.46181026 -0.087608956 0.27183765 0.4969162 0.2762178 0.14330354 0.20164365 0.33562323
0.13462737 0.91184485 -0.19534828 -1.2692147 -0.20969011 -0.19287598 0.0754205 -0.0018617639
-0.10042456 -2.8854527 -0.26784015 -0.3249346 -0.40448478 0.19819874 -0.39467543 -0.1596923

t_conv1.bias f4 [8]
00000000: 6ace 9f3d f3b4 79be c945 8a3e 2a68 c33d
00000010: 34fc 1b3c fdf8 5f3e 47bf a8bc 5283 bcbc
0.07803042 -0.24385433 0.27006367 0.09541352 0.009520579 0.21872325 -0.02059902 -0.023011837

t_conv2.weight f4 [8, 16, 2]
00000000: 2877 8ebd e5b7 d0bd ba0f 80bd 6ab2 573e
00000010: 3c27 9cbc 130d bc3e cbb4 183d 3088 c23e
00000020: 6c06 753e aa36 b03d e09b 9cbe aa8c 08be
00000030: de36 cbbc 0fef d2bb b10c ec3e 3888 a53e
00000040: 1cc2 193f 5e1a aa3a b0ad 9ebd 1d71 c13d
00000050: a60d 253e 7df8 ef3e dcf7 993e 0ed7 b83d
00000060: 2124 93be a3ce b93e 11d9 ad3e fc93 9bbd
00000070: cdcb fcbe 7917 313e 9aad e33d 49e8 10bd
00000080: 6106 85bd 2bde 593e d6b4 3cbe 9180 a23e
00000090: ab4a 1e3f 2204 033d 1c1a 2abe 93a4 c5bd
000000a0: e2d5 14bf a25b 173c 1ae4 0f3f 9f77 18be
000000b0: 1734 833b 25d3 07bf 2918 033e 5744 bdbd
000000c0: a015 21be 9686 623d d362 ecbe 8db6 a5bd
000000d0: 3fa9 323d f469 663d a5ac 083f 461d 1f3e
000000e0: 6d6b cd3c 5359 4bbc dd61 863e 31ca bf3e
000000f0: ac85 e33e 61fe d4be 838d 2cbe 3277 d13e
00000100: c5ea 1ebe 7bc6 c2bd bea8 40be f550 febd
00000110: 691d 2ebe 3509 cbbd 2c39 fa3d 2b04 803d
00000120: 567b a63e d021 a43e f7fc 133d 2be6 f23b
00000130: c4a8 913e 7202 8d3e 0c21 773e d074 6e3e
00000140: 977b 24bf a00a 33be 51cf a63d b1e2 9bbd
00000150: 544d 10be 1691 92be 4a5c 93bd 9a9c 14be
00000160: 2e30 c6bd d60c 23be ae29 c6bd da21 73bd
00000170: 6668 97be e000 d03a e033 24be ce64 15be
00000180: e50c 983e 3004 753e bbb6 01be 2c82 e3bd
00000190: 4fd6 8c3e 5f71 c43e 4790 03bf 0ad4 b83e
000001a0: 9681 a2be a289 5bbe fcae 69be 0392 babd
000001b0: e0cf bcbe 6cbe d7be a2d2 40be 81e2 23be
000001c0: 9a76 47bd 4e8e 7b3d 7635 f13e c1e9 2bbe
000001d0: 2a7b 2a3e 9d4e 613e f3fe 7dbe 189c 143f
000001e0: baa8 acbb 8aaf e1bd a663 af3e 36f6 86bf
000001f0: 950b 163e 0d0b 89bf 99f5 3abd 5601 16be
00000200: 86d5 23bb 358a aa3e d3c2 dbbd 6a3a a23d
00000210: 54c5 abbe 2046 9d3e f894 053f f1da 023d
00000220: 85d7 483e d9dd bbbe 83e3 863e 5c20 3b3e
00000230: 2edb 8cbe e9a0 e63d 2cf0 a6be af72 2c3e
00000240: e7ad d4be 59ba f93c 009d f53e e0ff 353d
00000250: 3ac1 7e3e d08f e53d 622e 0f3e 6375 20bd
00000260: 1dd4 a2bd 4604 8a3e 31e7 403e 827b 933e
00000270: a77f d9bc 8133 c43e 125b d33c 91a1 00be
00000280: ad3b 11be 45ff 34be 2215 a23d 21eb e4bd
00000290: c69b 0c3e dd15 8bbc 28d0 2fc0 7a52 d83e
000002a0: d558 8a3d c0a6 0f3e cea8 f6be fbc5 943d
000002b0: 676e 833d 561e 343d 237b d13e dd48 f23d
000002c0: 8261 2e3f cc4c 03be 5624 2fbe fbf6 743d
000002d0: a5bf 84be 6485 95bd 6af1 f63d c3d7 ad3e
000002e0: 7ce5 053f 257b a73e cc82 2e3e b123 983e
000002f0: b0e9 22bf 7010 09c0 7296 b63d 8db2 493e
00000300: ea98 483e a1f8 1a3d b7eb 01be 865e c93e
00000310: 5082 5f3d e924 1a3e 1ec7 2a3e 4b39 d83d
00000320: d4e9 02be 7670 2bbf 2ea3 db3d 807d 253e
00000330: c712 88be c50a 31be f633 d1be f691 b6be
00000340: 2839 48be 0503 a3bd 4785 5d3d c8d2 dfbd
00000350: 9dbc 4b3b c70e 733e 1a33 4f3e f3b9 aa3e
00000360: 3332 98be c411 20be bb7e 973e cce4 653e
00000370: bbea f13c cf32 993d 3837 4cbe a560 243d
00000380: a78c a53e fbcf 14bd 0830 03be 16fa 3f3e
00000390: 4229 633e 559d 873c 2990 c5be 8339 8fbe
000003a0: 272a 38be a428 363d 1bf4 503e 45fc 41be
000003b0: b6a0 9a3e bcec ddbe fe2e 2fbf 9925 4e3d
000003c0: fd1f e1bd c5fe 07be 7735 42bd 7acf 15be
000003d0: 95e5 993e 7024 74bd 5088 4dbe e66d 12bf
000003e0: 51f1 ec3e 6324 5abe 7607 91be 7e20 9dbe
000003f0: e52d 28bf ac7a cfbe c443 22be 9810 c53e
-0.06956321 -0.10191325 -0.062529996 0.21064153 -0.019061677 0.36728725 0.037281793 0.37994528
0.23928231 0.08604176 -0.30587673 -0.13334909 -0.024806436 -0.0064371894 0.46103433 0.3233049
0.6006181 0.0012977829 -0.07747972 0.09445403 0.16118488 0.4686927 0.30071914 0.090253934
-0.28738502 0.36290464 0.3395467 -0.07596585 -0.49374238 0.1729411 0.11117096 -0.035377774
-0.06495357 0.21276157 -0.18428358 0.31738713 0.61832684 0.031986363 -0.16611522 -0.09650531
-0.5813886 0.009238156 0.5620743 -0.14889382 0.0040040123 -0.53056556 0.12802185 -0.092415504
-0.15730906 0.055304132 -0.46169147 -0.080914594 0.043618437 0.05625339 0.53388435 0.1553851
0.025075639 -0.012411433 0.2624654 0.37458947 0.4443792 -0.41600326 -0.16850857 0.4091125
-0.15519245 -0.095105134 -0.1881437 -0.12417785 -0.17003407 -0.099138655 0.12217936 0.06250795
0.32515973 0.32057047 0.036129918 0.007412692 0.2844907 0.27540928 0.241337 0.23286748
-0.64251083 -0.17484522 0.08145011 -0.07611597 -0.14091998 -0.28626317 -0.07195337 -0.14512864
-0.09677158 -0.15922865 -0.096759185 -0.059358455 -0.29571837 0.0015869401 -0.16035414 -0.14589235
0.29697338 0.23927379 -0.12667362 -0.11108813 0.27507254 0.38367745 -0.51392025 0.36099273
-0.3173949 -0.21439222 -0.22820657 -0.09109881 -0.36877346 -0.42137468 -0.1883035 -0.16004373
-0.04869709 0.06141501 0.471111 -0.16788389 0.16648546 0.22002645 -0.24804287 0.5805068
-0.005269137 -0.110198095 0.34255713 -1.0543888 0.14652856 -1.0706497 -0.045644376 -0.14648947
-0.0024999096 0.3330857 -0.10730519 0.07921298 -0.33548987 0.30717564 0.52180433 0.03194708
0.19613464 -0.36692694 0.26345453 0.18274063 -0.2751097 0.1126116 -0.32605112 0.16840623
-0.41538927 0.030484365 0.47971344 0.044433475 0.24878398 0.11209071 0.13982537 -0.03917445
-0.07950614 0.26956385 0.18838193 0.28805166 -0.026550127 0.38320544 0.025800262 -0.12561633
-0.14182921 -0.17675503 0.07914187 -0.1117766 0.13731298 -0.016978199 -2.7470798 0.42250425
0.067552246 0.14028454 -0.48175663 0.07264324 0.06417542 0.043974243 0.40914258 0.11830304
0.68117535 -0.12822264 -0.17103705 0.05980585 -0.25927463 -0.07300833 0.12057765 0.33953676
0.5230329 0.3271114 0.17042083 0.2971473 -0.6363783 -2.1416283 0.08915414 0.19697018
0.19589582 0.037834767 -0.12687574 0.39329928 0.054567635 0.15053143 0.1667752 0.10557803
-0.12784511 -0.66968477 0.107244834 0.16161156 -0.26576826 -0.17289265 -0.40859956 -0.35658234
-0.19553053 -0.0795956 0.05408218 -0.10928875 0.0031087764 0.23736106 0.20234337 0.33344993
-0.297258 -0.15631777 0.29588875 0.2245056 0.029530874 0.07480394 -0.1994294 0.04013123
0.32333872 -0.036331158 -0.12811291 0.18747744 0.22183707 0.016554514 -0.38586548 -0.27973565
-0.1798483 0.04447235 0.20405619 -0.1894389 0.30200738 -0.43344676 -0.6843108 0.050328825
-0.109924294 -0.1328078 -0.04741427 -0.14629927 0.3005797 -0.059605062 -0.2007153 -0.5719894
0.4627786 -0.21302943 -0.28326005 -0.30688852 -0.6569503 -0.4052328 -0.15846163 0.38489223

t_conv2.bias f4 [16]
00000000: 2c02 a73c 5bd0 0ebc d61b 4abe 96b8 b23c
00000010: a9bd a53c 23aa 963d 7c3c ee3d 4fea 59be
00000020: 5a0e f0be 6e29 2cbf 2daf 183e 947c 0dbe
00000030: 6b8e 153d 23f5 39be 5126 5a3d 6103 9ebe
0.020386778 -0.008716668 -0.19737181 0.021816533 0.020232039 0.0735667 0.1163263 -0.21280788
-0.4688595 -0.67250717 0.14910574 -0.13817054 0.036512773 -0.18159918 0.053259198 -0.30861953

t_conv3.weight f4 [16, 32, 2]
00000000: b070 2c3e 2e34 dc3d cc39 16be 7094 c23d
00000010: 79a9 b2bd c2ea cfbe 53b9 00be 5db5 203e
00000020: 42cc 08be 08c2 cebe 8fc3 50bd fe75 333e
00000030: c39d 0abe 6511 d5bd bddb 063e 1da7 d13d
00000040: 9a28 423e a3d7 28bc bb0b 4b3d 9744 1dbe
00000050: 73c6 633e 7515 103e dc45 a43e 6a99 823e
00000060: abb4 b73c c918 843e 324a c8bd fa4b 9d3e
00000070: ab95 57be bebf 00bf 7e14 373e 5a24 92bd
00000080: 31a4 ac3d 1d29 14bf a2c9 79be 03ef 42be
00000090: 99c7 773e 8217 c63d d5f1 bcbe 50ae 49be
000000a0: 49f3 1abf b6b3 73be 16f3 653e 9ba3 7c3d
000000b0: 9d0c dbba 9d35 8dbf 2766 91bd 70a0 e0bf
000000c0: dd45 3b3e 107f 543e 663b eb3d cdaa 493e
000000d0: bd0d 6fbc 241d 2d3d de84 f9be 6ff6 143e
000000e0: 3669 90bd f058 fa3e a377 893e ed86 1f3d
000000f0: 3016 e53c e297 353e d29e 873e 3a61 4bba
00000100: cc19 cc3c 8bb2 5f3e e7f7 82be 2552 b2bd
00000110: 73df 47bd a366 19be e49a 3dbf 8421 20bf
00000120: 8b9f ecbd 755b 09be 2685 24be 145d a83d
00000130: b59f 733c 4328 aa3d bc34 66bc 9e2b 693d
00000140: 4a8f b63d 0c4d 013e 2cbf 14bd 3bdd 0abd
00000150: f403 243e d29c 9b3d 9d05 733e cceb 4f3e
00000160: 0869 923c 6533 5b3e a7e5 72bd cea8 7d3e
00000170: 7524 48bd 3023 35bd 54d7 8d3e 0711 4dbf
00000180: e7b4 603c a103 923f d8c6 94be 3143 353e
00000190: f0b4 133e afd0 773e 5535 87be 839c a9be
000001a0: adcb c43e 8e1c 42bd fd75 173e 7214 ab3b
000001b0: fa67 b73d 312c debe dfdd 60bd 7061 8abf
000001c0: 91ed b63d d36f 253e 6cee 8e3e 58fb 153f
000001d0: dbd4 833d bba6 08be d5fe 983d f083 5fbe
000001e0: 28f6 7abd 30c9 10bf f4b9 483d f678 c3bd
000001f0: c812 513d 8c3c c1bd 9725 b33d 08cc a83e
00000200: 8bb0 913d 8a5a b93d 638a 223e 37cb 66be
00000210: 09d5 fabc cb42 823e 1fd1 92bf 7591 3c3e
00000220: 01eb dc3c 3547 85be ba48 08be 59c7 06bf
00000230: 4478 6abe 035a 40be 1bca b8bc 3f6f 043e
00000240: 84ed 143e c27f f0bd d447 103e ca16 a83e
00000250: b655 6a3c ada2 183e 765e 473d 9aba 163e
00000260: e33c 243d aa1d 153e 63b7 01bd b580 2d3e
00000270: e5a4 8ebe 86b5 8ebe 8d58 5e3e 34c0 edbe
00000280: 9c6a 13bf 935e 04bf 45d1 aabe ed6c fabe
00000290: 847b b13d 34a6 553e ea51 bfbd 9add 54bd
000002a0: a54e 84bf 98cb ecbe ca31 22bd a668 f8be
000002b0: 27db 8f3c eb0a dc3e 8791 393d e31c 9a3e
000002c0: f56a 2cbc 511b ee3b 8162 ac3e e89a 843e
000002d0: c5d7 8bbd 9c41 213e 7218 143e b94e 08bc
000002e0: e03e edbd f6f8 bd3e 89c6 893e 140e 76bb
000002f0: d6c7 c0bd 5176 a43e c048 31be 6f38 fdbd
00000300: 3d75 ff3c 5a95 6fbe 923a 52bf e320 52bc
00000310: bc28 9c3d 18eb 9f3d 5b90 a43e f9eb c93e
00000320: e610 23be d483 063e cf62 72bd d40a 83be
00000330: 3291 443e e010 83be 629e adbe 7794 403e
00000340: b8c2 17be a8d2 d73d 4f34 8cbc 91fe 373e
00000350: 6333 4c3e c8f3 80be 998b 703e 078d af3c
00000360: 133c ed3d 9ab7 b33a e844 d9bd a744 ecbd
00000370: acf3 913e 8898 593e 2526 b2be f9e2 20bf
00000380: 506d 3fbf 30b2 26bd 6a69 af3e 9ff2 b23d
00000390: ed20 3d3c 0ba6 813d 6ac2 ad3e 965c ac3e
000003a0: 9a59 8cbd 0ada 41be 00f9 063f 8cbe 8f3d
000003b0: 71ec f4ba 75e6 a53e 918d 0dbe 412b 0dbe
000003c0: 0184 ca3c 00e2 293e 7fff 2ebe a99f c33c
000003d0: 5a45 743d 3eca d0bd 6783 c6be b351 9a3c
000003e0: e238 e7bd d8e8 043d 9bf0 2abe 100e 5dbd
000003f0: 5a3e aabd b545 dcbe 2581 7abf a22a b5bc
0.16839862 0.1075214 -0.14670485 0.095009685 -0.087237306 -0.40608793 -0.12570696 0.15694185
-0.13359168 -0.4038241 -0.05096775 0.17525479 -0.13536744 -0.10403708 0.13169761 0.102369525
0.18960801 -0.010305318 0.049571734 -0.15358196 0.22243671 0.14070685 0.32084548 0.2550767
0.022425016 0.2580016 -0.09779777 0.30722028 -0.21053188 -0.50292575 0.17878911 -0.0713584
0.084297545 -0.57875234 -0.24393323 -0.19036488 0.24197234 0.096724525 -0.36903253 -0.19695401
-0.60527474 -0.23799023 0.22456011 0.061679464 -0.0016712133 -1.1031986 -0.07099562 -1.7548962
0.1828837 0.20751595 0.11485939 0.19694062 -0.014590678 0.04226412 -0.48734182 0.14547132
-0.070513174 0.4889598 0.26849088 0.038947035 0.027964681 0.1773372 0.26488358 -0.00077583233
0.024914645 0.21845452 -0.2557976 -0.08707074 -0.048797082 -0.14980559 -0.7406447 -0.6255114
-0.11553868 -0.13413794 -0.16066417 0.08220878 0.01486962 0.083084606 -0.014050659 0.056926362
0.08914049 0.12627047 -0.03631513 -0.033902388 0.16017133 0.075982705 0.2373261 0.20304793
0.017872348 0.21406324 -0.059301045 0.24771425 -0.048862893 -0.04422301 0.27703345 -0.80104107
0.0137150055 1.1407357 -0.29057956 0.17701413 0.14424491 0.242007 -0.26407877 -0.3312722
0.38436642 -0.047390513 0.14791103 0.005220943 0.08955379 -0.4339309 -0.054899093 -1.0810986
0.08932031 0.16155939 0.27916276 0.58586645 0.06437083 -0.13344853 0.0747048 -0.21827674
-0.06126991 -0.5655699 0.049005464 -0.09544556 0.0510433 -0.094353765 0.08747404 0.32968163
0.07113751 0.09050472 0.15873103 -0.22538458 -0.030619161 0.25441584 -1.1470069 0.18414862
0.026967527 -0.2603089 -0.13308993 -0.5264793 -0.2289744 -0.18784337 -0.022557309 0.12933062
0.1454373 -0.11743118 0.140899 0.32829887 0.014302662 0.14905806 0.04867407 0.1471962
0.04009713 0.14562097 -0.03166903 0.16943629 -0.2786018 -0.27872866 0.21713467 -0.46435702
-0.5758455 -0.5170681 -0.33362785 -0.4891123 0.08666137 0.20864183 -0.09341796 -0.05196915
-1.03365 -0.4624908 -0.039598264 -0.4851734 0.017560555 0.4297708 0.0453048 0.30100164
-0.010523547 0.00726644 0.33668903 0.25899434 -0.06828264 0.15747684 0.1446245 -0.00831955
-0.11584258 0.37104005 0.26909283 -0.0037545012 -0.09413116 0.32121518 -0.17312908 -0.123642795
0.031183833 -0.23396817 -0.8212062 -0.012825224 0.07624957 0.078085124 0.32141384 0.39437845
-0.15924415 0.13136226 -0.059176262 -0.255942 0.19196013 -0.25598812 -0.339099 0.18806635
-0.14820373 0.10538226 -0.017114786 0.17968203 0.19941477 -0.2518599 0.23490752 0.021429552
0.11583724 0.0013711334 -0.10608846 -0.11536532 0.2850622 0.21249592 -0.34794727 -0.6284633
-0.7477617 -0.040697277 0.34260112 0.087376826 0.011543495 0.06330498 0.3393739 0.33664387
-0.06853028 -0.18930832 0.52723694 0.07018766 -0.0018686188 0.32402387 -0.13823535 -0.13786031
0.024721147 0.16590118 -0.17089652 0.023879843 0.05963645 -0.10194825 -0.38772127 0.018837785
-0.112901464 0.03244862 -0.16693346 -0.05396849 -0.08312674 -0.43021932 -0.9785331 -0.022115055

t_conv3.bias f4 [32]
00000000: 27d4 2d3e ca29 dd3d 39fc 66bd d6da 9cbd
00000010: 48b1 28be 180d 54bd 2cc8 b33d 79e2 83bc
00000020: 66ff fe3d eaf9 6a3c d662 353e 67e2 103e
00000030: c5ac 343e b2bd 443e 6404 12bd 8398 f2bc
00000040: 1e85 523d 748c f83d 56f1 743e 6b33 8a3c
00000050: bf7f 503e 7443 24bf 8c49 d8be f66a 7abe
00000060: 4f65 0c3e c9ac 013c 50cd 47bb 2bb1 823d
00000070: 03eb b3be 4d17 96be f81e bfbe b982 033d
0.16975461 0.10798986 -0.056392882 -0.07658927 -0.16473877 -0.0517703 0.08778414 -0.016099202
0.12451057 0.014341811 0.17713484 0.14148866 0.17644031 0.19212988 -0.03564872 -0.029613739
0.05139648 0.12136164 0.23920187 0.016870221 0.20361231 -0.64165425 -0.42243612 -0.24454865
0.13710521 0.00791473 -0.0030487366 0.06381448 -0.35140237 -0.29314652 -0.37328315 0.03210709

conv_out.weight f4 [1, 32, 3]
00000000: 58e6 d7bd 41ac b0bd cd28 2dbd e182 5ebe
00000010: 896f 2ebd f369 2a3e 84f3 5a3e d863 b73d
00000020: 21da 8dbc 9284 17be d9b1 0dbf bc02 19bf
00000030: f904 1abf c554 17bf 3c30 cbbe 3448 eabe
00000040: ff2d 21bd a0ac ccbe 9fe7 953d a00e 01be
00000050: 4fef 30bd 7cbc 073d f760 343e 9e07 66be
00000060: 314f 0bbe 50c3 453d 549f 0abe cd6e 32bd
00000070: ce70 2b3e 3b2f b4bd 5e65 09bd 4f54 1dbe
00000080: 1ba9 47be bb86 69be fbda 33be 5607 2ebe
00000090: 7d02 43be 922f 24be cee1 46bd 902f 88be
000000a0: 224f c0bd 79fb 4c3d df47 353e 0698 863c
000000b0: e4d9 543e 3b17 423e 0d09 37be 1e54 84be
000000c0: 5023 8c3e 82e6 b93d 28b8 aebe c641 483e
000000d0: 67cd 0f3e 3b0a 993e a19e 5bbe 60bb e8bd
000000e0: 4c60 5fbe 9592 bc3d aee5 ee3d 0e91 253e
000000f0: af9c 233e 2fb3 483d 6ab3 9dbe b26a ce3e
00000100: 3a35 693f d810 493f 4142 85bf d777 d2bf
00000110: 3687 abbe e697 b03d 3663 633e 9456 8a3e
00000120: bf6f 22be 4c69 943c c2da dabd b1e6 01bf
00000130: d3a5 8dbe 58fd 2ebe cbce 303b 3922 583e
00000140: 30b5 17be 078d a9be f2f2 a43e a868 0e3d
00000150: d3dd 1a3f 2b75 203f 9e86 de3e 08e4 983d
00000160: e231 eb3d 8944 083f 3424 8b3f 4071 863f
00000170: 8982 223f 3380 68be e255 9d3c 46c2 8e3e
-0.105419815 -0.08626605 -0.04227524 -0.21729614 -0.042586837 0.16641979 0.21381956 0.089545906
-0.017315926 -0.14796665 -0.553495 -0.597698 -0.6016384 -0.59113723 -0.39685237 -0.45758212
-0.039350506 -0.39975452 0.07319569 -0.12603235 -0.043196972 0.033138737 0.17615114 -0.22463843
-0.13604428 0.048281968 -0.13537341 -0.0435627 0.1674225 -0.08798071 -0.033543937 -0.15364192
-0.19498102 -0.22805302 -0.17564003 -0.16994986 -0.19043918 -0.16033772 -0.048555188 -0.26598787
-0.093900934 0.05004451 0.17703198 0.016429912 0.20786244 0.18954174 -0.17874546 -0.25845426
0.2737069 0.09077169 -0.34124875 0.1955634 0.14043199 0.29890618 -0.21447231 -0.11363864
-0.21814078 0.09207646 0.11664902 0.16168615 0.15977739 0.048999008 -0.30800945 0.40315777
0.9109684 0.78541327 -1.0410844 -1.6442822 -0.33501595 0.08622722 0.22205815 0.2701918
-0.1586294 0.018116616 -0.10686256 -0.5074263 -0.27665576 -0.1708883 0.0026978727 0.21106805
-0.14815211 -0.33115408 0.32216603 0.034767777 0.60494727 0.62678784 0.4346208 0.074653685
0.11484124 0.53229576 1.0870423 1.0503311 0.6348043 -0.22705154 0.019205991 0.27882594
