dAE_PyTorch/checkpoints/spectra_dae_epoch_1.pth (torch, 18875 bytes, 13 tensors)

conv1.weight f4 [32, 1, 3]
00000000: f4c9 293f 4415 0b3f ab4f 5abe 1ef2 03be
00000010: e210 193c 522f cc3e f708 b6be 6f4d 163f
00000020: 1552 943d 7a03 b9bb 9012 d4bd 3650 233f
00000030: d23a 9e3e 0ead abbe 4815 e4be cf1b 3a3d
00000040: 8bcf 27be dcb0 bb3e f84c cbbe 4eb5 e4be
00000050: cdfa e63e 6575 2a3f 0509 613e 75c1 a7be
00000060: 6697 343d 3776 f8be 488e 153e dcdf fd3d
00000070: eaee dd3e a222 1b3f d1d1 81be 6351 f53e
00000080: 4b9a cebe 87bf 01bf 4b79 da3c e644 f83e
00000090: 0ec4 7a3d ea45 0cbe 3a68 b93e 9703 fc3e
000000a0: 8c5e e3be 988e 22bf a6bf 073f 45f4 56bd
000000b0: 369b 423e eb6f 92be aefd 123f cd2a f6be
000000c0: 657c 1a3d 3a49 3ebf 92ca 613c e86d dd3e
000000d0: 5042 e83e acbe d23e 0d34 18bf 2823 773e
000000e0: d2d2 bf3e ad1c 423e 9211 083d 6e73 913e
000000f0: 15c8 8e3d f258 983e 4994 543d 5946 193e
00000100: 3c04 153e 7bcd d13e 2c65 d83e cb40 bfbe
00000110: b8dd 9bbe e5e6 9cbe eaa2 28bf 69cd cdbe
00000120: 7c13 c4be 2ed7 27bf 58dc 4b3e da46 7dbe
00000130: 37eb 9ebe d6fb bebe 8f28 9cbc 4b8f c9be
00000140: ee1b 173e 3754 353e 6f8e e23e be15 31bf
00000150: 43ac 03be 7e6e 83be 047e 22bf 872a 83bc
00000160: a79d 5f3e f452 44bf 634f 4a3e f789 1e3f
00000170: 3ad0 44be 5627 40bf 9b92 be3e 4ca6 4a3e
0.6632378 0.54329324 -0.21319453 -0.12885329 0.009342404 0.39879853 -0.35553715 0.58711904
0.072422184 -0.0056461664 -0.10355103 0.6379427 0.3090425 -0.33530468 -0.44547486 0.045436677
-0.16387765 0.3665837 -0.3970716 -0.44669574 0.4511322 0.6658538 0.21976097 -0.32764784
0.044089697 -0.4852769 0.14605057 0.123962134 0.4334634 0.6059972 -0.2535539 0.47913656
-0.4035209 -0.5068287 0.026669165 0.48490065 0.06122213 -0.13698545 0.3621233 0.4922149
-0.4440807 -0.6349883 0.5302681 -0.052479047 0.19004521 -0.28601012 0.57418334 -0.4807953
0.037716288 -0.74330485 0.013781207 0.43247914 0.45363092 0.41161096 -0.59454423 0.24134505
0.3746553 0.18956251 0.03321988 0.28408378 0.06971756 0.2975536 0.05189923 0.14968242
0.14552397 0.40977082 0.42264688 -0.3735412 -0.30442595 -0.3064491 -0.6587359 -0.40195778
-0.38296115 -0.65562713 0.19908273 -0.24734059 -0.3103883 -0.3730151 -0.019062309 -0.39367136
0.14756748 0.17707907 0.44249293 -0.691738 -0.12858681 -0.25670236 -0.63473535 -0.01601149
0.21837483 -0.76689076 0.19756846 0.6192927 -0.19220057 -0.7506002 0.37221226 0.1979

conv1.bias f4 [32]
00000000: ba52 efbd 4bd9 03bd ddf6 14be 29c0 ffbe
00000010: 4c4f dbbe dad3 533e 84cb 963e 9533 9dbe
00000020: ae1f 433e 9f24 4cbe c5c1 bc3e 839a e4bd
00000030: 3fc7 bebe 8130 cf3d e400 40be f9b6 13bf
00000040: 6d11 413d 420b 143d 7817 023f 195b fdbe
00000050: 7317 b2bc 6a4e e83e 5acf f6be 5467 0ebe
00000060: dcad 1f3f 45bf c6bd 0771 903e ba21 97bd
00000070: 55cb debe 07d5 3f3e b284 0ebf 7945 9bbd
-0.11685701 -0.03218965 -0.14547296 -0.49951294 -0.42833936 0.20686284 0.29452145 -0.30703416
0.19055054 -0.19935845 0.36866584 -0.11162283 -0.37261388 0.10116673 -0.1875034 -0.5770107
0.04713576 0.03614355 0.5081706 -0.49483564 -0.021739697 0.45372325 -0.48205072 -0.13906604
0.62374663 -0.097044505 0.28211233 -0.0737948 -0.43514505 0.18733607 -0.55671227 -0.0758161

conv2.weight f4 [16, 32, 3]
00000000: 2a16 1e3c 01c7 3d3d 8843 823c a850 d9bc
00000010: 06fe fd3b 2105 993d e853 2a3d 3556 e1bd
00000020: f0de 5d3e 087f 673e 12d1 a43e 5902 ea3e
00000030: 591a b3bc 32c0 bfbd 47f9 0f3c 0d85 8a3d
00000040: e32a 883d b09d 2a3c 1118 a8bd 306e f1bc
00000050: a715 ebbc 6938 453d a81b 93bb 25f6 b43d
00000060: ed79 d0bd f3f0 a0bd 7679 eebd 58a7 983d
00000070: 7691 b7bc 331b 533e 22ad 923d 2bf7 c3b9
00000080: bd07 98bd f5c2 c13d ced8 e53d 19ba 9e3e
00000090: d4bb 9ebd 202b f13d fdc0 433d 92e3 98be
000000a0: e6c1 0bbe 1a88 17bf 357a 8fbc ddb1 cebc
000000b0: 1ae2 c33d 1669 e03d 8351 5f3b a4a7 c53d
000000c0: 2df7 4fbe 5c81 6abe 6dbf 24be bd47 88bd
000000d0: 0d4b ff3c c9d8 a73d cdf7 813d 2e04 d23c
000000e0: 7760 42bd 7d54 083e f4e5 363d 2a0e 45bc
000000f0: 6154 21bd a7e3 8c3d e826 493d 629b e93c
00000100: 0689 473b 5ac9 59bd 3750 ce3c 9eb2 80bd
00000110: 1de1 8cbd ebec 65bd 0590 3abc df98 8dbc
00000120: 54a6 27be 9cb2 00bd f1f0 2fbe 5d6b 55bd
00000130: 4fab f2bd 2b01 f6bc eb7a a43d 801a f0bc
00000140: 9a9e 9f3c 61dc b9bb 4729 62ba 301e 99bd
00000150: 0b65 1c3c 2177 6c3d c3d3 f7bd 3c2e 94be
00000160: 327e 92be 9840 01bf 95dd 1b3e 6098 6f3d
00000170: 5f95 ed3c 50c8 e5bd 44cb 84be 8ec6 723d
00000180: 8f02 a33c e381 cd3d fcbb 013e eb6d 9bbc
00000190: a316 803c a772 cd3d ea75 973c 2505 51bd
000001a0: a552 173e 39e1 953d 8240 cabd 1215 a53e
000001b0: 0fa6 44bd 5852 ae3c d686 bdbd 3634 d63d
000001c0: f1c3 81bc bec2 a73d 87ef 1fbe 8509 15be
000001d0: e819 303d ec64 7ebd 1406 833d 9045 7dbe
000001e0: 1417 c8bd 3d42 bb3d a603 c4bd 47ee 8e3d
000001f0: a930 82bc e331 093e a374 cdbd 0667 5d3d
00000200: be9d c5bc 4dc6 64bc 136b 093c c411 c4bb
00000210: 805f a23c 1fd1 003d 46ab 9c3d fb25 ccbe
00000220: 45bf 27bd 1fb1 06bf c66e cc3d 37e7 503d
00000230: ce8a 933d ff5f 733d 1663 b6bc ff58 acbd
00000240: 1fa9 a7be ae3f 99be b84d 9cbe 5bb1 a03d
00000250: 92e2 453d 5900 ff3d 8103 bbbc 53df 2dbd
00000260: d483 033e 9c49 2ebd 7a16 c3bd 000a 4a3d
00000270: 9b77 ad3d bbe1 92bc dec2 f43d 44b4 7fbd
00000280: ca1c fc3d 2651 943d 97de db3c 0986 623c
00000290: fc03 f4bd ffe8 b9bd 0977 f9bd eb56 c9bc
000002a0: b42c 86bd de34 eabd ace8 c0bd 9bae d0bd
000002b0: d2f8 a5bd 7206 11bd e555 b23d c83c eabc
000002c0: b43f fe3d be25 62bc d102 93bc 6f77 d0bc
000002d0: 8162 a0bc eff5 c1bb 0553 f2bd d61b 1dbe
000002e0: e5d2 02bd 466e febe 574d b33d 165d a6bc
000002f0: c8df 9cbd a1bb aabe 2335 19be 363b 88bb
00000300: a31c b7bd 3c5f c43c 3ac6 4abd 1bc0 483c
00000310: 30e4 713b 4bd7 043d 3d86 4a3d 50e2 6a3d
00000320: c013 3ebd 965c 11be f1ee 87bd 359f 65bd
00000330: bc46 58bd 3153 6bbd bc17 e83d 1020 393c
00000340: 9cd5 ed3d ae32 21bc 2f15 5a3d 32e8 fa3d
00000350: 120f 90bc fbfc 3ebe d289 ac3d ba33 973e
00000360: 1a97 423e 8147 963c c51b 4f3c 1d34 8ebd
00000370: 55a3 47bd b4ff a8bd 787b f53d 9ba2 343d
00000380: 61c2 083c 325f f63e 52c6 353e 3c45 db3c
00000390: b012 9cbd 462d 06bd 0b23 4dbd 069b d23e
000003a0: 3a10 393e 661e d13e 1770 60bd 1291 403d
000003b0: 0d04 4f3d 4069 573d bdcd e83b f80d 543d
000003c0: 0689 9c3f 0ca5 ea3e bc6a b63e 9d6d 1bbe
000003d0: d029 753d dcbd 083d b832 dc3d 1835 953d
000003e0: 667b bdbd 9bd9 ce3c a846 fabd 696d 943b
000003f0: 06c9 4ebc b09d 953c ef3d f0bd 6d46 233d
0.009648839 0.046332363 0.015901342 -0.026527718 0.007751229 0.074716814 0.041583925 -0.11002771
0.21667075 0.22607052 0.32190758 0.45704916 -0.02186315 -0.0936283 0.00878746 0.06763659
0.06648805 0.010413572 -0.08207715 -0.029471487 -0.028696848 0.0481495 -0.004489381 0.08836011
-0.101795055 -0.078584574 -0.116442606 0.07453793 -0.022408228 0.20615844 0.07161929 -0.00037377453
-0.07423351 0.09461013 0.11222993 0.31001356 -0.07750669 0.117758036 0.04779147 -0.29861122
-0.13648185 -0.5919205 -0.017514328 -0.025231296 0.0956461 0.109575436 0.0034075684 0.096511155
-0.20309134 -0.22900909 -0.16088648 -0.06654308 0.031163717 0.08195645 0.063460924 0.025636759
-0.047455277 0.1331348 0.044652894 -0.012027303 -0.03938711 0.06879359 0.04910937 0.028516475
0.0030446663 -0.05317054 0.025184734 -0.062840685 -0.068788745 -0.056134146 -0.011386876 -0.017284809
-0.16372043 -0.031420335 -0.17181756 -0.052104343 -0.11849081 -0.030029854 0.08031257 -0.029309511
0.019484807 -0.005672023 -0.00086273666 -0.07476461 0.009545575 0.057730798 -0.12100937 -0.28941524
-0.28611904 -0.5048919 0.15221246 0.058494925 0.02900189 -0.11219847 -0.2593633 0.059271388
0.019898681 0.100345396 0.12669367 -0.018973311 0.015635794 0.10031634 0.018488843 -0.051030297
0.1477762 0.073183484 -0.09875585 0.32242638 -0.04800993 0.021279499 -0.092542335 0.10459177
-0.015840502 0.08191441 -0.15618716 -0.14554413 0.042993456 -0.062107965 0.06397644 -0.24733567
-0.09770027 0.09143493 -0.095710084 0.069790415 -0.015892344 0.13397937 -0.10032012 0.05405333
-0.024123069 -0.013963294 0.008387345 -0.005983563 0.019820929 0.031449433 0.07649855 -0.39872727
-0.040953893 -0.52614015 0.09982066 0.051001754 0.07204209 0.05941772 -0.022264045 -0.08415412
-0.32746217 -0.29931396 -0.30528045 0.07846328 0.048311777 0.12451238 -0.02282882 -0.042449307
0.12843257 -0.042550668 -0.095257714 0.049325943 0.084700786 -0.017929902 0.119512305 -0.062427774
0.123101786 0.0724204 0.026839538 0.013825902 -0.119148225 -0.090776436 -0.12180907 -0.024577579
-0.06551495 -0.11435865 -0.09419379 -0.10189553 -0.08104099 -0.035406537 0.08707789 -0.028593436
0.12414494 -0.013802944 -0.017945679 -0.025447575 -0.01957822 -0.00591921 -0.11832241 -0.1534265
-0.031939406 -0.49693507 0.08754986 -0.020308059 -0.076598704 -0.33346274 -0.14961676 -0.004157449
-0.08941009 0.023971193 -0.04950545 0.012252833 0.0036909692 0.032431882 0.049444426 0.057344735
-0.046405554 -0.14195475 -0.06637371 -0.056060035 -0.052801833 -0.057452384 0.11332652 0.011299148
0.116130084 -0.009838743 0.05324286 0.12251319 -0.017585311 -0.18651192 0.08424725 0.29531652
0.19002953 0.018344643 0.012640898 -0.069435336 -0.04873975 -0.082518965 0.119864404 0.044100385
0.008347125 0.48119503 0.17751434 0.026766412 -0.07620752 -0.03275802 -0.050082248 0.41133898
0.18072596 0.40843505 -0.054794397 0.04701335 0.050540973 0.05259061 0.007104604 0.051771134
1.2229316 0.45829046 0.35628307 -0.15178533 0.05985433 0.03338419 0.10751861 0.072855175
-0.09252052 0.025250247 -0.12220508 0.0045296443 -0.01262117 0.018263668 -0.11730563 0.039862085

conv2.bias f4 [16]
00000000: b72c a8bd 1dd3 9bbc 6cb4 26bd d986 523b
00000010: 35c0 c73d 81b5 69bd e1f8 dabd 55db b5bb
00000020: e630 2c3e bf43 f5bc f615 8fbd 7be7 89bd
00000030: dbfd 87bc dc5b 3cbe e598 58bd 10b8 0d3e
-0.08211654 -0.019021565 -0.040699407 0.0032123832 0.097534575 -0.05705786 -0.10692001 -0.005549828
0.16815528 -0.02993953 -0.069866106 -0.067336045 -0.01660054 -0.18394417 -0.052880187 0.13839746

conv3.weight f4 [8, 16, 3]
00000000: 3f9f 46bd 7edc 97bd f0e5 58be 0fa3 56bc
00000010: 20c6 8bbd e3ad efbd 6e08 c13d 4566 123d
00000020: 2db4 8dbc 5df1 073e 5920 733d 0bdf bf3d
00000030: 9b79 26bd f5a8 0bbe 43e5 763e 7143 673e
00000040: aa42 12be 276a 36bd bd93 90bd 0b88 f03d
00000050: 9e37 48be 7def 5c3e 814d 0e3e 3581 0f3e
00000060: f7d3 3a3e 74ee c23d ec19 9b3d acae 623e
00000070: 5273 bcbc e026 8a3d ebde f43e 2b48 64be
00000080: 18d4 003f b133 34bf d0de c2be e510 d5be
00000090: dc27 363d e724 da3c 2ca1 053d 99b2 83bd
000000a0: d165 3ebe ed44 4abe e33e 2c3e c66e 18be
000000b0: 2e77 903d cf8d 303e efc8 c7bd b443 a63e
000000c0: baa1 2f3e 9ced 9fbd 50a1 383e 36e8 643e
000000d0: e07e 503d bf22 ad3d 9b5e 81bd b35a b6bb
000000e0: f69d 63bd 3658 79bd c38c b3bc 6e7e 51bb
000000f0: 40d3 29be 5605 12bd d1e8 3ebd 1fcb 21be
00000100: 62e9 173e b6a6 40bd 838f d93d c400 6a3e
00000110: 1c0a ad3d 51e0 ec3c cc4e bfbd 0a37 f03c
00000120: ae94 48be 7b8c f4bb 24d4 86be 476c 2f3e
00000130: a0d2 3e3e c5a4 24bd c6cb e4be 4916 85be
00000140: 65b6 fdbe 629f 6f3f 8734 8f3d 51fb 8dbe
00000150: bcc1 943d 2fa0 7d3e 1fd4 893e 5227 85be
00000160: 7654 353e 693b ef3d 9617 1bbc bcb1 f33b
00000170: 296e f0bc d885 0fbe 20ef c93c 6495 31be
00000180: 813c 5e3d 3118 d53c 6c70 1cbd b363 95bd
00000190: 8113 013e 4ca4 afbd 7e97 2d3e 45e8 41bd
000001a0: db3e 003e c7de 873c e185 fa3d 1b00 1e3e
000001b0: a5e2 8c3e 5014 c5bd 0ee5 003e 7804 843e
000001c0: 3ed3 58be 804d 1d3d 630f 88bd f274 19bd
000001d0: 2997 193d 3f16 563e 5169 8d3b 9242 6c3c
000001e0: 0d95 7f3e 88aa eb3c bbb5 fb3d 4b1b 29bc
000001f0: 8db0 233e 4bda 523d 0f6b ef3e 1236 7dbd
00000200: 1d7f 223e 68f2 5bbf 651c 0bbf 60db 9abe
00000210: ebfc 9f3c 0c75 b93c e49c 3cbe b8e1 28be
00000220: 385c 9dbe 105d 43be ed28 ba3d 4d08 ea3d
00000230: 59cd d13d 12d6 983e b5da a6bd 4634 1d3d
00000240: 0fec b83c c1aa 223e b36f 7dbc 402d bbbc
00000250: 74a6 303d c08f 853d d427 d23d cd69 313d
00000260: 98ea 173e 673b ecbc 350a 25bd 5f23 9e3e
00000270: 85bc d33d 5544 f0bd 96a8 653e e58c a1bc
00000280: 5a3d 29be 3181 823e 5b66 1a3e 8ea3 b23d
00000290: 293a 53be 64be afbd 0d76 003e ecae 143d
000002a0: fb8f 6c3d 2546 f73d 30c2 663e da69 ca3d
000002b0: 8378 c13c 30a7 7f3d 0404 953e bc1e a53c
000002c0: 4e04 1a3f 7c3e 62be 75ed 0cbe cf02 abbe
000002d0: d7b7 45bd c808 adbd 906e 18be 271d c43d
000002e0: d1e3 69be bc04 45bd bafb 153e 4f80 c4bd
000002f0: 92ae 693c 27e3 b8bd ad3b 3c3e 917b 533e
00000300: f790 0a3d bcbd d43d b5ff 223e f721 073e
00000310: 8cbb 583e 8ffb fe3d e31d c8bc ad49 3bbc
00000320: 377a 27be e3c6 38be 1817 fdbd bce0 87bc
00000330: c811 80be 7f3a 61bd 650b afbe bda2 10bd
00000340: 9651 9d3c b8a2 0ebe 07a8 3e3e ca1e 7e3e
00000350: bcd0 823e 80e5 94be 0040 3cbe 4b28 0dbd
00000360: 889b 77be e096 6ebe 6d41 adbe b978 e23d
00000370: 950f 0e3e 89fe 9fbd 1980 5dbe 79ee 5b3d
00000380: 9f29 8dbe a355 423f 214c a23e bc79 083e
00000390: 8c82 d63d 00fb 973d 9237 333e cd51 96bd
000003a0: 9dc6 9c3e 2e6b 303e ddb8 893d 0cc0 5f3d
000003b0: cbe7 813d 9db3 debe e652 26be 9b72 a1be
000003c0: cf35 ac3d e2a0 a73c b4d8 7d3d 5e96 af3c
000003d0: 2360 31bd 39f7 7d3c 183b 6b3e 6d5e e0bd
000003e0: 47cf 4f3e 1ce2 583e 42fe 90bd 7264 be3d
000003f0: 5623 a1bb de8a c3bc 47e5 8d3e 1ae4 953e
-0.048491713 -0.074151024 -0.21181464 -0.0131004 -0.06824899 -0.11703088 0.09425436 0.035742063
-0.017297829 0.13275667 0.05935702 0.09368714 -0.040643316 -0.1363867 0.24110894 0.2258432
-0.14283243 -0.04453483 -0.07059429 0.11744698 -0.19552466 0.21575733 0.13896753 0.14014132
0.1824492 0.095181376 0.075733036 0.22136945 -0.023004208 0.06745696 0.47826323 -0.22293155
0.5032363 -0.70391375 -0.38060617 -0.41614452 0.044471607 0.026628925 0.03262441 -0.06430549
-0.18593527 -0.19752856 0.16820864 -0.14886007 0.07053982 0.17241596 -0.09755122 0.32473528
0.17151538 -0.07808992 0.18030286 0.22354206 0.050902247 0.08453893 -0.06316873 -0.0055650114
-0.055570565 -0.06087514 -0.021917706 -0.0031966227 -0.16584492 -0.03564962 -0.04660875 -0.15800141
0.14835122 -0.047033988 0.10623076 0.22851855 0.08449194 0.028915556 -0.09341201 0.02932312
-0.19587967 -0.0074630356 -0.26333725 0.17131148 0.18635035 -0.0401962 -0.44686717 -0.25993565
-0.49553218 0.93602574 0.06992441 -0.27730802 0.072635144 0.24768136 0.26919648 -0.26006562
0.17708 0.116812535 -0.009466073 0.007436959 -0.029349403 -0.14015901 0.024650156 -0.17342144
0.05425692 0.026012512 -0.03819315 -0.07294407 0.12605096 -0.08576259 0.16952321 -0.04734065
0.12523977 0.01658572 0.122325666 0.15429728 0.27516666 -0.09623015 0.12587377 0.2578466
-0.21174332 0.038403988 -0.0664356 -0.037465043 0.037497673 0.20906924 0.004315533 0.0144201685
0.24959202 0.02876784 0.12290522 -0.010321449 0.15985318 0.05147771 0.46761367 -0.061819144
0.15868802 -0.8591676 -0.543402 -0.30245495 0.01952978 0.02263882 -0.18419224 -0.16492355
-0.3073442 -0.1907847 0.09089837 0.114273645 0.10244245 0.29850823 -0.08147184 0.03837993
0.022573499 0.1588545 -0.015468526 -0.022848725 0.043127492 0.06521559 0.10261503 0.04331379
0.14835584 -0.028836919 -0.040292937 0.3088636 0.103386916 -0.11731783 0.22427592 -0.019720504
-0.1652731 0.2548919 0.15078108 0.08722602 -0.20627655 -0.08581236 0.12545033 0.03629963
0.057754498 0.12073926 0.22535014 0.09883471 0.023617035 0.0624153 0.29104626 0.020156257
0.6016282 -0.22094148 -0.13762458 -0.3340058 -0.048271026 -0.084489405 -0.14885926 0.09575873
-0.22840811 -0.04810022 0.14646807 -0.095947854 0.014262812 -0.09027701 0.1838214 0.20652606
0.033829655 0.103877515 0.15917857 0.1319655 0.21165293 0.12450325 -0.024428314 -0.01143114
-0.16355215 -0.1804462 -0.123579204 -0.016586654 -0.25013566 -0.054987427 -0.3418838 -0.03531145
0.019203942 -0.1392926 0.18618785 0.24816433 0.25549877 -0.29081345 -0.18383789 -0.034462254
-0.24180424 -0.23299742 -0.33838978 0.11058182 0.13873132 -0.078122206 -0.21630897 0.053694222
-0.27570817 0.7591192 0.31698707 0.13327688 0.104741186 0.07420921 0.17501667 -0.07339821
0.3062028 0.17228386 0.06724713 0.05462651 0.06343039 -0.4349641 -0.1624256 -0.3153275
0.08408701 0.020462457 0.061974242 0.021434005 -0.043304574 0.015500837 0.22971761 -0.1095551
0.20293914 0.21180004 -0.07079746 0.09296502 -0.0049175425 -0.023869928 0.27713987 0.2927559

conv3.bias f4 [8]
00000000: 64d3 253e 194e f03d 401e 053e 595e e03d
00000010: cca5 05be 3382 9c3c 4a2e 0dbe fff6 c43d
0.1619392 0.11733646 0.1299982 0.109554954 -0.13051528 0.019105053 -0.13787189 0.09617423

t_conv1.weight f4 [8, 8, 3]
00000000: 0cd5 07bf decb 57be 0e42 e93e a1e1 1d3e
00000010: fa35 033e a5e4 a9bd 1042 83bd 70ec 88be
00000020: a067 95bd 0978 5bbf e88e 363e 5d7d 0d3e
00000030: 9975 a63e 8541 7b3e 4849 693d 7d6a 3e3e
00000040: 562b 2a3d 589a 48bf de4a 383e eb91 6d3e
00000050: 4cb9 2a3e b3ce 5d3d fc02 e5bb 4d92 973e
00000060: e981 70bd a544 123d f4e2 2bbc b78a 9ebe
00000070: 19f9 ddbd b3b0 10bf 00f1 923e f19f 143e
00000080: 7e50 b83d 0c81 d4be d86e f3bd 0fcb 06be
00000090: ec9a bdbd be7d 93bd ac2a 813d 827a e73d
000000a0: 4c0d 27be 586b 28bf 27f6 8cbe 408a 8abe
000000b0: 362b 01bd 8c80 253d 54b9 0e3d 8396 7bbe
000000c0: 8bfa 08bf e57d 223d 4485 2a3e 4fba 523d
000000d0: 87ed ffb7 aad0 ce3d da47 c9bc c0e9 7abc
000000e0: 2576 ed3c 03d2 60bf ed6d de3c 8f47 6a3e
000000f0: 037b 713e 8047 a03d 7262 833d 65cf e83e
00000100: 8715 263e 303e 09bf 7a73 933d 2cdb 433e
00000110: a072 b03d 4699 603e 1738 3c3e bc82 a33e
00000120: 58a8 b1be 0a3b 02be f155 933e 801d b03e
00000130: 1154 703e 765a bcbd 5a04 18be c6a2 fdbd
00000140: 93f1 023e 6306 86bf a42e 943e 9668 3b3f
00000150: 803f da3e 62bf 9fbc 2ba4 b1bc 6f49 023f
00000160: dd9b 61bd 9e65 d9be 5096 043e 4fd1 2a3e
00000170: 632b 1c3e 2189 0cbe 9cfa 843e 011c 233e
00000180: d344 d4bc 3ebb 913e 6c3d db3d 9b37 5ebe
00000190: 464b 61be 5973 87be 238b a43e bdee 533e
000001a0: 50e0 ad3d d1cc 79be de26 173e d410 b3be
000001b0: 7cd1 a13d 121d 31bd 78d0 7e3e d245 ed3e
000001c0: ff46 1e3e 2337 d9be 1421 1dbe 9c30 90be
000001d0: 04d8 efbc 05e0 8e3e 18fe fc3c 4010 31be
000001e0: 2bbc b3be 02c1 043e 3f04 e73e b402 0e3e
000001f0: 849b 7e3e cd21 d5bc b1a7 e43d 33f3 673d
00000200: 2d49 5a3e 4d8f 49bf a1fc b03e 24a0 493f
00000210: 4abf 2f3e f194 6d3e caaa 4c3c b274 ca3e
00000220: 8e69 e23d 3732 21bf 883b 9b3e f476 413e
00000230: 401c fd3d ffd8 943d 4680 ff3d 8b2d 0e3e
00000240: 072d 4abe 560d b7bc d392 2b3f 01c9 233e
00000250: 7449 de3d a682 a83e b272 4c3e 75c0 953e
00000260: 68ff eeba 0662 89be 54e8 de3d 6191 b7be
00000270: c831 48be b683 3ebe 5548 963e 32b5 243e
00000280: 7979 3a3e 19bc 0ebf 2a1c bd3d 59c1 cabc
00000290: 802e 9b3e e5ef 2bbb d696 113e c22a e53c
000002a0: 69ba bdbe 815c 093c 3459 d63e b6cc 9c3e
000002b0: 844a c1bd dbaa 20bd f51b 133e 620a bb3e
000002c0: 162b 0f3e b616 7cbd 0d5b b3bd bf02 ebbd
000002d0: e1c1 e1bd 315d 62bc 7439 143d 661a 5a3e
000002e0: 72b2 8b3d c8ea 1abf e8f7 e2bd 51b1 8ebe
000002f0: c6c9 3fbe 1ef2 40bd 2348 84be 204a 1ebe
-0.5305946 -0.21073863 0.45558208 0.15418102 0.12813559 -0.082955636 -0.06409085 -0.26742887
-0.072951555 -0.85730034 0.17827952 0.13817354 0.32511595 0.24536712 0.056954652 0.1859531
0.041545235 -0.7836051 0.1799731 0.23200195 0.16672248 0.0541522 -0.006988881 0.29603806
-0.058717642 0.035709996 -0.010491122 -0.30965206 -0.10838527 -0.5651962 0.28699493 0.14514138
0.08999728 -0.41504705 -0.11886376 -0.13163398 -0.09258065 -0.07201718 0.06306967 0.113026634
-0.16313666 -0.65788794 -0.2753155 -0.270586 -0.03153535 0.040405795 0.03484471 -0.24569134
-0.535073 0.039670844 0.166524 0.05144721 -3.0508976e-05 0.10098393 -0.024570394 -0.015314519
0.028987 -0.8782045 0.027152026 0.2287886 0.23582081 0.078261375 0.06415261 0.4547073
0.1621915 -0.53610516 0.0719976 0.19126576 0.08615613 0.21933469 0.18380772 0.3193568
-0.3469875 -0.12717834 0.28776506 0.34397507 0.23469569 -0.091969416 -0.1484541 -0.12384562
0.12787466 -1.0470699 0.28941834 0.7320646 0.42626572 -0.019500438 -0.021684727 0.508933
-0.055080283 -0.4246034 0.12947965 0.16681407 0.15250926 -0.13724186 0.2597245 0.15928651
-0.025911724 0.28463167 0.10705075 -0.217009 -0.22001371 -0.2645519 0.32137403 0.2069654
0.0849005 -0.24394538 0.1476092 -0.34973776 0.07901284 -0.043240614 0.24884212 0.4634233
0.1545677 -0.42424878 -0.1534465 -0.28162086 -0.029277809 0.27905288 0.03088288 -0.17291355
-0.35104498 0.12964252 0.45120427 0.13868219 0.24864012 -0.026017094 0.11164797 0.056628417
0.21316977 -0.78734285 0.3456774 0.7875998 0.17162815 0.23201348 0.012491891 0.39542156
0.11055289 -0.62967247 0.30318856 0.18893033 0.12358904 0.07267951 0.12475638 0.13884561
-0.19743739 -0.022345226 0.6702091 0.15994646 0.10853854 0.32912177 0.19965628 0.29248396
-0.0018234076 -0.26832598 0.10884157 -0.35853103 -0.1955024 -0.18604931 0.2935206 0.16084746
0.182104 -0.55755764 0.092338875 -0.024750398 0.30308914 -0.0026235518 0.14217696 0.02797449
-0.37056282 0.008383871 0.41864932 0.30624932 -0.09438041 -0.03922544 0.14366134 0.3653136
0.1398128 -0.061545096 -0.08757601 -0.11475133 -0.110233076 -0.013816164 0.036187604 0.21299133
0.06821145 -0.605145 -0.110824406 -0.27869657 -0.18729314 -0.0471059 -0.25836286 -0.15457964

t_conv1.bias f4 [8]
00000000: bb71 2ebc 01cb 21be d748 e63d ec66 713d
00000010: beb2 cc3b 9a61 cbbc ca6b 153e 440d 923e
-0.010647233 -0.15800096 0.11244362 0.058936045 0.0062468937 -0.024826813 0.145919 0.28525746

t_conv2.weight f4 [8, 16, 2]
00000000: cf28 483e d993 623e ba0f 80bd e858 423e
00000010: c8ea 013e a74a 3f3f e573 19bd d5dd 863e
00000020: af77 f83d dc91 e23d 2a21 9a3e 5f40 433d
00000030: b232 833d 378f 743d 377e 2b3e b6e9 803e
00000040: 7dde 203f 5e1a aa3a 6081 ad3c 1d71 c13d
00000050: 8306 443e f522 043f 4362 973e 8a53 fb3d
00000060: 5f3a 6a3e 826c 8e3e 67a3 3f3e 2c86 bb3d
00000070: 82ae 1b3b 33ba 11be adc6 0c3e 04a1 4bbe
00000080: 508b 143e 5c02 903d d6b4 3cbe 1ee2 683e
00000090: 854a 383e 42b5 103e e41e 7cbd 58ff 6f3d
000000a0: 2e01 1fbd 528b 39bd 364d 843e 3a87 eb3d
000000b0: a6ca d33d 4d5c 9bbe 034b bfbd 5b31 b2be
000000c0: 47bb 0f3e 6b79 843d af20 5bbe ad73 70bd
000000d0: 00b7 803e bfa4 423e e9f7 9b3e ba70 f33c
000000e0: 6284 193e 2a85 303d d20c 873e 02b3 2b3e
000000f0: f0ee 9abd 2897 e5bd 874c 25be 0b7a 5f3e
00000100: f0f3 39be 76d1 bebd 39ac 33be 12ba 18be
00000110: 5713 21be f416 81be b0a6 e13c d445 a33d
00000120: 3475 923e 6c93 873e 1db8 eeba 29ed 62ba
00000130: 08f0 8c3e 9a8c 763e 79e6 6d3e 81ad 5c3e
00000140: 0521 d6be 7d6f 1bbe d358 b8bb b1e2 9bbd
00000150: df97 17be 439b 81be d6b6 96bd 1547 c9bc
00000160: 2a45 c2bd 005a 07be e08c d0bd e8e5 63bd
00000170: afbf 44be a296 993c d38d 11be 5226 633c
00000180: d813 703e 5486 993d 6536 d1bd 53f5 28bd
00000190: 2f2f c73e a6a5 1f3e d4b5 55be c021 ba3e
000001a0: 2487 4fbe ce15 d43d 57e0 90bd 68fa ca3d
000001b0: 2d67 4ebe 106f 71be e4e2 30be 46cf 6d3d
000001c0: a71c 7cbd 4e8e 7b3d 7911 373e c1e9 2bbe
000001d0: 32a2 303e b24a 263e 5916 4bbe d86e c63e
000001e0: aca8 e83c be87 293e d6e4 e43c 0d85 86bf
000001f0: db0b 3b3c ecd0 06bd 99f5 3abd f231 653e
00000200: 822f 3c3d c875 753e 2349 b4bd 815f b4bc
00000210: f7ae c0bd e6fb 313e 597c fb3e ad21 3cbd
00000220: b594 143d 973f 97be 542b 683e a636 3f3e
00000230: dc62 19be 03fb 893d 6936 2abd 7c7f cdbc
00000240: fe15 cebd 62bb 1b3d 6f7e 9d3e 250c 873d
00000250: 98d4 7f3e df83 f9bc 4dba 343e 1e58 abbd
00000260: 965d 133e d71b 793e 6659 673e 6e32 5d3e
00000270: b6fb 663d 4538 8f3e 62cf 863d e8bf 1abe
00000280: 48f3 b93d 4c78 373d acb2 d53d b527 373e
00000290: 6d29 043e dd71 fcbd ae6d a4be cadd b83e
000002a0: d3d3 6d3e e330 da3b 3eb5 f1bd 0540 353e
000002b0: e48c 5c3e 4c6b 113e 3849 c63e db5a 3f3e
000002c0: bb67 143f cc4c 03be 28af 37be 748e a53d
000002d0: 5d69 483d 9757 39bd d30a 2c3d a18d 163e
000002e0: 60d3 ed3d 7353 bc3d 06a5 e33d ff63 f03e
000002f0: 621a 11be 2a5c 56be 3a14 fd3d 33c7 8a3e
00000300: 5898 753e f450 003c 0f34 e7bd 3b56 863e
00000310: f8ce 0f3e 0a14 523e d5ef 3abd 73e7 453d
00000320: 4d26 f5bd de1d 9bbe 05b2 503e 6e8d 223e
00000330: add6 edbd a2e6 633d a8ed debd aeb1 573e
00000340: 42c1 7cbe 5305 8bbd f75e 563d 9b02 b2bd
00000350: 5d2b 9b3d 27ea 243e 3fdf bf3c fbe8 263e
00000360: 49f2 463e 9092 4d3d 7da9 333e ee61 0e3d
00000370: 49a1 94bc 5331 9f3c ac14 2bbe affc 223e
00000380: 7b25 ea3d bf11 d53d 2338 e8bd 7694 053e
00000390: 8e6c a6bc 2b93 4f3e 6556 10be 2c46 24bd
000003a0: 4709 7abe d6ad 21be 0b41 173e 5079 01be
000003b0: 49f6 213e 77fa 75be b402 b6be 0e47 3ebe
000003c0: 60fb 1fbe f313 e5bd a722 dcbd 2e86 02be
000003d0: 9ffe 643e dc11 cc3d cd74 f8bd e8a2 0fbc
000003e0: fe3b 4b3e 85e5 9fbd 7a0a 2cbe 83df c6bd
000003f0: 7afb 20be 1eec 56be 9718 16be 71b9 113d
0.19546817 0.22126712 -0.062529996 0.18979228 0.12687218 0.74723285 -0.03746404 0.2634112
0.12132203 0.11062977 0.30103427 0.04766881 0.06406154 0.059706893 0.16747366 0.25178307
0.6283949 0.0012977829 0.021179855 0.09445403 0.19143109 0.5161584 0.29567155 0.12271793
0.2287383 0.2781716 0.18714677 0.09156451 0.0023755138 -0.14231186 0.13747664 -0.19885641
0.14506269 0.070317 -0.18428358 0.22742507 0.17997177 0.14131644 -0.061552897 0.058593124
-0.038819484 -0.04529888 0.25840157 0.11500402 0.103413865 -0.30343857 -0.09340479 -0.3480328
0.14036284 0.06468471 -0.21399187 -0.058704067 0.25139618 0.19008158 0.30462578 0.029716838
0.14991906 0.043095745 0.2637697 0.16767505 -0.07565105 -0.112104714 -0.16142474 0.218239
-0.18159461 -0.09317295 -0.17546166 -0.1491473 -0.15730034 -0.25212824 0.027545303 0.07972303
0.28605044 0.2647966 -0.0018212829 -0.00086565554 0.2752688 0.24077073 0.2323245 0.21550561
-0.41822067 -0.15179248 -0.005625823 -0.07611597 -0.14804028 -0.25313768 -0.07359092 -0.024570027
-0.09485848 -0.13217926 -0.1018312 -0.055639178 -0.19213746 0.018748585 -0.14214258 0.013864117
0.2344507 0.07496324 -0.10215453 -0.041249584 0.38903186 0.15590534 -0.20870143 0.36353874
-0.20266396 0.103557214 -0.070740394 0.099110425 -0.20156546 -0.23577523 -0.17274052 0.058059
-0.061550763 0.06141501 0.17877759 -0.16788389 0.17249373 0.16239432 -0.19832744 0.38756442
0.028400742 0.16555688 0.027941149 -1.0509354 0.011416401 -0.032914087 -0.045644376 0.22382334
0.045943744 0.23970711 -0.08803012 -0.022018196 -0.09408372 0.17381248 0.49118307 -0.045930553
0.03627463 -0.29540703 0.22672778 0.1867319 -0.14979118 0.0673733 -0.041555796 -0.025085203
-0.100627884 0.0380205 0.30760524 0.06594113 0.24983442 -0.030458389 0.17649193 -0.083664164
0.14391169 0.24327026 0.22592697 0.21601269 0.056392394 0.27972618 0.06582524 -0.15112269
0.09079605 0.04479246 0.104344696 0.17886241 0.12906428 -0.12326405 -0.3211493 0.36106712
0.23225336 0.00665866 -0.11802147 0.17700203 0.2153812 0.14201087 0.38727736 0.18687002
0.5797078 -0.12822264 -0.1793791 0.080838114 0.048928607 -0.045249548 0.04200251 0.14702465
0.11612582 0.09195604 0.1111546 0.4695129 -0.1417022 -0.20933595 0.123573735 0.27105102
0.23983896 0.007831801 -0.11289226 0.26237664 0.14043796 0.20515457 -0.045638878 0.04831643
-0.11970196 -0.30296224 0.20380409 0.15874264 -0.11613212 0.05563987 -0.10885173 0.21063873
-0.24683097 -0.06788125 0.05233666 -0.08691903 0.0757663 0.16104947 0.023421882 0.16299812
0.19428362 0.0501886 0.17545123 0.03476136 -0.018143313 0.0194327 -0.16707104 0.15916704
0.1143293 0.104037754 -0.11338832 0.13044915 -0.020315435 0.20270984 -0.14095457 -0.040105984
-0.24417602 -0.1578897 0.14770906 -0.12643933 0.15816607 -0.24021326 -0.35548937 -0.18581793
-0.15623236 -0.11185446 -0.10748797 -0.12746498 0.22362755 0.09964344 -0.12131653 -0.008766867
0.19847104 -0.07807449 -0.16800871 -0.097106 -0.1572093 -0.20988509 -0.14657818 0.03557724

t_conv2.bias f4 [16]
00000000: 988a 073d dc59 a63c 3c9a a33d ee42 9fbd
00000010: 4c97 8bbd 2ec8 dc3d 6d92 313d ade0 8ebe
00000020: a2b9 0cbd 9d5d 50be 98fb fd3d ea05 27bd
00000030: 5788 963d 24c5 40bc f529 bebd 7127 66be
0.033091158 0.02030652 0.07988402 -0.07776438 -0.06815967 0.10780369 0.043352533 -0.2790579
-0.03435672 -0.2034821 0.12401503 -0.040777124 0.073502235 -0.011765752 -0.092853464 -0.22475983

t_conv3.weight f4 [16, 32, 2]
00000000: befc 503e 2633 f23d 37cf 66bd 18ea 0d3e
00000010: 3eb0 ccbd a236 efbd 8454 8cbc 25da 46be
00000020: cda9 d3bd be95 27be 8ce9 083e 37b9 193e
00000030: e363 793d 1201 663d 5c1a 0a3e 1913 ea3c
00000040: e136 413e 18d1 eb3b c756 06b9 ca68 1d3d
00000050: 9033 4a3e e66c 213e 79f6 6c3e 735c 383e
00000060: 0082 a73c 9c81 3f3e 79eb c53d 0304 793e
00000070: 290f e0bd bc8e 803c 4dc1 273e 6d62 ad3d
00000080: b351 81be 5612 463a aabe fabd 7334 e8bd
00000090: 3093 1d3e 3602 ab3c c97b 11be 5604 c3bd
000000a0: 80f8 d3bc 4e16 a83d 670b 6b3d c805 6dbd
000000b0: 9d0c dbba 0748 93bd 2766 91bd d6a8 dbbd
000000c0: f0ae 293e b019 533e 80d9 8f3b 3f46 80bc
000000d0: 41e0 8f3d ea28 6e3d 3691 05bb 471c 01be
000000e0: 3669 90bd 3490 3fbe 400f 083d 281b 773d
000000f0: 3016 e53c 69cf 013e f098 663d 66ff 27bd
00000100: 0411 9b3d 08df 6b3e d85f debd 6c4b 99bd
00000110: de18 99bc d0b6 5cbe 858c 87bd 136a fabe
00000120: c08e b2bd 4e5a 0d3e 0eb8 343b 1068 123e
00000130: 0912 453e a82e 223e 74ac 0e3e f009 653e
00000140: 7366 063e 7fea 583e 21cc 713d db32 7f3d
00000150: 9c62 433e 7b33 aa3d 9479 3d3e d293 d43d
00000160: 03d3 1c3d c3bb 463e c3b0 e73b 6837 443e
00000170: e23c 1fbe b933 42be f6ac c23d 4a9c 4cbe
00000180: cf42 4e3c c502 7abd e953 5bbd 6675 9c3d
00000190: 6bad d03d deed 5f3e 545f 5abe e93b 9abd
000001a0: c23b 393c 02d3 153e 5735 843d cc2d f3bd
000001b0: fa67 b73d 83a0 8cbd dfdd 60bd c7b7 88bd
000001c0: 4029 c13d 4c92 4f3e f8c5 6e3e e7e8 703e
000001d0: 7cb1 3f3e 14f2 313e 51c7 ea3d 391f db3d
000001e0: 28f6 7abd b4bb ebbd 7260 8d3d f678 c3bd
000001f0: c812 513d 8f69 5f3d 7ca7 febc 84f1 483d
00000200: b903 d93d b51d 483e 5cc1 1dbe 7c6b 7b38
00000210: 16d2 e9bc 83fa 0e3c b628 1bbe ba24 783e
00000220: 544c 453d 2536 35be a0fb c63d 085f 77ba
00000230: 77e4 8e3d e9e7 e13d e31e ae3d 9d19 763d
00000240: 3dea 3d3e 6432 df3c 4dd5 403e a2a7 743e
00000250: 8820 243d 36d0 3e3e 56b4 113b ea56 0e3e
00000260: 1b6f bb3d 6608 363e 70e4 5ebc fca1 953e
00000270: 0ea7 e9bd f2d3 39be 9c36 e0bc 364f d6bd
00000280: e28a 38be 2b05 953d b383 8f3a d34f 63bd
00000290: 74f3 ec3c e580 743e e699 a3bd 07f0 01be
000002a0: e4f3 323d bd0b a0bd 79ab 0c3e 00c2 b1bb
000002b0: 4647 353d 80c9 933c 7cdf 4d3d a580 bcbc
000002c0: ee7d 503d ee5e 1d3e 7d92 1a3e 6680 083e
000002d0: 3763 443e dc46 d83d 4dd7 4b3e b835 c7bd
000002e0: e03e edbd cf44 d6bc 585f 1b3e d05b 483c
000002f0: 3acd bebd 70e8 bd3d 370e abbd 9247 513e
00000300: 71f4 db3a 6ac8 c1bd 692f a3bd 5bd9 9f3d
00000310: e9d2 bf3d 994c 0f3e d7ad 643e 942e d53e
00000320: fe6a 04be 252c 4b3d 5aa1 0c3e 0525 323c
00000330: 6b53 393e ce2e 38be 8929 8abd 96b6 2abb
00000340: bde4 b3bd 75c0 3cbc 3767 f33d 99fd 2c3e
00000350: 0d2f 173e f495 04be 8fdd ef3d d0a1 513d
00000360: e458 903d 7dcf 81bd b591 b9bb a4ab 933d
00000370: 55ad bc3d 2afa 353e 964a a33d 8fbf 47bf
00000380: f0a3 65be 5652 083e f73a e83d 6f10 c83d
00000390: 34a9 b4bb 9870 21bd 939b 5a3e 1dae 983e
000003a0: bfa8 10bd bddf 193e cee1 aa3c c07f 423d
000003b0: 71ec f4ba 2925 e43d 918d 0dbe 6557 843d
000003c0: f910 8e3d 18cf dc3d e48e f13d 6a89 bb3b
000003d0: 67dd 903d 05b5 493c 0139 6cbd e16c 83bc
000003e0: e238 e7bd 07a7 b43d 1a5a 323d 100e 5dbd
000003f0: 5a3e aabd b501 9bbe cfb0 383d 7abb b53d
0.20408913 0.11826162 -0.05634996 0.13858831 -0.09994553 -0.11680342 -0.017130144 -0.19419153
-0.10335121 -0.16365716 0.13370341 0.1501206 0.060886275 0.056153364 0.13486618 0.02857356
0.18868591 0.007196557 -0.00012811563 0.038430013 0.19746232 0.15764198 0.23140897 0.18004017
0.020447731 0.18701786 0.096640535 0.24317937 -0.109403916 0.015693061 0.16382332 0.08466039
-0.25257644 0.0007555833 -0.122433975 -0.11338129 0.15388179 0.020875078 -0.14207377 -0.095223114
-0.02587533 0.08207379 0.05738392 -0.05786684 -0.0016712133 -0.071914725 -0.07099562 -0.10725562
0.1657064 0.20615268 0.0043899417 -0.015658496 0.07025195 0.058144487 -0.0020380742 -0.12608443
-0.070513174 -0.18707353 0.03321767 0.060328633 0.027964681 0.12676777 0.056298196 -0.04101505
0.07571605 0.23034298 -0.108581245 -0.07485089 -0.018688615 -0.21554112 -0.06618599 -0.48909053
-0.08718634 0.1380398 0.0027575525 0.14297509 0.19245161 0.1583811 0.13932973 0.22367072
0.13125019 0.21183203 0.059032563 0.06230436 0.19080585 0.083106 0.1850341 0.10379757
0.038287174 0.19407563 0.007070632 0.19161761 -0.15550569 -0.18965043 0.09505646 -0.19981495
0.012589171 -0.061037797 -0.05354682 0.076395795 0.10189327 0.21868083 -0.21325427 -0.07530958
0.011305751 0.14631274 0.06455486 -0.118739694 0.08955379 -0.06866553 -0.054899093 -0.06675678
0.09431696 0.20270652 0.23317707 0.23526345 0.18720049 0.17377502 0.11463798 0.106993146
-0.06126991 -0.11510411 0.06903161 -0.09544556 0.0510433 0.054544028 -0.031085722 0.049058452
0.10596413 0.19542582 -0.15405792 5.9943166e-05 -0.02854256 0.008726719 -0.15152249 0.2423276
0.048168495 -0.17696436 0.097159624 -0.0009436463 0.0697717 0.110305615 0.08501985 0.06008302
0.18546386 0.027245708 0.18831368 0.23892072 0.040070087 0.18634114 0.0022232733 0.13900343
0.09152051 0.17776641 -0.013604268 0.29225147 -0.11408816 -0.18147257 -0.02736979 -0.10464327
-0.1802173 0.07276376 0.0010949284 -0.05549605 0.028924681 0.23877294 -0.07988338 -0.1268922
0.043689623 -0.07814739 0.13737287 -0.005424738 0.044257425 0.018040419 0.05026196 -0.023010561
0.050901346 0.15368244 0.15094943 0.1333023 0.19178472 0.1056039 0.1990635 -0.09727043
-0.11584258 -0.026155857 0.1517309 0.012228921 -0.093164876 0.092728496 -0.08352321 0.20437458
0.0016781223 -0.09462054 -0.07968027 0.07805129 0.093664 0.13994063 0.2233194 0.416371
-0.1293144 0.049602646 0.13733426 0.010873084 0.18098228 -0.17986605 -0.067462035 -0.002604877
-0.08783863 -0.011520495 0.11884921 0.16893615 0.14764042 -0.12947828 0.11712181 0.051179707
0.070482045 -0.063384034 -0.0056631216 0.07210472 0.09212748 0.17771211 0.079732105 -0.7802667
-0.22425818 0.13312659 0.11339372 0.097687595 -0.0055133346 -0.03941402 0.2134841 0.29820338
-0.03531718 0.15026756 0.020859625 0.047485113 -0.0018686188 0.111399 -0.13823535 0.06461982
0.06936831 0.107816875 0.11794832 0.005723168 0.07073479 0.012311225 -0.05767155 -0.016043128
-0.112901464 0.088209204 0.04354296 -0.05396849 -0.08312674 -0.3027474 0.045090493 0.08873649

t_conv3.bias f4 [32]
00000000: 4fc0 183e ebb5 5b3c 527d f5bc 6b51 3fbd
00000010: 6a51 a9bd 82b6 7f3d d145 0a3e a94d b83d
00000020: 31c1 dc3d 0d21 513d b71d 013e 6927 303d
00000030: 1fb7 fa3d 679d c73d a608 02bd 919b b3bc
00000040: fa78 583d 7ffc 933d 237a 1e3e 6ab2 2c3b
00000050: 39b2 8e3c f5b9 cebe 546c 10be 6af1 20be
00000060: a4d0 9c3d 4352 29bd 66e4 fa38 21fe 06be
00000070: 67fc a8be 1683 7fbe 9407 9cbe c0ca d8bd
0.1491711 0.013410072 -0.029966984 -0.046708506 -0.082674816 0.062429912 0.13503195 0.089991875
0.10779036 0.05105691 0.12608992 0.043006334 0.12241959 0.09746819 -0.03174653 -0.021924766
0.052849747 0.07225894 0.15476279 0.002635146 0.017418968 -0.4037625 -0.14103824 -0.15717092
0.076569825 -0.041338217 0.000119634715 -0.1318288 -0.33005068 -0.24952349 -0.30474532 -0.105855465

conv_out.weight f4 [1, 32, 3]
00000000: 30ee a9bd 8288 e5bd 904a 71bd f742 2bbe
00000010: 71af b1bc 0e4c 763b f184 473e ed2b 1e3e
00000020: b9f0 7b3d 9cae 363d 3c27 0dbf a12b bfbe
00000030: 1098 aebc 5ddd 91be 7e8b bbbe ca57 a6bd
00000040: f36a 42bd eb4c dabd 8f33 133c 0a9e 13be
00000050: eb3f adbd 2945 b4bd 1e28 fc3c d596 1fbe
00000060: eb91 f2bd dbd3 bb3b a16a fabd 2ee6 0fbe
00000070: ff1a 033c 93d5 e7bd 36f5 133c fc14 02be
00000080: 3824 10be 720e 3bbe 4fb8 21be c1c8 09be
00000090: 60e0 11be 6e34 18be 1268 00bd f3ec 25be
000000a0: dd2c 3cbd ab67 043d 8906 4f3e 79dd cd3d
000000b0: 6e6e 823e ab37 033e da6e 03be fb9c 2abe
000000c0: 010c a33d 8bb6 7f3d bd74 00be 304f 4f3e
000000d0: 489c 173e dcb3 893e 96ef 08be 1835 8cbd
000000e0: e41a 18be 8f0d 083e 8349 293e 6ce5 4a3e
000000f0: 79e6 d23d 7c28 1d3d 4412 08be 637a f43e
00000100: d239 8c3f 7160 7b3f 89d5 b03c c08c 26be
00000110: 4d15 983c 539f 573e f136 5e3e 4e56 963e
00000120: f6c3 0abe 7091 acbc 0f64 f9bd b930 4ebe
00000130: eedf 86bc 8c95 cdbc ee8d efbd 0b25 0abd
00000140: 5e34 13be 3c23 45be 4af7 733d fd04 37bd
00000150: f720 213f 691b 5c3f 12e8 533f a881 2f3e
00000160: 594a f23c 2452 c93e c662 8e3f a185 6a3f
00000170: cbb6 473f b6fd 26be 3557 88bd 03cb 493c
-0.08297384 -0.112076774 -0.058909 -0.16724764 -0.021690102 0.0037581953 0.19484307 0.15446444
0.061508868 0.044600114 -0.5513799 -0.37337974 -0.021312743 -0.284892 -0.36629862 -0.08122213
-0.047465276 -0.10659202 0.0089844605 -0.14415756 -0.08459457 -0.08802254 0.030780848 -0.15584882
-0.11844238 0.0057320422 -0.12227369 -0.1405265 0.008002042 -0.11320033 0.009030631 -0.12703317
-0.14076316 -0.18267229 -0.15792964 -0.13455488 -0.14245749 -0.1486375 -0.03134925 -0.1620367
-0.045941222 0.032325428 0.20217337 0.10052008 0.25474876 0.12814204 -0.12835255 -0.16661446
0.07961274 0.062429946 -0.12544532 0.20245051 0.1480571 0.26895034 -0.13372645 -0.06846064
-0.14854008 0.13286422 0.16531949 0.1981408 0.102978654 0.038368687 -0.13288218 0.47749624
1.0955145 0.9819403 0.021586196 -0.1626463 0.018564845 0.21056871 0.21700646 0.2936272
-0.13551316 -0.021065444 -0.12177288 -0.20135774 -0.0164642 -0.025095724 -0.11696993 -0.033726733
-0.14375445 -0.19251722 0.059562005 -0.04468249 0.62940925 0.85979325 0.82775986 0.17139304
0.029576467 0.3932048 1.1123893 0.9161015 0.78013295 -0.1630772 -0.066572584 0.012316468
