dAE_PyTorch/checkpoints/spectra_dae_epoch_4.pth (torch, 18875 bytes, 13 tensors)

conv1.weight f4 [32, 1, 3]
0.66359603 0.5565091 -0.18343778 -0.12341943 -0.19193308 0.4461763 -0.4811543 0.61761516
-0.0037917364 -0.035186343 -0.056689717 0.7482773 0.40342033 -0.26351458 -0.3430954 0.02741891
-0.58904845 0.36185524 -0.515579 -0.5584586 0.33134755 0.7247977 0.15843666 -0.48461536
-0.020508545 -0.6135616 0.10501221 0.08766622 0.38062143 0.5453219 -0.43009654 0.35491654
-0.5478654 -0.599977 -0.031965807 0.5537107 0.18805978 4.4738386e-05 0.492527 0.51136243
-0.37113813 -0.67955434 0.5743137 -0.01993276 0.23909868 -0.25473085 0.7093082 -0.4239853
-0.0024813246 -1.073676 -0.003708671 0.37569594 0.34827986 0.34584916 -0.8980561 0.071032315
0.1661435 0.2930128 0.13874355 0.33849025 0.060674664 0.14382367 -0.07990108 -0.4698839
-0.11576334 -0.117204115 0.7185031 -0.25999406 -0.062670074 -0.4298102 -0.6284394 -0.5361523
-0.48240456 -0.672584 0.094165124 -0.36255777 -0.36300188 -0.4834972 -0.30907497 -0.5014112
-0.19530354 0.14888608 0.37102535 -1.1681528 -0.23621526 -0.28911558 -0.67840457 -0.04393047
0.22666156 -0.8030299 -0.014329679 0.7707195 -0.06874591 -1.1211054 0.32283387 0.105561644
00000000: 6ee1 293f 6177 0e3f 1dd7 3bbe 53c3 fcbd
00000010: 1b8a 44be 3871 e43e db59 f6be 071c 1e3f
00000020: c87e 78bb 8e1f 10bd 7a33 68bd 1a8f 3f3f
00000030: 1c8d ce3e 62eb 86be 33aa afbe 9f9d e03c
00000040: e1cb 16bf 1745 b93e fcfc 03bf 25f7 0ebf
00000050: 63a6 a93e 588c 393f 383d 223e 811f f8be
00000060: 8901 a8bc 5f12 1dbf a410 d73d 598a b33d
00000070: d0e0 c23e 379a 0b3f 9d35 dcbe 9fb7 b53e
00000080: e840 0cbf 1898 19bf 94ee 02bd fcbf 0d3f
00000090: be92 403e 7aa5 3b38 802c fc3e a6e8 023f
000000a0: d105 bebe 46f7 2dbf 3906 133f 074a a3bc
000000b0: 49d6 743e 156c 82be 3995 353f 9a14 d9be
000000c0: b89d 22bb 376e 89bf 2d0d 73bb 385b c03e
000000d0: bd51 b23e 2413 b13e 01e7 65bf 6479 913d
000000e0: 8621 2a3e c605 963e ca12 0e3e 984e ad3e
000000f0: ff85 783d 8346 133e 2da3 a3bd 9f94 f0be
00000100: 5415 edbd b608 f0bd d2ef 373f f11d 85be
00000110: 2b59 80bd 1510 dcbe 68e1 20bf 4741 09bf
00000120: bbfd f6be 772e 2cbf a5d9 c03d 2ca1 b9be
00000130: 62db b9be f28c f7be 133f 9ebe 7c5c 00bf
00000140: a7fd 47be 9875 183e 09f7 bd3e 0886 95bf
00000150: 6ae2 71be f506 94be ecab 2dbf 70f0 33bd
00000160: f819 683e 5e93 4dbf 08c7 6abc e04d 453f
00000170: a8ca 8cbd 6280 8fbf 7b4a a53e b430 d83d

conv1.bias f4 [32]
-0.15368177 -0.05183614 -0.08049873 -0.62329096 -0.3126 0.037402842 0.25943965 -0.27625856
0.1649664 -0.28337905 0.33666074 -0.101657555 -0.35900858 0.1226492 -0.22697172 -0.48425266
0.06726809 -0.11201679 0.37733883 -0.55543584 -0.13355179 0.14775522 -0.31840336 -0.09876594
0.6328486 -0.068752356 0.39093083 -0.123908065 -0.38891008 0.2258021 -0.65534556 -0.07973535
00000000: c15e 1dbe 2252 54bd 85dc a4bd ff8f 1fbf
00000010: 1b0d a0be b933 193d 46d5 843e c371 8dbe
00000020: f4ec 283e 0f17 91be cc5e ac3e d631 d0bd
00000030: f9cf b7be 812f fb3d 466b 68be f7ef f7be
00000040: dac3 893d 0f69 e5bd 8e32 c13e 0b31 0ebf
00000050: cdc1 08be 254d 173e c405 a3be cc45 cabd
00000060: 5e02 223f 09ce 8cbd 1628 c83e 83c3 fdbd
00000070: 391f c7be aa38 673e bac4 27bf 4a4c a3bd

conv2.weight f4 [16, 32, 3]
0.018355358 0.10978432 0.044492982 0.07327855 -0.005675117 0.24396352 0.13458776 0.11266014
0.0578808 0.70317656 1.2151275 2.2730086 -0.0011979698 -0.099094905 -0.050670896 0.0987777
0.15898156 -0.1289416 0.027166396 -0.0031938157 -0.22081596 -0.10419924 0.04459016 -0.023746397
0.21084408 0.16525908 -0.2864753 0.086275265 0.03969177 0.34024933 -0.0022128683 -0.079879
-0.5292819 0.10529965 0.4113442 0.4192134 -0.008353981 0.19014487 0.56012 -0.368277
-0.032539114 -0.64230394 -0.049084537 0.06099025 0.22232793 0.14072658 0.036934447 0.032312363
-0.27835348 -0.2814284 -0.23706013 -0.08525588 0.07360509 0.16651335 0.052846923 0.017903361
-0.13693129 0.08628679 0.4590961 0.19127114 -0.07054595 0.20070781 0.03394579 0.038511515
-0.027020236 -0.0140234465 -0.106460035 -0.05166785 -0.048809327 -0.09987173 -0.07392575 -0.115239225
-0.15938789 -0.14432871 -0.39880937 -0.106421776 -0.19393091 -0.13869692 0.07434718 -0.20368285
0.007918756 -0.10781917 0.13368951 -0.023169588 -0.016618732 0.0026222914 -0.21417707 -0.033158373
-0.04075795 -0.94500107 0.7805887 0.4596837 1.3852792 -0.41465685 -0.23264399 -0.029303094
0.02437451 0.08882325 0.1497632 -0.1505745 0.02561654 0.23966125 -0.264572 0.08657018
0.09722579 0.34543782 -0.15024939 1.0612562 0.01803016 0.006403991 -0.1202648 0.14197032
0.119796 0.22165306 0.080647096 0.056142956 0.08701036 0.1270187 -0.20194457 -0.6121723
0.16603625 0.24195708 -0.046306305 0.021761103 -0.0112832105 0.23032899 -0.192609 0.10999094
-0.20884073 -0.47963348 0.32018945 0.16103774 -0.1010286 -0.19396278 0.2544102 0.21658474
0.5539752 -0.90211046 0.08812256 0.033095736 0.1283857 0.08872967 0.002558655 -0.09627225
-0.28579238 -0.35184303 -0.3590594 0.045429613 0.052538484 0.17459175 -0.17547232 0.050020043
0.09528158 -0.55225885 -0.58314884 -0.23478855 0.051476497 -0.1743185 0.018724222 -0.08741635
0.12991925 -0.0093491 0.15403564 -0.12661524 -0.2982999 -0.09436793 -0.15525441 -0.09783925
-0.14343794 -0.109003924 -0.20516318 -0.113796994 -0.1212571 -0.11294874 0.47398782 -0.07471329
-0.18002754 0.12098535 -0.02418034 -0.04561421 -0.010702229 -0.041097816 -0.17339212 0.011592831
0.15069473 -0.8463858 0.46813384 -0.12443906 -0.005863823 -0.34480175 0.301115 0.32085803
-0.121499054 -0.018299712 -0.091336384 -0.2714594 -0.07745791 0.2209852 -0.051651146 0.039636794
0.10744219 -0.3847033 -0.3311054 0.27944434 -0.18351297 -0.13704406 0.2963052 -0.46831158
-0.28329247 0.24270757 -0.00041116893 -0.036328204 -0.70058084 -0.114634484 -0.45404714 0.33068115
-0.07197617 -0.15905845 -0.51613647 -0.13172773 0.030859238 0.053016752 0.23542663 0.2544604
-0.45943692 0.42526054 -0.116212025 0.23977368 -0.34356537 -0.09798456 0.114323564 -0.060315847
0.99707323 -0.4848332 -0.044341635 0.008314397 0.17994489 -0.0018000476 -0.033000425 0.34033832
2.055222 0.41014677 0.51414835 -0.09896986 0.085419476 -0.035115015 0.1709405 0.07196678
-0.55387723 -0.059020564 -0.26906717 0.16004013 -0.1285905 -0.13485233 0.050660454 0.09366714
00000000: fa5d 963c 9ad6 e03d 463e 363d 1013 963d
00000010: 55f6 b9bb 93d1 793e 60d1 093e 5cba e63d
00000020: 6b14 6d3d 6103 343f 4c89 9b3f f978 1140
00000030: 3205 9dba 45f2 cabd 498c 4fbd f64b ca3d
00000040: 10cc 223e 4409 04be 108c de3c 564f 51bb
00000050: 941d 62be 6966 d5bd 2ca4 363d ce87 c2bc
00000060: 83e7 573e ad39 293e e4ac 92be 16b1 b03d
00000070: d693 223d 2935 ae3e c505 11bb 9a97 a3bd
00000080: 057f 07bf 58a7 d73d b59b d23e 24a3 d63e
00000090: 23df 08bc 56b5 423e 0664 0f3f ce8e bcbe
000000a0: bc47 05bd 086e 24bf de0c 49bd ead0 793d
000000b0: efa9 633e a11a 103e 9348 173d f859 043d
000000c0: 5984 8ebe 6217 90be e4bf 72be a39a aebd
000000d0: 44be 963d 7a82 2a3e 0476 583d 12aa 923c
000000e0: b737 0cbe 21b7 b03d a50e eb3e 95dc 433e
000000f0: 657a 90bd 5986 4d3e be0a 0b3d 40be 1d3d
00000100: 8b59 ddbc 99c2 65bc b807 dabd aba1 53bd
00000110: 4aec 47bd 8d89 ccbd 6266 97bd 8b02 ecbd
00000120: 9436 23be e8ca 13be be30 ccbe a9f3 d9bd
00000130: d395 46be 9106 0ebe 5643 983d 3d92 50be
00000140: acbd 013c 4cd0 dcbd e7e5 083e 26ce bdbc
00000150: 0224 88bc c0da 2b3b 3c51 5bbe 13d1 07bd
00000160: cff1 26bd 97eb 71bf a9d4 473f a95b eb3e
00000170: d450 b13f e74d d4be 3a3a 6ebe 0b0d f0bc
00000180: 0dad c73c f7e8 b53d 865b 193e 3430 1abe
00000190: c7d9 d13c c269 753e fb75 87be b54b b13d
000001a0: 511e c73d 3add b03e fada 19be 3ed7 873f
000001b0: fcb3 933c 92d8 d13b 644d f6bd ab60 113e
000001c0: 9b57 f53d 05f9 623e 4e2a a53d 28f6 653d
000001d0: 7d32 b23d 3111 023e 8fca 4ebe 53b7 1cbf
000001e0: 6805 2a3e 99c3 773e aeab 3dbd 5744 b23c
000001f0: 37dd 38bc 5ddb 6b3e 4b3b 45be ee42 e13d
00000200: 58da 55be 8592 f5be dfef a33e 14e7 243e
00000210: 15e8 cebd 2e9e 46be 0e42 823e 64c8 5d3e
00000220: 52d1 0d3f b6f0 66bf 9a79 b43d 658f 073d
00000230: 8a77 033e e7b7 b53d 1caf 273b 632a c5bd
00000240: 6153 92be c524 b4be a2d6 b7be 6714 3a3d
00000250: 9832 573d 2ec8 323e 04af 33be d1e1 4c3d
00000260: fd22 c33d d660 0dbf 3e49 15bf 696c 70be
00000270: 05d9 523d 8d80 32be 8a63 993c 5807 b3bd
00000280: 8d09 053e f82c 19bc 85bb 1d3e 6da7 01be
00000290: c4ba 98be f943 c1bd 03fb 1ebe f25f c8bd
000002a0: 65e1 12be 733d dfbd 4c16 52be 660e e9bd
000002b0: a455 f8bd ab51 e7bd 88ae f23e 4803 99bd
000002c0: 2459 38be 2bc7 f73d d915 c6bc f7d5 3abd
000002d0: 6758 2fbc 2f56 28bd b48d 31be dcef 3d3c
000002e0: b84f 1a3e bdac 58bf 3daf ef3e e8d9 febd
000002f0: 5025 c0bb db89 b0be bf2b 9a3e 8147 a43e
00000300: 7fd4 f8bd 47e9 95bc 920e bbbd bafc 8abe
00000310: 41a2 9ebd f249 623e 2790 53bd 315a 223d
00000320: a70a dc3d d5f7 c4be a686 a9be 5413 8f3e
00000330: d3ea 3bbe 4755 0cbe 51b5 973e 89c6 efbe
00000340: b60b 91be 5588 783e 2992 d7b9 e2cc 14bd
00000350: 4459 33bf 7cc5 eabd de78 e8be 0a4f a93e
00000360: 3e68 93bd 38e0 22be 8521 04bf a2e3 06be
00000370: 83cc fc3c 1828 593d ae13 713e a248 823e
00000380: 513b ebbe c0bb d93e 9200 eebd 3b87 753e
00000390: cde7 afbe 21ac c8bd 7922 ea3d c00d 77bd
000003a0: 3140 7f3f 0f3c f8be 939f 35bd 1c39 083c
000003b0: 7943 383e 93ef ebba 742b 07bd d340 ae3e
000003c0: c288 0340 c2fe d13e 3a9f 033f b6b0 cabd
000003d0: 68f0 ae3d c3d4 0fbd 070b 2f3e 5263 933d
000003e0: e6ca 0dbf 8cbf 71bd 2cc3 89be 8fe1 233e
000003f0: 3aad 03be bb16 0abe 5681 4f3d 8fd4 bf3d

conv2.bias f4 [16]
-0.11039337 -0.028343944 0.005402614 -0.05969378 0.104747616 -0.07203542 -0.11486205 -0.014009577
0.17944089 -0.00046522406 0.02044373 -0.020854957 0.026953094 -0.3571502 -0.05395656 0.20556507
00000000: eb15 e2bd 8f31 e8bc 6908 b13b 7781 74bd
00000010: eb85 d63d 4e87 93bd cb3c ebbd 6d88 65bc
00000020: 5abf 373e 51e9 f3b9 9c79 a73c 04d8 aabc
00000030: bccc dc3c 64dc b6be 8e01 5dbd a67f 523e

conv3.weight f4 [8, 16, 3]
-0.15041606 -0.07044127 -0.35884893 -0.03642355 0.097082734 -0.19349861 0.34410754 -0.1573859
0.7316756 0.21195522 -0.14554216 -0.08604708 -0.011935764 -0.10929117 0.32690656 0.2480454
-0.15633819 -0.128195 -0.223493 -0.007956435 -0.36025542 0.13495877 0.11356639 0.1583221
0.16534844 0.14752732 0.13148037 0.24892667 0.079424605 0.050376885 0.6051416 -0.16829793
0.6944735 -0.9749807 -0.07508932 -0.42735314 0.15590347 0.08177871 0.036260843 -0.011730066
-0.4206381 -0.30188558 0.21619417 -0.15514652 -0.12348529 0.15548423 0.013061224 0.50091344
0.057500746 -0.10683484 0.31680408 0.21638142 0.024592998 0.097928554 0.3949144 -0.20958507
0.0645658 -0.07202949 0.0092229815 -0.032309934 -0.07603304 0.036480103 -0.10691666 -0.16635959
0.15083739 -0.007135388 0.12698303 0.20845854 0.11665073 -0.026431974 -0.01811198 -0.098703876
-0.21435258 -0.043975186 -0.21426412 0.26469356 0.19516416 0.06543916 -0.092733145 -0.13664031
0.19941877 1.2424634 0.4040575 0.7199512 0.13883103 0.2571386 0.29751176 -0.17738718
0.40668112 0.3312467 0.11173552 0.1385871 -0.010321313 -0.11691746 0.028899841 -0.12233731
0.2532117 0.3442834 0.052414216 -0.10699007 0.28571036 0.14422594 0.28050286 -0.6657608
1.3871441 0.09383637 0.0025867098 -0.048076935 0.112833306 -0.12521419 0.007726681 0.41940236
-0.26178947 0.12078912 -0.25839666 0.042123973 0.012328443 0.20020945 0.15888241 -0.24216029
0.27245465 -0.014902428 0.12736706 -0.01700512 0.18621759 0.12729955 0.45855933 -0.01991157
0.14919296 -1.0372924 -0.16696848 -0.7099717 -0.054445084 -0.05793904 -0.26965904 -0.16572408
-0.36997092 -0.28499764 -0.17921604 0.07114912 0.1332722 0.25956172 -0.0914083 -0.0045249155
0.02210392 -0.044434052 -0.39345482 0.12551887 0.107996255 0.16399048 -0.28558335 0.20331942
1.0206733 -0.14122725 -0.045614984 0.18330197 0.005475953 -0.121923216 0.16268678 -0.07577578
-0.14002562 0.35738927 0.097674236 0.09952892 -0.19116856 -0.039154653 0.10731961 -0.31466654
-0.032665316 0.16776752 0.11551505 0.070510186 0.0011522768 0.40724224 0.25221488 0.03359402
0.84857804 -0.42957726 -0.68291056 -1.0473307 -0.034517627 -0.10005575 -0.09749126 -0.056002665
-0.6165672 0.016057475 0.264411 -0.10796215 0.14439519 -0.12890196 0.11214091 0.16674614
-0.03611039 -0.0173569 0.012723446 0.21430679 0.15851079 0.02884136 0.6051381 0.23774205
0.1093124 -0.10087055 0.004730748 0.14826612 -0.06982391 -0.055315007 -0.12449578 0.08126701
0.07767814 0.12418585 0.33168185 0.1810749 0.12414924 -0.016980516 -0.119677275 -0.11902789
-0.26096824 -0.2483312 -0.29221612 0.11659803 0.15291265 -0.04869268 0.8597452 0.0044867075
0.20228826 1.0061302 0.12529382 0.4352737 0.1895239 0.093805626 0.14344989 0.6273206
0.22863208 0.009655848 0.35187802 0.07303521 0.12281296 -0.4534556 -0.26733097 -0.10640421
-0.013112626 0.2899797 -0.17747903 -0.1124518 0.011146844 -0.07588743 0.4610027 0.17524745
0.73702645 0.25888792 0.06587517 0.14687857 -0.03787933 0.011665444 0.41213867 0.34125096
00000000: ab06 1abe 8343 90bd 0cbb b7be dc30 15bd
00000010: 50d3 c63d 8024 46be dd2e b03e c529 21be
00000020: 184f 3b3f ca0a 593e 0109 15be 7439 b0bd
00000030: 398e 43bc 0dd4 dfbd 4c60 a73e 9dff 7d3e
00000040: 1e17 20be 8d45 03be 59db 64be b55b 02bc
00000050: 6673 b8be a232 0a3e 7f95 e83d 301f 223e
00000060: 1a51 293e 6711 173e caa2 063e a2e6 7e3e
00000070: 5ea9 a23d fe57 4e3d 8fea 1a3f 4b56 2cbe
00000080: 04c9 313f 5698 79bf 6ec8 99bd 08ce dabe
00000090: 29a5 1f3e 997b a73d 4086 143d 762f 40bc
000000a0: e15d d7be bf90 9abe 0162 5d3e bbde 1ebe
000000b0: dbe5 fcbd 4237 1f3e befe 553c dd3b 003f
000000c0: e785 6b3d 39cc dabd 2534 a23e 1793 5d3e
000000d0: 4177 c93c c48e c83d 3832 ca3e 789d 56be
000000e0: 133b 843d 3284 93bd fd1b 173c 6c57 04bd
000000f0: 36b7 9bbd 296c 153d 1ff7 dabd 2b5a 2abe
00000100: 1e75 1a3e f9cf e9bb d707 023e 2876 553e
00000110: 94e6 ee3d de87 d8bc 935f 94bc 4225 cabd
00000120: 3e7f 5bbe 531f 34bd 0e68 5bbe ea85 873e
00000130: 1dd9 473e f704 863d e0ea bdbd 70eb 0bbe
00000140: 6f34 4c3e 0a09 9f3f a0e0 ce3e b94e 383f
00000150: b929 0e3e aca7 833e 7653 983e fca4 35be
00000160: 8238 d03e 2b99 a93e 98d5 e43d c7e9 0d3e
00000170: b91a 29bc 6c72 efbd 5cbf ec3c fc8b fabd
00000180: f7a4 813e ea45 b03e 4ab0 563d 9c1d dbbd
00000190: a148 923e f7af 133e 129e 8f3e 4d6f 2abf
000001a0: f08d b13f 482d c03d ca85 293b 52ec 44bd
000001b0: 2615 e73d 2638 00be 1930 fd3b e8bb d63e
000001c0: 4509 86be 4960 f73d 914c 84be 308a 2c3d
000001d0: 3dfd 493c b503 4d3e 12b2 223e def8 77be
000001e0: 2d7f 8b3e 5029 74bc 836c 023e 524e 8bbc
000001f0: d3af 3e3e d05a 023e 4ac8 ea3e 971d a3bc
00000200: 0ac6 183e ffc5 84bf c9f9 2abe b5c0 35bf
00000210: cf01 5fbd 7d51 6dbd c010 8abe 93b3 29be
00000220: d46c bdbe 36eb 91be 6984 37be a1b6 913d
00000230: 8278 083e 46e5 843e 4634 bbbd be45 94bb
00000240: 4813 b53c 7b00 36bd e972 c9be 0588 003e
00000250: 242d dd3d 1fed 273e fb37 92be f732 503e
00000260: 6ca5 823f e09d 10be c7d6 3abd 83b3 3b3e
00000270: a06f b33b e1b2 f9bd 5d97 263e 5530 9bbd
00000280: e062 0fbe bafb b63e 6e09 c83d d2d5 cb3d
00000290: b1c1 43be a160 20bd 62ca db3d f91b a1be
000002a0: 11cc 05bd 40cb 2b3e 2893 ec3d a567 903d
000002b0: fe07 973a 0e82 d03e 4f22 813e e299 093d
000002c0: 693c 593f 8df1 dbbe 3ad3 2ebf ef0e 86bf
000002d0: 5b62 0dbd 07ea ccbd 7fa9 c7bd 0d63 65bd
000002e0: 59d7 1dbf f78a 833c e160 873e 421b ddbd
000002f0: 55dc 133e e0fe 03be 22aa e53d 80bf 2a3e
00000300: 7de8 13bd 0f30 8ebc 0076 503c 3d73 5b3e
00000310: a750 223e b744 ec3c 55ea 1a3f a772 733e
00000320: 2edf df3d 3895 cebd 6404 9b3b 13d3 173e
00000330: d7ff 8ebd fd91 62bd a5f7 febd 516f a63d
00000340: b715 9f3d 2755 fe3d 34d2 a93e b36b 393e
00000350: f541 fe3d b91a 8bbc 5c19 f5bd e5c4 f3bd
00000360: a19d 85be 894a 7ebe 5a9d 95be f3ca ee3d
00000370: 2295 1c3e fa71 47bd 4318 5c3f 3b05 933b
00000380: a724 4f3e e0c8 803f 064d 003e 32dc de3e
00000390: 8e12 423e 2a1d c03d 87e4 123e 1598 203f
000003a0: 871e 6a3e 9033 1e3c 5b29 b43e 7c93 953d
000003b0: 5c85 fb3d 552b e8be 9bdf 88be 73ea d9bd
000003c0: 57d6 56bc 3878 943e 10bd 35be 214d e6bd
000003d0: 41a1 363c de6a 9bbd 8c08 ec3e 1174 333e
000003e0: c4ad 3c3f f58c 843e 90e9 863d 5667 163e
000003f0: 5b27 1bbd 6b20 3f3c d703 d33e 72b8 ae3e

conv3.bias f4 [8]
0.19941427 0.20171101 0.025659624 0.04299928 -0.090149105 -0.053974826 -0.18125139 0.14775674
00000000: 4133 4c3e 558d 4e3e 2234 d23c 0320 303d
00000010: 18a0 b8bd b514 5dbd f799 39be 8b4d 173e

t_conv1.weight f4 [8, 8, 3]
-0.8197475 -0.5177848 0.43924645 -0.14411737 0.020310856 -0.08088561 -0.103808165 -0.3794201
-0.18306017 -1.2426755 0.28581572 0.36694282 0.37771156 0.23688161 0.05547737 0.27497736
-0.06690889 -2.688331 0.073969595 0.28786492 0.20017959 -0.07822349 0.307397 0.32996264
-0.06816624 0.07223029 0.08856133 -0.21057314 -0.08363081 -0.46855244 0.26347378 0.2139464
0.14427567 -0.13134155 -0.21736166 0.017941596 -0.2757732 -0.62032664 0.08575708 0.18612106
-0.11509733 -1.7219191 -0.3060749 -0.5155669 -0.059131328 0.27443507 -0.0034390665 -0.353973
-0.6387037 0.08746644 0.13215765 0.103019185 -0.060143646 0.17233722 0.05273579 -0.2551036
0.056344744 0.13988431 -0.0564347 0.3588813 0.14422458 0.12982768 -0.058857817 1.1541289
-0.24027546 -2.1688268 0.115542814 0.17966618 0.043702297 0.47316885 -0.55467695 0.5684116
-0.37952587 -0.18927571 0.28295055 0.4730333 0.17622541 -0.11940749 -0.05601505 0.07852371
0.06264444 -0.5452889 0.2852777 0.6084786 0.50279915 0.03447017 0.05138813 0.5174476
0.18411084 -2.1241224 0.18942115 0.21937686 0.15900493 0.0697447 0.29037046 -0.17418844
-0.12433282 0.3246229 0.1763805 -0.019905342 -0.2730404 -0.25222647 0.25116894 0.23967911
0.091941155 -0.31039843 0.22577143 -0.6147629 0.035874207 -0.38468134 0.39143842 0.29009598
0.1522295 0.6578884 0.14586638 -0.88582176 0.19481863 0.3819753 0.351844 0.06994228
0.38472173 0.21356888 0.32055095 0.29651693 0.20594005 0.18745543 0.39423245 0.1405089
0.39941218 -0.9773796 0.11302079 0.36745065 0.1532672 0.03887882 -0.107803166 0.57858014
0.30237868 -1.7350345 0.47763044 0.15578938 0.1699929 -0.1461922 -0.02558389 -0.070815876
-0.34782007 0.039659437 0.55904263 0.3044535 0.4059123 0.45797363 0.20318927 0.24741536
0.008806773 0.688035 0.15359998 -1.1513375 -0.27296236 -0.30765074 0.49691 0.49693143
0.19396737 -1.4708515 0.06412968 -0.031773757 0.4261983 0.028208118 0.010510042 -0.439269
-0.32453302 -0.04840561 0.18464223 0.54340243 0.1342203 0.057150826 0.16766475 0.28212133
0.13001919 0.79789215 -0.15538816 -1.2442244 -0.20729227 -0.18655066 0.14204624 0.43496695
-0.018330403 -1.9411418 -0.17767769 -0.38720465 -0.2811841 0.28223044 -0.37362027 -0.28906778
00000000: f9da 51bf 8b8d 04bf e9e4 e03e 8193 13be
00000010: f462 a63c 5ba7 a5bd 6099 d4bd 5a43 c2be
00000020: 2074 3bbe fe0f 9fbf 7056 923e eedf bb3e
00000030: 6963 c13e 1891 723e 3d3c 633d d5c9 8c3e
00000040: 8707 89bd 9d0d 2cc0 5f7d 973d 0863 933e
00000050: e1fb 4c3e a333 a0bd 2463 9d3e ddf0 a83e
00000060: be9a 8bbd 79ed 933d a55f b53d 7ca0 57be
00000070: a146 abbd 1be6 efbe 09e6 863e c414 5b3e
00000080: 00bd 133e 667e 06be 0e94 5ebe 41fa 923c
00000090: 2532 8dbe bacd 1ebf 68a1 af3d 8596 3e3e
000000a0: 26b8 ebbd d867 dcbf d9b5 9cbe 31fc 03bf
000000b0: b133 72bd c182 8c3e f661 61bb f33b b5be
000000c0: 1682 23bf 9b21 b33d 5654 073e b9fb d23d
000000d0: 2f59 76bd 2b79 303e 7c01 583d f09c 82be
000000e0: bfc9 663d d53d 0f3e 1228 67bd 4abf b73e
000000f0: 9caf 133e 8cf1 043e e514 71bd 7fba 933f
00000100: c50a 76be 0fce 0ac0 b6a1 ec3d 69fa 373e
00000110: 2e01 333d 3043 f23e 4fff 0dbf 6c83 113f
00000120: 3751 c2be 7ed1 41be e5de 903e 6c31 f23e
00000130: 6f74 343e ea8b f4bd 0970 65bd 0ad1 a03d
00000140: ba4b 803d 0e98 0bbf eb0f 923e 41c5 1b3f
00000150: 72b7 003f 9830 0d3d 5c7c 523d 7277 043f
00000160: 8d87 3c3e 9ff1 07c0 9ef7 413e 54a4 603e
00000170: 30d2 223e 4fd6 8e3d 70ab 943e 745e 32be
00000180: 35a2 febd f934 a63e 179d 343e 8710 a3bc
00000190: f4cb 8bbe d423 81be 3799 803e 716e 753e
000001a0: a54b bc3d 8bec 9ebe a030 673e 1a61 1dbf
000001b0: d5f0 123d f4f4 c4be 9e6a c83e 7687 943e
000001c0: 0de2 1b3e 606b 283f ff5d 153e 37c5 62bf
000001d0: 897e 473e 4492 c33e e624 b43e e63d 8f3d
000001e0: 3ffa c43e cdb1 5a3e 411f a43e 11d1 973e
000001f0: f3e1 523e 51f4 3f3e d6d8 c93e 91e1 0f3e
00000200: c17f cc3e 8d35 7abf 7277 e73d 7e22 bc3e
00000210: 14f2 1c3e 663f 1f3d e8c7 dcbd d41d 143f
00000220: 61d1 9a3e 9c15 debf fa8b f43e 4087 1f3e
00000230: 9e12 2e3e 68b3 15be 4e95 d1bc ea07 91bd
00000240: 7915 b2be ef71 223d 6b1d 0f3f 54e1 9b3e
00000250: bdd3 cf3e 857b ea3e d910 503e 745a 7d3e
00000260: 494a 103c 1023 303f 5049 1d3e 075f 93bf
00000270: b9c1 8bbe 6684 9dbe fd6a fe3e cc6d fe3e
00000280: 629f 463e dd44 bcbf 6c56 833d 3325 02bd
00000290: aa36 da3e b614 e73c 5032 2c3c dee7 e0be
000002a0: 3129 a6be f644 46bd da12 3d3e 6c1c 0b3f
000002b0: 0c71 093e fc16 6a3d 4fb0 2b3e 3572 903e
000002c0: c023 053e a942 4c3f 131e 1fbe bf42 9fbf
000002d0: 6d44 54be 2307 3fbe 9274 113e fdb3 de3e
000002e0: a429 96bc 5677 f8bf 24f1 35be b03f c6be
000002f0: 5df7 8fbe 8280 903e 284b bfbe b100 94be

t_conv1.bias f4 [8]
0.08206281 -0.23667783 0.2089493 0.07341952 -0.008948769 0.18831828 0.08784078 0.112789646
00000000: 8c10 a83d ac5b 72be cef6 553e f95c 963d
00000010: dc9d 12bc 82d6 403e dee5 b33d 42fe e63d

t_conv2.weight f4 [8, 16, 2]
-0.68544185 0.056729756 -0.062529996 0.15727985 -0.0078938035 0.55393547 -0.013976793 0.30435905
0.12926434 0.08986697 -0.083443895 -0.12797734 0.009623212 -0.010484259 0.23135827 0.30224532
0.57469225 0.0012977829 -0.06955007 0.09445403 0.08755252 0.40941814 0.21883124 0.06294092
-0.039691888 0.09816505 0.19896561 -0.017373923 -0.40889353 -0.00047031677 0.11117096 0.06163714
0.05457594 0.07575271 -0.18428358 0.24426736 0.49792665 0.051592298 -0.12129738 0.10107844
-0.5849355 -0.0610948 0.5097738 -0.018760664 -0.019023044 -0.563134 0.0494981 -0.3505269
-0.11539564 0.055304132 -0.50278866 -0.080914594 0.1372791 0.10198937 0.45443946 0.07924772
0.35936266 0.056667175 0.25913438 0.3859618 0.10539804 -0.33436888 -0.1614847 0.39593378
-0.31936213 -0.1187559 -0.1881437 -0.12173159 -0.1553401 -0.1971312 0.115022615 0.07003124
0.28819183 0.29552975 -0.015257109 -0.018821811 0.24104258 0.26241535 0.24175948 0.23134139
-0.6416234 -0.17484522 0.051192187 -0.07611597 -0.13834128 -0.27134964 -0.08315783 -0.08836638
-0.07558875 -0.0992279 -0.08792567 -0.06614242 -0.5293464 -0.014262481 -0.15809625 -0.1300963
0.1983043 0.16004395 -0.12667362 -0.0017907515 0.35106233 0.21043687 -0.65584415 0.54240245
-0.27967936 -0.17348352 -0.16972426 -0.04639289 -0.33558515 -0.4908248 -0.5079814 -0.08735058
0.13679755 0.06141501 0.27172667 -0.16788389 0.12799834 0.21750042 -0.20001464 0.5847757
0.041761007 0.01246349 0.34556934 -1.1464791 0.18878241 -1.4263356 -0.045644376 -0.061878253
0.08623631 0.34823257 -0.10730519 0.071595095 -0.34998137 0.28006715 0.59374994 -0.09392519
0.157844 -0.46240494 0.28831542 0.24588048 -0.2084837 0.07113249 -0.19092146 0.16221702
-0.28176177 0.030484365 0.4641696 0.044433475 0.28107467 0.100017294 0.16613209 -0.0072244764
-0.053364154 0.23396099 0.15630873 0.31935152 0.009469304 0.31971622 0.0460687 -0.21443655
-0.1879569 -0.083976135 0.07914187 -0.021443129 0.042885512 -0.19485384 -1.3524972 0.30096212
0.16181885 0.106480174 -0.30502725 0.13294025 0.08875024 0.053942468 0.39845717 0.20882457
0.67709166 -0.12822264 -0.11187715 0.05980585 -0.122174874 0.01137364 0.155918 0.32395136
0.29904962 0.12445911 0.16487159 0.37003115 -0.40518492 -1.7725365 0.12362195 0.27990144
0.30059743 0.06281179 -0.12687574 0.37163654 0.07866476 0.2084091 0.12388533 -0.09677068
-0.05949993 -0.6274628 0.17204385 0.1338148 -0.2557224 -0.10318885 -0.7670757 -0.57022506
-0.41579857 -0.0795956 0.09524744 -0.10928875 0.07329402 0.23231515 0.11092503 0.3624283
-0.05585249 0.054271612 0.22281696 0.18522224 0.062739946 0.07141571 -0.18734306 0.13490884
0.25668576 0.0138123585 -0.12811291 0.16030465 0.15034966 0.047784742 -0.32219937 -0.26104608
-0.20477922 0.028383344 0.21288496 -0.18685897 0.34490824 -0.49449944 -0.7453155 0.09783822
-0.25215095 -0.1328078 -0.09844264 -0.14629927 0.28250664 -0.013607044 -0.25426167 -0.58955514
0.3426763 -0.14298736 -0.25839642 -0.34248763 -0.6761388 -0.4410579 -0.14994334 0.23219426
00000000: 1e79 2fbf 765d 683d ba0f 80bd f80d 213e
00000010: 0355 01bc b7ce 0d3f ebfe 64bc f3d4 9b3e
00000020: df5d 043e 2d0c b83d a2e4 aabd 7e0c 03be
00000030: adaa 1d3c 2bc6 2bbc 2fe9 6c3e e6bf 9a3e
00000040: 081f 133f 5e1a aa3a 4470 8ebd 1d71 c13d
00000050: bc4e b33d 419f d13e 4c15 603e 2be7 803d
00000060: f693 22bd c20a c93d a4bd 4b3e c253 8ebc
00000070: 7e5a d1be d994 f6b9 9aad e33d 3a77 7c3d
00000080: 058b 5f3d 3d24 9b3d d6b4 3cbe 3921 7a3e
00000090: 3ef0 fe3e 7252 533d c36a f8bd 3702 cf3d
000000a0: 55be 15bf 8a3e 7abd 8980 023f f7af 99bc
000000b0: 37d6 9bbc 8d29 10bf 85be 4a3d 4378 b3be
000000c0: 8d54 ecbd 9686 623d c2b6 00bf 8db6 a5bd
000000d0: e492 0c3e cedf d03d 4aac e83e a14c a23d
000000e0: 62fe b73e d71b 683d 43ad 843e c99c c53e
000000f0: edda d73d 6632 abbe 3f5c 25be d5b7 ca3e
00000100: 6f83 a3be 4b36 f3bd bea8 40be 694e f9bd
00000110: 7a11 1fbe c3dc 49be fa90 eb3d 8a6c 8f3d
00000120: e18d 933e ad4f 973e f4f8 79bc 3330 9abc
00000130: ded3 763e 4e5b 863e cc8f 773e c2e4 6c3e
00000140: 6e41 24bf a00a 33be e6ae 513d b1e2 9bbd
00000150: 56a9 0dbe 57ee 8abe a74e aabd 6ff9 b4bd
00000160: 46ce 9abd ff37 cbbd 6012 b4bd ad75 87bd
00000170: 3f83 07bf 2ead 69bc fce3 21be f737 05be
00000180: 4810 4b3e 90e2 233e bbb6 01be a6b7 eaba
00000190: 71be b33e c37c 573e 67e5 27bf e3da 0a3f
000001a0: 2232 8fbe aaa5 31be 32cc 2dbe 7906 3ebd
000001b0: d1d1 abbe 634d fbbe 120b 02bf dce4 b2bd
000001c0: a814 0c3e 4e8e 7b3d c21f 8b3e c1e9 2bbe
000001d0: ff11 033e 6eb8 5e3e a3d0 4cbe dcb3 153f
000001e0: 970d 2b3d aa33 4c3c 77ee b03e d4bf 92bf
000001f0: 2d50 413e 2a92 b6bf 99f5 3abd 0d74 7dbd
00000200: aa9c b03d 8a4b b23e d3c2 dbbd 73a0 923d
00000210: c230 b3be f664 8f3e ffff 173f da5b c0bd
00000220: dca1 213e 57c0 ecbe 149e 933e 18c8 7b3e
00000230: c07c 55be e9ad 913d ea80 43be 381c 263e
00000240: 1443 90be 59ba f93c a3a7 ed3e e0ff 353d
00000250: 05e9 8f3e ded5 cc3d 881e 2a3e 4dbb ecbb
00000260: 5f94 5abd 7893 6f3e 650f 203e 0b82 a33e
00000270: 2425 1b3c d8b1 a33e 88b2 3c3d 4195 5bbe
00000280: c677 40be aefb abbd 2215 a23d 80a9 afbc
00000290: b8a8 2f3d c487 47be a11e adbf b517 9a3e
000002a0: d7b3 253e 4712 da3d 882c 9cbe 7d21 083e
000002b0: b0c2 b53d c7f2 5c3d 9402 cc3e 1cd6 553e
000002c0: e155 2d3f cc4c 03be d91f e5bd fbf6 743d
000002d0: d236 fabd 8158 3a3c f8a8 1f3e f4dc a53e
000002e0: 081d 993e 6be4 fe3d 19d4 283e b974 bd3e
000002f0: 6674 cfbe 7ae2 e2bf 812d fd3d 3e4f 8f3e
00000300: e8e7 993e 78a3 803d b7eb 01be 2547 be3e
00000310: fd1a a13d 3269 553e 98b7 fd3d b52f c6bd
00000320: 33b6 73bd 67a1 20bf 432c 303e bf06 093e
00000330: 0cee 82be ad54 d3bd 135f 44bf 45fa 11bf
00000340: 8de3 d4be 0503 a3bd 1711 c33d c8d2 dfbd
00000350: 2d1b 963d 06e4 6d3e aa2c e33d 3490 b93e
00000360: 95c5 64bd e94b 5e3d 212a 643e e6aa 3d3e
00000370: cd7d 803d 6642 923d dcd6 3fbe 8b25 0a3e
00000380: 516c 833e 3b4d 623c 0830 03be e726 243e
00000390: 43f5 193e efb9 433d 51f7 a4be d5a7 85be
000003a0: a5b1 51be 3084 e83c 84fe 593e f557 3fbe
000003b0: d097 b03e 082f fdbe ffcc 3ebf 685f c83d
000003c0: ee19 81be c5fe 07be 4b9c c9bd 7acf 15be
000003d0: b6a4 903e 14f0 5ebc 962e 82be 16ed 16bf
000003e0: 4573 af3e 476b 12be 894c 84be 8a5a afbe
000003f0: 6f17 2dbf 57d2 e1be bf8a 19be 55c4 6d3e

t_conv2.bias f4 [16]
0.055662416 0.018353553 0.0013520534 0.014542525 -0.015497734 0.08241027 0.077034205 -0.22246894
-0.1669897 -0.5267986 0.13550727 -0.07666399 0.049533833 -0.10547235 0.031626467 -0.19394304
00000000: 46fe 633d 315a 963c 6237 b13a c543 6e3c
00000010: 35ea 7dbc b7c6 a83d 1cc4 9d3d e6ce 63be
00000020: 59ff 2abe 46dc 06bf 6bc2 0a3e 0302 9dbd
00000030: fde3 4a3d e301 d8bd c18a 013d 0199 46be

t_conv3.weight f4 [16, 32, 2]
0.22369246 0.1554476 0.3193499 0.17813598 -0.087237306 -0.13787752 -0.057339992 -0.3181607
-0.13359168 -0.39239666 0.14059244 0.14648657 0.056396537 0.040342357 0.1693546 -0.0040166355
0.2405402 0.03746374 0.039449498 0.056688223 0.23770627 0.17069206 0.30768877 0.2578654
0.05306913 0.25839686 0.054776862 0.3254037 -0.155091 -0.20481102 0.18012463 -0.08436202
-0.10105179 -0.59536684 -0.24442281 -0.15857537 0.22885406 0.08523581 -0.21914768 -0.10597427
-0.76004153 -0.31438136 0.11889392 -0.057010792 -0.0016712133 -0.5306633 -0.07099562 -0.9225828
0.21786037 0.2473184 0.10035809 0.074666895 0.106460966 0.09037466 -0.28172258 -0.11615695
-0.070513174 0.23724148 0.16468519 0.060328633 0.027964681 0.17454737 0.16921026 -0.034954812
0.06486694 0.2333392 0.0582252 -0.025975375 -0.048797082 -0.060128767 -0.51663995 -0.3765757
-0.11553868 -0.064995 -0.031062238 0.09774557 0.14382862 0.13359162 0.11836484 0.14221798
0.12424603 0.1900783 0.06763065 0.035942398 0.17869343 0.07477937 0.22518969 0.16730234
0.046317365 0.2176198 -0.011800353 0.23591939 -0.10208891 -0.30864042 0.20288014 -0.29378504
0.053529702 1.1024231 -0.10668199 0.12244674 0.13099371 0.24403995 -0.44148368 -0.1939002
0.44416082 0.299081 0.14537475 -0.118739694 0.08955379 -0.47554505 -0.054899093 -0.5677784
0.108430445 0.19460352 0.28217092 0.43364123 0.16105676 0.21984601 0.17410864 0.011197966
-0.06126991 -0.24885748 -0.10233771 -0.09544556 0.0510433 -0.06790707 -0.2381353 0.16480175
0.08750926 0.15860924 0.14374357 -0.056808192 -0.030619161 0.26105982 -0.95153475 0.30179322
0.026967527 -0.23457578 0.018606788 -0.06898442 0.0019676688 0.027748907 0.0089626685 0.017690627
0.175028 -0.008560972 0.15089527 0.19049379 0.008792303 0.13980755 0.013296532 0.14858568
0.05602012 0.18751916 -0.1439144 0.31496713 -0.16352358 -0.2314389 -0.06564549 -0.2282671
-0.29777333 0.13001606 -0.14693649 -0.13408299 0.057465956 0.23228934 -0.021310892 -0.10250563
-1.1152401 -0.34951624 0.0010971908 -0.009876642 0.044257425 0.40030327 0.05026196 0.09927792
0.03093757 0.11162099 0.2165786 0.23568296 0.12674767 0.13992856 -0.060950186 0.3031422
-0.11584258 0.10221227 0.29491755 0.012228921 -0.09413116 0.1869614 -0.018644381 0.11450558
0.03965612 -0.21932028 -0.44923016 0.029503567 0.07624957 0.13118549 0.26300615 0.20886612
-0.15924415 0.15295112 0.13333024 -0.012281423 0.16537987 -0.36447757 -0.17117673 0.03475764
-0.08170355 0.052540574 0.112619266 0.20576818 0.16434216 -0.18630956 0.16757302 0.0094145555
0.08196655 -0.049119607 -0.10878848 0.024738943 0.20305003 0.21938021 -0.29214194 -0.6604718
-1.407026 -0.09698195 0.2703815 0.06482482 -0.0013630531 0.0006229051 0.2911229 0.29388356
-0.047327697 -0.057634555 0.43548328 0.047485113 -0.0018686188 0.36385342 -0.13823535 -0.03219387
0.08052115 0.15516482 -0.11682459 0.009236468 -0.007699914 -0.1361015 -0.032536026 0.17700487
-0.112901464 0.019486785 -0.1731445 -0.05396849 -0.08312674 -0.50737655 -0.5172477 -0.100130185
00000000: a30f 653e a82d 1f3e d581 a33e 4769 363e
00000010: 79a9 b2bd c42f 0dbe 57dd 6abd f6e5 a2be
00000020: 42cc 08be 37e8 c8be 77f7 0f3e 9300 163e
00000030: 0e00 673d 073e 253d 4b6b 2d3e fb9d 83bb
00000040: 2c50 763e 9473 193d cc95 213d e931 683d
00000050: 4669 733e e6c9 2e3e 6289 9d3e ef06 843e
00000060: 045f 593d 984c 843e b45d 603d 509b a63e
00000070: 2dd0 1ebe fbb9 51be 9772 383e ffc5 acbd
00000080: 3ef4 cebd f669 18bf f949 7abe 9561 22be
00000090: b858 6a3e 1d90 ae3d 4068 60be 0a09 d9bd
000000a0: 1592 42bf 98f6 a0be a87e f33d 2684 69bd
000000b0: 9d0c dbba 8dd9 07bf 2766 91bd 632e 6cbf
000000c0: ca16 5f3e 0941 7d3e 8b88 cd3d f5ea 983d
000000d0: 3508 da3d 5a16 b93d f13d 90be b2e3 edbd
000000e0: 3669 90bd 6eef 723e 3ca3 283e 281b 773d
000000f0: 3016 e53c 8cbc 323e 7445 2d3e c72c 0fbd
00000100: f5d8 843d 79f0 6e3e 8c7d 6e3d 4fca d4bc
00000110: 73df 47bd 9549 76bd 8442 04bf 88ce c0be
00000120: 8b9f ecbd 191c 85bd 3c76 febc d42e c83d
00000130: cf47 133e 3ecc 083e 4469 f23d 97a1 113e
00000140: b474 fe3d e3a3 423e f081 8a3d 5638 133d
00000150: 69fb 363e ed25 993d 2098 663e 4e51 2b3e
00000160: 47b7 3d3d bad7 5e3e 4556 41bc da94 713e
00000170: fe13 d1bd 1e06 9ebe d0bf 4f3e fe6a 96be
00000180: f641 5b3d 331c 8d3f 167c dabd 5bc5 fa3d
00000190: 3723 063e 9ce5 793e 260a e2be c68d 46be
000001a0: 0c69 e33e 2521 993e 1edd 143e cc2d f3bd
000001b0: fa67 b73d a47a f3be dfdd 60bd ed59 11bf
000001c0: c810 de3d 2546 473e b578 903e 3906 de3e
000001d0: 10ec 243e 501f 613e 8949 323e ac77 373c
000001e0: 28f6 7abd 7fd4 7ebe 6f96 d1bd f678 c3bd
000001f0: c812 513d dd12 8bbd bdd9 73be cac1 283e
00000200: 0e38 b33d 766a 223e 8431 133e b5af 68bd
00000210: 09d5 fabc a2a9 853e c897 73bf a484 9a3e
00000220: 01eb dc3c a234 70be 436d 983c b447 8dbd
00000230: 01f4 003b ad51 e33c 28d8 123c efeb 903c
00000240: 8a3a 333e 5243 0cbc 4a84 1a3e ce10 433e
00000250: 970d 103c b629 0f3e b3d9 593c d826 183e
00000260: 5a75 653d 0605 403e 4c5e 13be 5f43 a13e
00000270: ba72 27be 52fe 6cbe 2571 86bd dabe 69be
00000280: bf75 98be ee22 053e 8576 16be 0d4d 09be
00000290: 6c61 6b3d 42dd 6d3e 2e94 aebc 79ee d1bd
000002a0: 30c0 8ebf cbf3 b2be 9dcf 8f3a a4d1 21bc
000002b0: 4647 353d 8df4 cc3e 7cdf 4d3d 3952 cb3d
000002c0: c970 fd3c 8c99 e43d c8c6 5d3e e056 713e
000002d0: 24ca 013e 6f49 0f3e e7a6 79bd 7435 9b3e
000002e0: e03e edbd ab54 d13d 6fff 963e d05b 483c
000002f0: d6c7 c0bd cf72 3f3e 1abc 98bc e781 ea3d
00000300: 756e 223d 7f95 60be 7f01 e6be 77b1 f13c
00000310: bc28 9c3d 7d55 063e bea8 863e 00e1 553e
00000320: e610 23be 389f 1c3e b987 083e 0638 49bc
00000330: 5759 293e ce9c babe f448 2fbe 075e 0e3d
00000340: 3154 a7bd c934 573d eea4 e63d e5b4 523e
00000350: 5049 283e efc7 3ebe 4398 2b3e 823f 1a3c
00000360: 14de a73d a431 49bd 7fcc debd 53a9 ca3c
00000370: 59ec 4f3e 35a5 603e a193 95be ae14 29bf
00000380: 6e19 b4bf 799e c6bd 726f 8a3e e0c2 843d
00000390: 79a8 b2ba 744a 233a 100e 953e e877 963e
000003a0: b0da 41bd 3612 6cbd aaf7 de3e c07f 423d
000003b0: 71ec f4ba ff4a ba3e 918d 0dbe b8dd 03bd
000003c0: 46e8 a43d 87e3 1e3e bb41 efbd 8e54 173c
000003d0: 8f4f fcbb 315e 0bbe 7f44 05bd c440 353e
000003e0: e238 e7bd c0a2 9f3c cb4c 31be 100e 5dbd
000003f0: 5a3e aabd 6ee3 01bf 586a 04bf 0e11 cdbd

t_conv3.bias f4 [32]
0.15807897 0.06536858 -0.07158737 -0.050188877 -0.11869177 0.050907057 0.14040227 0.09422002
0.13530838 0.0874674 0.15168282 0.10763319 0.149615 0.15065259 -0.032666784 -0.012335851
0.10496717 0.08843412 0.19467618 -0.0016697025 0.16902867 -0.494647 -0.35689566 -0.20894067
0.120069556 0.016105128 0.016535448 0.04422137 -0.33299744 -0.2884682 -0.32836777 0.00030217879
00000000: 74df 213e f6df 853d 669c 92bd da92 4dbd
00000010: ac14 f3bd eb83 503d 9dc5 0f3e 6df6 c03d
00000020: 488e 0a3e 1c22 b33d be52 1b3e ca6e dc3d
00000030: ad34 193e ac44 1a3e 9bcd 05bd 4f1c 4abc
00000040: 07f9 d63d f31c b53d 3159 473e ebd9 daba
00000050: da15 2d3e 5f42 fdbe 07bb b6be 8bf4 55be
00000060: 07e7 f53d e7ee 833c 5975 873c 7821 353d
00000070: a47e aabe 1bb2 93be d21f a8be c06d 9e39

conv_out.weight f4 [1, 32, 3]
-0.117690034 -0.11504326 -0.0798954 -0.20332214 -0.06967578 0.04798408 0.23754665 0.13109832
0.029783694 -0.013168286 -0.5895986 -0.5644621 -0.49300334 -0.6934586 -0.5467356 -0.07628098
-0.013632835 -0.09273148 0.0061219977 -0.14191772 -0.10609564 -0.08878071 0.052620888 -0.16880397
-0.16221045 0.004157422 -0.15477248 -0.16399048 0.034433927 -0.11831924 -0.029097894 -0.14863662
-0.18242875 -0.22759622 -0.17001404 -0.16037518 -0.19002776 -0.16891746 -0.054341827 -0.2656052
-0.07503445 0.002683373 0.19525412 0.05879129 0.22781055 0.2092999 -0.12588204 -0.2644269
0.252444 0.044663925 -0.31592515 0.20026404 0.13075905 0.30016983 -0.18766949 -0.09871865
-0.1940356 0.118605256 0.13167764 0.19400026 0.18161765 0.07529118 -0.331689 0.47169492
1.0369585 0.94888437 -1.1014721 -1.723877 -0.08663476 0.17111176 0.18312529 0.32212204
-0.17326681 -0.019945588 -0.13417748 -0.42933455 -0.1723784 -0.09648073 -0.110899456 0.036812343
-0.14225844 -0.2618701 0.29216275 -0.004536336 0.4701836 0.5092156 0.37242255 0.21286473
0.13523626 0.63991094 1.1091797 1.0899038 0.8543593 -0.20127995 -0.022214178 0.14691174
00000000: 7907 f1bd cd9b ebbd 33a0 a3bd ae33 50be
00000010: 2db2 8ebd f48a 443d 6e3f 733e a33e 063e
00000020: effc f33c cbbf 57bc efef 16bf 9780 10bf
00000030: ef6a fcbe 8186 31bf ddf6 0bbf 3439 9cbd
00000040: 415c 5fbc 01ea bdbd 0a9b c83b e152 11be
00000050: ac48 d9bd a9d2 b5bd 0089 573d f3da 2cbe
00000060: 7f1a 26be fc3a 883b ad7c 1ebe 1fed 27be
00000070: 970a 0d3d 5c51 f2bd b55e eebc 3334 18be
00000080: 9ace 3abe fc0e 69be 2918 2ebe 6439 24be
00000090: a396 42be b3f8 2cbe 8995 5ebd 68fd 87be
000000a0: a9ab 99bd 87db 2f3b b2f0 473e 23cf 703d
000000b0: 2b47 693e b752 563e 39e7 00be f662 87be
000000c0: 5740 813e 85f1 363d f1c0 a1be 0412 4d3e
000000d0: b3e5 053e dcaf 993e 6e2c 40be 012d cabd
000000e0: 45b1 46be 50e7 f23d 81d6 063e 01a8 463e
000000f0: faf9 393e 4332 9a3d 24d3 a9be ff81 f13e
00000100: 0ebb 843f 16ea 723f 0afd 8cbf 00a8 dcbf
00000110: 916d b1bd ec37 2f3e 3285 3b3e 2eed a43e
00000120: db6c 31be ee64 a3bc d265 09be bdd1 dbbe
00000130: f783 30be b097 c5bd 411f e3bd 8ac8 163d
00000140: 32ac 11be d613 86be 5b96 953e 8ba5 94bb
00000150: e8bb f03e f45b 023f 2bae be3e 36f9 593e
00000160: 607b 0a3e 34d1 233f 9af9 8d3f f881 8b3f
00000170: 4bb7 5a3f 551c 4ebe 82fa b5bc 0870 163e
