dAE_PyTorch/checkpoints/spectra_dae_epoch_12.pth (torch, 18875 bytes, 13 tensors)

conv1.weight f4 [32, 1, 3]
000000 86 22 1e 3f cb 3e 0c 3f b5 95 f7 bd a8 61 eb bd
       0.6177143 0.54783314 -0.12089101 -0.11493236
000010 58 e3 2b be b8 81 00 3f 3a 8c 24 bf 47 70 20 3f
       -0.16785944 0.50197935 -0.6427647 0.6267132
000020 ef 80 67 3c 39 37 dc bc f0 61 1e bd 0a f5 49 3f
       0.014129861 -0.026881801 -0.03866762 0.78889525
000030 c7 d6 06 3f 2e 54 f4 bd 40 4c 36 be 8c 96 ea 3b
       0.52671474 -0.119301185 -0.17802525 0.00715906
000040 22 29 34 bf 4f 41 e8 3e fd 8d 0e bf f4 00 18 bf
       -0.70375264 0.45362327 -0.55685407 -0.59376454
000050 66 aa 94 3e 31 40 30 3f ed a8 2c 3e 89 16 14 bf
       0.29036254 0.6884795 0.16861315 -0.57846886
000060 9f 36 46 bc ef 4e 82 bf 6e 8f 90 3b ea 90 8d 3c
       -0.012097984 -1.0180339 0.0044116294 0.017281014
000070 df 11 cb 3e c1 ee fc 3e 48 72 ef be 7d bd 9b 3e
       0.39662072 0.49400905 -0.46766877 0.30418006
000080 f5 40 16 bf fb c3 1a bf 6a b2 7d bc cb ce 18 3f
       -0.58692867 -0.6045529 -0.015484432 0.5969054
000090 96 b1 6d 3e c4 46 03 3e c4 fe cf 3e a2 db 02 3f
       0.23212275 0.12819964 0.40624058 0.51116383
0000a0 d7 a5 cc be 52 f6 33 bf 77 9d 16 3f 88 02 90 bd
       -0.39970276 -0.7029773 0.5883402 -0.07031733
0000b0 bc 4e 86 3e c8 e7 43 be cc bc 30 3f 40 b9 be be
       0.26231945 -0.19131386 0.6903808 -0.3725071
0000c0 98 15 38 b9 f4 00 95 bf e2 c9 98 b9 9a 05 93 3e
       -0.00017555652 -1.1640916 -0.00029142114 0.2871521
0000d0 3b d3 77 3e 00 31 8e 3e ab d0 70 bf 0a 70 a8 3d
       0.24201672 0.2777176 -0.940684 0.08224495
0000e0 de ae 48 3d dc 4d b6 3e 02 7c 69 3e bc 1f 9e 3e
       0.04899489 0.35606277 0.22801211 0.30883586
0000f0 fc 37 01 3e c5 f3 81 3e 38 c8 06 be 5b de 5b bf
       0.12619013 0.25381294 -0.13162315 -0.8588616
000100 7b 84 6d 3c 00 e8 84 3b 8f d8 46 3f d6 0d a9 be
       0.014496918 0.004055977 0.7767419 -0.33018368
000110 53 b9 05 be dc 6a f5 be e8 e1 23 bf 5b e9 23 bf
       -0.13058977 -0.4793309 -0.6401658 -0.6402795
000120 83 fc 01 bf e1 63 29 bf 8f 1d 63 3d 46 62 d6 be
       -0.5077593 -0.6616803 0.05544811 -0.41871852
000130 34 69 d6 be 14 32 0f bf 16 f5 ae be f6 75 fb be
       -0.4187714 -0.5593579 -0.3417136 -0.49113435
000140 ac d7 c1 be 20 05 2b 3e 1c a1 a9 3e 15 cf bc bf
       -0.37859857 0.16701174 0.3313073 -1.4750696
000150 46 ee 83 be 90 b5 9f be e4 68 39 bf 1a 40 6a bd
       -0.25767726 -0.3119321 -0.72425675 -0.05719004
000160 6a de 63 3e 94 52 5a bf b2 4d b2 bc 9f 60 50 3f
       0.22252813 -0.85282254 -0.021765564 0.8139743
000170 8e 79 f3 bc df e7 a6 bf 97 27 62 3e aa 28 e7 3d
       -0.029721048 -1.3039511 0.22085415 0.11287053

conv1.bias f4 [32]
000000 76 0d 59 be b0 1d 93 bd 1c db 17 bd 21 c7 34 bf
       -0.21196541 -0.07183397 -0.037074193 -0.70616347
000010 8d 39 93 be 07 f2 1d 39 e7 8e 64 3e 0a fc 6d be
       -0.28754845 0.00015062849 0.22320138 -0.23240677
000020 25 0d 57 3e 6b 18 a7 be 7b dd af 3e 58 4d af bd
       0.21001108 -0.32635817 0.34348664 -0.08559674
000030 d1 4c df be 62 63 11 3e 24 95 6b be 14 88 dd be
       -0.43613294 0.14198068 -0.23006111 -0.43267882
000040 df 11 b4 3d cd 59 7b be 5f 15 a6 3e b6 ff 27 bf
       0.08792471 -0.24545975 0.3243818 -0.6562456
000050 58 ba 21 be 3e 80 87 3e 89 c0 bd be 56 04 6a bd
       -0.15793741 0.2646503 -0.37060955 -0.05713304
000060 e5 98 25 3f a5 a2 e6 bc 07 6d e2 3e 8c 6e 06 be
       0.64686424 -0.028153727 0.44223806 -0.13128108
000070 16 03 a6 be 67 31 74 3e f7 4f 3e bf 35 92 a2 bd
       -0.3242423 0.2384697 -0.74340767 -0.07938043

conv2.weight f4 [16, 32, 3]
000000 45 5d 30 bd 6c 37 d1 3d a3 e3 b0 3c 58 16 5b 3d
       -0.0430577 0.10215649 0.02159292 0.053488106
000010 0a 8a 28 be ed a1 79 3e 7b 93 81 3e e8 00 f2 3d
       -0.16458908 0.24378176 0.2530783 0.11816579
000020 93 8a 6b 3d ed bb 13 3f 86 ef 9c 3f 1e f1 23 40
       0.0575052 0.57708627 1.2260597 2.5615916
000030 f6 87 f3 bc d5 3d e0 bc 72 aa 79 3d 69 6c e9 be
       -0.029727917 -0.027373234 0.060953565 -0.45590523
000040 bb e5 4c be dd 32 18 be 75 84 74 be 64 24 7d be
       -0.2000951 -0.14863153 -0.23878653 -0.24720913
000050 f4 76 57 be 4c e2 2c be 2f 2a 1d 3e b7 80 81 be
       -0.21041471 -0.168832 0.15348123 -0.25293514
000060 91 55 14 be d4 10 32 bd df 91 4e be 54 2d fd 3c
       -0.14485766 -0.04347308 -0.20172833 0.030905403
000070 b7 71 32 3d 49 0c d2 3e 79 e2 b7 3d 2e 49 0c 3e
       0.04356548 0.41024998 0.08978743 0.13699791
000080 f8 31 1c bf 9f be 82 3e 9f 65 d6 3e fa bb 9b 3d
       -0.61013746 0.25536057 0.41874406 0.07604213
000090 ea 27 8a bc b7 7d 78 3e 75 13 20 3f d2 f3 4c bd
       -0.016864736 0.24266706 0.6252969 -0.050037213
0000a0 eb 26 83 3e a6 9e ed be 6b 38 0b be dd 45 28 3d
       0.2561563 -0.46410102 -0.1359574 0.04108225
0000b0 d4 df 79 3e a3 47 17 3e 6e d9 b8 3d 3a 9f 3e 3d
       0.2440179 0.14773421 0.090258464 0.04653857
0000c0 58 e4 90 be e5 9b ab be 33 c1 79 be a7 39 24 be
       -0.28299212 -0.33517376 -0.24390106 -0.16037618
0000d0 17 f0 ac 3d e9 29 48 3e ca 2e 71 3e 86 5e ef 3d
       0.08444231 0.19547237 0.23553005 0.11687951
0000e0 b7 d7 0f be f2 81 93 be 6f f5 0b 3f 57 5b 86 3e
       -0.14047132 -0.28810078 0.54671377 0.26241562
0000f0 17 e3 7a be 6c 13 7c 3e c2 c1 f9 bc 93 15 dc bd
       -0.2450069 0.24616784 -0.030487899 -0.107463025
000100 4b df 11 be 07 8d 51 3e c9 e8 a9 be df 42 85 bd
       -0.14245336 0.20463954 -0.33185413 -0.06506895
000110 0b c9 03 be 4c af c4 bd e8 8c d0 bd f4 13 59 be
       -0.1286966 -0.09603748 -0.10183126 -0.21199018
000120 01 83 ea bb 60 17 06 bd f2 4b 85 be 1f 90 d5 bd
       -0.00715673 -0.032737136 -0.26034504 -0.104278795
000130 17 2d 65 be 03 ff 7b be 91 56 79 3e b2 9b db be
       -0.22380482 -0.24608998 0.24349429 -0.42892224
000140 00 c9 1f be 7f 23 59 be c3 8e 20 3d 43 3f 9f be
       -0.15604019 -0.21204947 0.03919865 -0.31102952
000150 0d 61 8e bc c0 e3 c0 bc 5c a1 a0 be e5 fb 30 bc
       -0.017380262 -0.0235461 -0.31373107 -0.010802244
000160 4b f6 8e 3e ef 9d af bf 99 60 38 3f a5 06 ff 3e
       0.27922282 -1.3720073 0.72022396 0.49809757
000170 b6 05 cb 3f dd f1 fd be 43 3c 82 be 42 3e d4 bd
       1.5861118 -0.4959859 -0.254366 -0.10363437
000180 68 94 c4 bb d3 df 0a 3d e8 8a e4 3d cc 3b 7d be
       -0.0059991367 0.03390486 0.11159307 -0.24729842
000190 9d 28 80 bd 18 7e a4 3e d0 c2 61 be 10 18 2f 3e
       -0.06257746 0.32127452 -0.22046971 0.17099023
0001a0 13 d3 5b 3c b3 ac c2 3e 33 b4 42 be 75 da 6d 3f
       0.013417023 0.38022384 -0.19014053 0.92911464
0001b0 fd 45 14 3e 7c cc c6 3b d5 a3 4b be 58 a7 37 3c
       0.14479823 0.006066857 -0.19886716 0.011209331
0001c0 d9 48 37 3e 22 f7 82 3d f1 5c 4c 3e e4 82 e8 bd
       0.17898883 0.06394793 0.1995733 -0.113530904
0001d0 98 56 dd 3d 3a 1b 53 3e ef 57 e3 bd 33 8b 05 bf
       0.10807532 0.20615855 -0.111007564 -0.52165526
0001e0 66 d5 83 3e 94 76 92 3e fe 32 c2 3d 45 95 5a bd
       0.25748748 0.28606093 0.09482382 -0.05336501
0001f0 6f 20 58 bd 59 ca b5 3e 89 1e 00 be 5c dc 57 3e
       -0.052765306 0.35505942 -0.12511648 0.21080154
000200 41 20 c2 be f1 49 8e be ed 8a f1 3e 2c 0a 10 3e
       -0.37915233 -0.27790788 0.47176304 0.1406638
000210 bf 44 9d bd fd 36 cc bd 3b fd 80 3e ac bd b3 3c
       -0.07679128 -0.09971426 0.251932 0.021941029
000220 95 87 1a 3f c5 6d 57 bf 90 ff 65 3d a9 0c 10 3d
       0.6036313 -0.8415187 0.056151927 0.035168324
000230 54 39 15 3e 28 6a 41 3e 0b 24 16 3d f3 6f fc bd
       0.1457265 0.18888152 0.036655467 -0.1232604
000240 98 6a 14 be 5e 28 33 be 42 8c 88 be 26 69 f4 bc
       -0.14493787 -0.17495868 -0.26669508 -0.029835295
000250 2e 11 12 3d 0a 10 6d 3e 1c 38 11 be a3 e5 06 3e
       0.035660915 0.2315065 -0.1418156 0.13173537
000260 c1 c6 48 3e 40 42 11 bf 23 a0 06 bf 6f 30 69 be
       0.19607069 -0.56741714 -0.525881 -0.22772382
000270 06 be 81 3e db 0f ae be ea 29 63 be c8 f1 c9 3e
       0.2534029 -0.33996472 -0.22183958 0.39442277
000280 ec 0a 9d 3d f8 07 9e 3c 91 35 95 3e 89 0c 34 bd
       0.07668099 0.01929091 0.2914243 -0.043957267
000290 ee 56 13 bf 70 61 c3 bd 10 e3 13 be c4 1a 0e be
       -0.5755452 -0.09540069 -0.14442086 -0.13877398
0002a0 e4 a8 3c be c4 4a 36 bd da 1a 19 be 26 ec ec bd
       -0.18423802 -0.044504896 -0.1495165 -0.11568479
0002b0 40 10 ec bd b7 63 28 be 3f 1b ee 3e 94 8d e8 3c
       -0.11526537 -0.16444288 0.46505162 0.028387822
0002c0 0f c2 8b be 65 69 9d 3c e9 ad fd bd 94 0f 75 be
       -0.27296492 0.019215295 -0.12386686 -0.23931724
0002d0 07 6b 18 3c 5f 9f 1e bd 04 29 5e be d4 e9 85 3c
       0.009302861 -0.038726207 -0.21695334 0.01634685
0002e0 94 21 d6 3e 83 be 5e bf cd 8b 2a 3f 3f ba d8 bd
       0.41822493 -0.8700945 0.6661957 -0.105823986
0002f0 89 a0 e4 bd 1a 75 9b be 52 47 8d 3e 7c a1 90 3e
       -0.11163432 -0.3036278 0.27593476 0.28248203
000300 49 9a d5 bd 78 80 df 3d fc 61 b1 bd 77 0f a8 be
       -0.10429818 0.10913175 -0.08661267 -0.328243
000310 a2 42 4d be d4 96 56 3e c3 94 11 be e1 41 d6 bd
       -0.2004495 0.20955974 -0.14216904 -0.10461784
000320 e3 9b bd 3c 7e 0c cb be b9 e5 ff be d0 b1 1b 3e
       0.023145622 -0.39657968 -0.49979952 0.15204549
000330 a3 50 84 be 02 75 46 be af 84 a0 3e c3 60 0c bf
       -0.2584277 -0.19380572 0.3135123 -0.54835147
000340 b0 49 c3 be 20 f6 f1 3d 34 7e 2a bd d1 b1 58 bc
       -0.38142157 0.11814523 -0.041624263 -0.0132259885
000350 66 c8 26 bf c9 78 7d 3d 13 6f 4e be 69 be 54 3e
       -0.65149534 0.061882768 -0.20159559 0.2077576
000360 72 53 9e be 72 a5 76 be 90 6e 0d be a1 ad 99 bd
       -0.3092304 -0.2408655 -0.13811707 -0.0750382
000370 78 fc 0f 3e e2 e1 aa 3d 09 9c 60 3e fa ea 96 3e
       0.14061153 0.08343865 0.21934523 0.29476148
000380 79 3f 29 bf 7a 86 44 3e c1 d7 81 be ac 73 d6 bd
       -0.66112477 0.19191924 -0.2535992 -0.104712814
000390 8a b2 97 bc 52 16 d9 3d 63 86 35 3e 36 55 41 be
       -0.018517751 0.105999604 0.17727046 -0.18880162
0003a0 70 66 c2 3f c3 2d d2 be be 28 4a bb 6d b2 78 3b
       1.5187511 -0.41050538 -0.0030847038 0.0037948147
0003b0 99 aa 0d 3e 8b ca b6 bd 40 2a 2f be ee bd df 3e
       0.13834609 -0.08925351 -0.17105961 0.43699592
0003c0 3b a2 f8 3f 0d 8c 59 3e 86 f6 0d 3f 9b b3 15 3d
       1.9424509 0.21244831 0.5545429 0.03654824
0003d0 82 bb 36 3e d7 b7 cc bc 36 56 4e 3d 25 fa cb 3c
       0.17844966 -0.024990005 0.050375186 0.024899552
0003e0 07 5f 59 bf cd 8d d9 bd 25 99 f1 bd ff 8d b2 3e
       -0.84910625 -0.106227495 -0.11796788 0.3487396
0003f0 e3 e9 e4 bd 4c 0f 03 be 86 73 25 3e f3 e5 80 3d
       -0.11177423 -0.12798804 0.1615735 0.06293859

conv2.bias f4 [16]
000000 b6 be e9 bd 79 02 74 bd 6e 7f 74 3d f0 88 47 bd
       -0.11413328 -0.05957267 0.05969184 -0.04871458
000010 9d 1c e1 3d 32 33 5f bd 51 50 05 be f7 81 59 bd
       0.10991786 -0.054492183 -0.1301892 -0.05310246
000020 de bc 33 3e 60 34 89 3c c3 08 51 3d 01 03 ff 3c
       0.17552516 0.016748607 0.051033746 0.031129362
000030 85 62 70 3d d5 bd d1 be 6a b7 68 bd c7 ce 69 3e
       0.058687706 -0.40965143 -0.056815542 0.22832786

conv3.weight f4 [8, 16, 3]
000000 d5 a4 54 be c9 a8 1f bd 64 43 b7 be 74 6f bc bd
       -0.20766003 -0.038979325 -0.35793602 -0.092009455
000010 d8 22 27 3e aa 87 b1 be 83 71 74 3f 27 a6 2c 3e
       0.16321886 -0.34673816 0.95485705 0.16860257
000020 b6 8d 99 3f 17 24 23 3e c9 c1 10 be ac ef 1b bd
       1.1996372 0.15931736 -0.14136423 -0.038070366
000030 49 6b 3d 3d dd 7f 8b bd 81 a1 a2 3e 04 de 6d 3e
       0.046244893 -0.06811497 0.31763843 0.23229223
000040 dc cc 23 be 3e 9a 1a be c6 df 80 be f3 80 da bd
       -0.15996116 -0.15097901 -0.25170726 -0.10669126
000050 b6 bc e6 be 65 b4 b4 3e ae ec 99 bd 00 4e b0 3e
       -0.4506585 0.3529388 -0.07515846 0.3443451
000060 c0 8d 27 3e 96 e3 1d 3e 85 34 21 3e 0b cb d5 3d
       0.16362667 0.15418848 0.15742691 0.10439118
000070 b3 86 3d 3e b8 24 9c bd c3 05 b2 3e be 70 f2 3d
       0.18508415 -0.07624191 0.3477002 0.1183791
000080 3d 59 d8 3e 74 bd a5 bf 91 ee 69 be 6d 8d a4 be
       0.42255583 -1.2948442 -0.22844912 -0.3213915
000090 f2 98 64 3e 19 e8 f5 3d ce cd 91 3c 4c 0d a3 3d
       0.22323969 0.1200716 0.01779833 0.079615206
0000a0 44 44 1c bf 01 75 eb be 7c 3c 72 3e d9 ec d2 bd
       -0.61041665 -0.45987704 0.23655885 -0.10299081
0000b0 70 c2 52 be a4 d2 fa 3d e9 2d c7 3d 29 7b 16 3f
       -0.20581985 0.12247208 0.097255535 0.5878168
0000c0 de 3b 40 3d e3 2c a0 bd 22 51 97 3e 63 c5 30 3e
       0.046932094 -0.078210615 0.29554087 0.17262797
0000d0 8b 27 e2 bc c1 e0 21 3e 99 79 a2 3e 7d 31 4a be
       -0.027606746 0.15808393 0.31733397 -0.19745441
0000e0 48 6c df 3d b8 69 03 be bd 73 40 3d 29 25 ca bd
       0.10909325 -0.12833297 0.046985377 -0.09870369
0000f0 fc 11 12 3d 1b bb fb 3c d8 04 0e be 13 4b 3d be
       0.035661682 0.030728867 -0.13869035 -0.1848567
000100 3b 8c be 3d c8 71 06 bd 23 05 f6 3d 99 5a 2e 3e
       0.093040906 -0.032823354 0.120126985 0.17026748
000110 63 5d 93 3d 7e 24 d1 3b 05 7b 5c bd 07 47 c8 bd
       0.071955465 0.006382524 -0.053828258 -0.097791724
000120 a7 ff 72 be fb fa 82 bc f9 48 68 be f5 6b 8f 3e
       -0.23730336 -0.015988817 -0.22684087 0.28012052
000130 64 30 3a 3e c4 89 cb 3d 23 db 0e bd 77 e2 3a be
       0.18182522 0.09938386 -0.034876954 -0.18250452
000140 3a 03 8a 3d 01 d6 cf 3f 41 c7 bf 3e a7 0a 95 3f
       0.06738897 1.6237184 0.37456706 1.1643876
000150 d1 0e 84 3e 5e 6c 8b 3e 0f 26 b5 3e 07 8f 4a 3c
       0.25792554 0.27231115 0.353806 0.012363202
000160 47 68 0e 3f 11 5e 05 3f 9d 3a c9 3d 0f 93 1c 3e
       0.55627865 0.5209666 0.09825633 0.15290473
000170 93 e3 4a bb 3b 4b d8 bd 1e 0c 5e 3d ca c1 9b bd
       -0.0030958399 -0.10561224 0.054210775 -0.07605322
000180 0c 02 a2 3e b1 bb 90 3e 51 2e b6 bd 1a e0 58 be
       0.31642187 0.28268197 -0.08895553 -0.21179238
000190 a7 71 14 3e 0d f4 92 3e 7f bf 05 3f 13 54 96 bf
       0.1449648 0.2870182 0.52245325 -1.1744407
0001a0 ad 8a e4 3f 47 fa 26 3e 9d 7c d8 bd ce 02 bd 3c
       1.785482 0.1630641 -0.10570643 0.023072626
0001b0 10 b1 25 bd 41 5c 05 be 74 a2 83 3d e8 92 f5 3e
       -0.040452063 -0.13023473 0.0642747 0.47963643
0001c0 9e 84 43 be 30 a1 57 3e 71 4d cf be dd 47 2e 3e
       -0.19093558 0.21057582 -0.4048877 0.17019601
0001d0 92 b6 23 bd 56 50 f7 3d ef d0 a4 3d a4 a9 8d be
       -0.039969034 0.1207587 0.080476634 -0.27668488
0001e0 7a 8a c7 3e 9c 61 1b 3c b0 7a 3f 3e f3 da b8 bc
       0.38972837 0.009483721 0.18699145 -0.02256534
0001f0 1b bf 19 3e f5 90 a6 3e b4 04 0c 3f 8f 03 16 3e
       0.15014307 0.32532468 0.54694676 0.14649795
000200 3f 83 8f 3e 67 43 9a bf 80 48 07 3e d3 d6 5b bf
       0.2802982 -1.205182 0.1321125 -0.8587467
000210 53 8b 53 bd cc f9 9c bd a1 ca 82 be 0b 9c 79 be
       -0.05164654 -0.076648325 -0.2554522 -0.24375932
000220 f0 73 cc be 95 1a 5d be cb 33 8f be 2d 10 53 3d
       -0.39932203 -0.21592171 -0.27969202 0.0515291
000230 b5 dc 16 3e ce 7a 8c 3e a0 18 b5 bd 4b f7 c6 3d
       0.1473263 0.27437443 -0.088425875 0.09715136
000240 85 8c 91 ba 64 df b3 bd af c9 e8 be ec f6 fc 3d
       -0.00111045 -0.08782843 -0.45466372 0.12351784
000250 0f 52 57 3d 0c 17 54 3e 61 0f cb be 2c 4b 16 3f
       0.05256849 0.20711917 -0.3966017 0.58708453
000260 6f 52 ab 3f a6 8f c8 bd 40 1e a7 bc 22 dd 69 3e
       1.3384532 -0.09793024 -0.020400167 0.22838262
000270 0a 35 73 bd 15 5b 0b bd e7 e9 80 3e ec 30 d5 bd
       -0.059376754 -0.03402241 0.25178453 -0.10409722
000280 49 ff 9a bd f0 1d c0 3e ed 46 1d 3e dc 38 54 3d
       -0.07568223 0.3752284 0.15359087 0.051812038
000290 32 60 11 be 34 e6 32 3d fb a7 be 3d 35 c8 a3 be
       -0.14196852 0.04367657 0.093093835 -0.31988683
0002a0 a0 ab eb bd b7 cf 16 3e 22 94 b9 3d 98 6e b7 3d
       -0.11507344 0.14727674 0.09061457 0.08956641
0002b0 00 a0 62 bd 69 2e 13 3f 0b 9b 5d 3e f7 a6 33 3d
       -0.05532837 0.5749269 0.21641175 0.043860402
0002c0 20 03 5d 3f c0 c1 14 bf d0 db 35 bf e0 a5 b7 bf
       0.86332893 -0.5810814 -0.7103853 -1.4347496
0002d0 65 60 89 bc 10 b2 03 be ee e1 c2 bd 13 6e ca ba
       -0.016769597 -0.12860894 -0.09515749 -0.0015444182
0002e0 59 3c 3c bf 56 8b a7 bd 7d 91 8a 3e f8 da 28 bd
       -0.73529583 -0.08180873 0.27064124 -0.04122445
0002f0 2b 9d 3a 3e 6c 21 77 be 1f 93 18 3d 7e f9 5f 3e
       0.18224017 -0.24133843 0.03724968 0.21872517
000300 d0 75 e0 bd e8 52 7d 3d ae 09 0b be 87 45 82 3e
       -0.10959971 0.061846644 -0.13577911 0.2544367
000310 3f 6a 21 3d 24 91 ce bb fe ae 8a 3f b3 7f 70 3e
       0.039407965 -0.006303923 1.0834653 0.23486213
000320 f1 6b 8a 3e e7 e9 e7 be f6 a3 4f bd 62 2c f4 3c
       0.27035478 -0.4529564 -0.050693475 0.02980632
000330 c2 5f ac 3e 6e 10 23 be fc 4f 0d 3d fb 5f 3d bc
       0.33666807 -0.15924236 0.034500107 -0.011558528
000340 90 ac ff 3d 3a 1f df 3d f5 96 d2 3e c0 10 fe 3d
       0.124840856 0.10894628 0.41130796 0.124055386
000350 8f bb 13 3e 84 59 0b bf d3 59 49 be b3 a7 47 3d
       0.14427017 -0.54433465 -0.19663171 0.048743915
000360 19 46 10 be 64 7b 3c bb a0 c5 97 be 72 cd 8d 3d
       -0.1408924 -0.002876007 -0.29642963 0.06923951
000370 47 d1 c2 3d 98 59 39 3d a4 f5 1f 3f 1a b9 59 be
       0.09512573 0.04525146 0.6248419 -0.21262017
000380 e5 52 00 3e f3 27 a8 3f 87 91 f9 3e 66 a9 b1 3f
       0.12531622 1.3137192 0.4874384 1.3879821
000390 98 00 a9 3e 13 ba ff 3d ab 72 9c 3d ce 3e 41 3f
       0.33008265 0.12486663 0.07639059 0.7548646
0003a0 4a b2 18 3e c3 6f 9e bd fa 08 f5 3e 18 9e 8a 3c
       0.14911762 -0.077361606 0.4785841 0.016921088
0003b0 7e 87 ba 3d 1d db aa be d0 76 38 be c1 9d d5 bd
       0.09107874 -0.33370295 -0.18014073 -0.1043048
0003c0 5f 72 4e 3d 08 6d 96 3e a0 c1 92 be 8f 96 f9 bd
       0.05040204 0.2938006 -0.2866335 -0.1218692
0003d0 f6 b0 1e 3c ec 24 92 be d3 90 76 3f 97 d4 d2 3e
       0.009685745 -0.28543794 0.96314734 0.41177818
0003e0 90 52 97 3e 9a 30 b2 3e 42 20 52 3e 59 78 73 3e
       0.29555178 0.34802705 0.20520118 0.23776378
0003f0 dd 31 6e bc a4 57 b9 3d 97 d4 19 3f 5b d0 93 3e
       -0.0145382555 0.09049919 0.6009001 0.288699

conv3.bias f4 [8]
000000 06 90 6f 3e 1c 94 8a 3e 06 0c 27 3b f8 3a 73 bc
       0.23394784 0.27066123 0.0025489344 -0.014845602
000010 9b 44 85 bd a8 aa 0b be 4e 3f 63 be c7 b5 3f 3e
       -0.06507226 -0.13639319 -0.22192118 0.18721686

t_conv1.weight f4 [8, 8, 3]
000000 eb 79 7c bf 20 a5 ca be 1f e0 c2 3e fa 8e a0 be
       -0.9862353 -0.39579105 0.38061616 -0.31359082
000010 df 83 73 bd 73 1d dd bd 48 c7 2c be 0f e4 bb be
       -0.059451934 -0.107966326 -0.16872895 -0.36697432
000020 6f 87 47 be 86 72 b5 bf 5d df 9c 3e 2c 9b a3 3e
       -0.19485258 -1.4175575 0.30639163 0.31954324
000030 6a 6f df 3e d9 59 7b 3e f4 92 91 3d 89 6f a4 3c
       0.4363969 0.24545993 0.07108107 0.020072715
000040 04 de 78 3b c2 bd 81 c0 88 63 ac 3d b0 4e 94 3e
       0.0037974128 -4.054414 0.084174216 0.28966284
000050 a1 8b 87 3e 48 f2 4d bc af 3b fc 3e bb b5 5d 3e
       0.26473716 -0.012569971 0.49264285 0.21651356
000060 e2 30 d2 bd c6 d5 a1 3d e8 aa ab 3e 81 3c 53 be
       -0.1026323 0.07902102 0.3352883 -0.20628549
000070 45 47 18 bd e8 07 c5 be a5 c8 85 3e 2c de 7f 3e
       -0.037177343 -0.38482594 0.26129642 0.24987096
000080 ba ea 72 3e c4 41 a8 bc 1c cd 98 be bb 4d a1 be
       0.23722354 -0.020539172 -0.29843986 -0.31504616
000090 bf 63 a8 be b4 d8 de be a4 9b b5 3c ee 79 83 3e
       -0.328886 -0.43524706 0.022168942 0.25678962
0000a0 12 23 31 bd 8f 54 12 c0 bc b8 77 be 62 06 19 bf
       -0.043246336 -2.286411 -0.24191564 -0.59775364
0000b0 69 5d a3 bd 10 70 d6 3e 88 89 00 bd 39 a3 f7 be
       -0.07976801 0.41882372 -0.03138116 -0.48366717
0000c0 cf b6 85 bf 51 1b 4c 3e e6 89 0e 3f dd 95 3e 3e
       -1.0446414 0.19932295 0.55679166 0.18611856
0000d0 51 47 fb 3d ef e1 7b 3e a7 4a a3 3d 2f e1 94 be
       0.12269462 0.24597906 0.07973223 -0.2907805
0000e0 29 f6 8b bc 9c 45 f6 3e 9c ad 98 3c fd bd 20 3f
       -0.017085152 0.48099983 0.01863747 0.627899
0000f0 d4 69 27 3e 41 61 0b 3e 6e 21 ba bd eb 13 bb 3f
       0.16348964 0.13611318 -0.090884075 1.4615453
000100 3d ad 79 be 45 9a 5f c0 a6 90 67 3e ca e7 37 3e
       -0.24382491 -3.4937909 0.22613773 0.17959514
000110 96 37 4a 3d c0 4f df 3e c9 7e 14 bf 34 27 1f 3f
       0.049369417 0.43615532 -0.5800596 0.62169194
000120 43 21 f5 be 56 1b 04 be 3c 9e 5c 3d a6 e6 13 3f
       -0.4787694 -0.12901053 0.05386184 0.57773817
000130 a8 fb 4c 3e cb d5 f1 bd 19 ee fb bc 14 26 d3 3d
       0.20017874 -0.11808356 -0.030753182 0.10309997
000140 09 d0 10 3c 40 da dc be 16 c5 8e 3e 2a bf 75 bc
       0.008838662 -0.43135262 0.2788474 -0.01499919
000150 47 38 f3 3e ae f8 48 bd 7b ba 9a 3d 3d b5 59 3f
       0.47503874 -0.049065284 0.075550996 0.8504217
000160 c3 46 4a 3e ef 2c 56 c0 ce db 54 3e d0 9d e3 3c
       0.19753556 -3.3464925 0.20786974 0.027785212
000170 25 7a 17 3e f6 3e 2c 3d 0a ad 2a 3e 29 0b 90 be
       0.14792688 0.04205223 0.16667572 -0.28133515
000180 ba 03 84 be 03 9a cb 3e 0c 77 58 3e 76 11 db bd
       -0.25784093 0.3976594 0.21139163 -0.1069669
000190 cf ec e2 be 37 4e bc be 93 85 86 3e 6b fb 34 3e
       -0.44321296 -0.36778423 0.26273784 0.17674033
0001a0 d2 5e f7 3d f6 20 c0 be 73 5e 92 3e 31 08 16 3f
       0.120786324 -0.37525147 0.28587684 0.5860625
0001b0 2e dd da 3d 5e 62 ea be 37 8e ea 3e 22 c5 84 3e
       0.10686718 -0.45778173 0.45811626 0.2593165
0001c0 b4 9b c6 3d d4 c6 c2 3f 9f 81 76 3e bc 53 8c bf
       0.09697667 1.5216928 0.24072884 -1.0963054
0001d0 51 d9 a6 3e ee c6 58 3e c0 2b d8 3e 1b 79 b9 3d
       0.32587674 0.21169636 0.4222088 0.09056302
0001e0 79 cb 15 3f 4f ec 02 3d c3 df 9a 3d 4b 4d ad 3e
       0.585136 0.031963643 0.075622104 0.33848032
0001f0 7b ed 4e 3e 8f 65 99 3e ae c5 c8 3e 5a 90 15 3e
       0.20207779 0.29960296 0.39213318 0.14605847
000200 97 8e 54 3e cc 04 8d bf d9 55 df 3d db 57 0f be
       0.20757519 -1.1017089 0.10905046 -0.13998358
000210 02 dc c8 3d fa e4 4d bd 0b 8c 64 3d e5 6e b7 3e
       0.09807588 -0.050267197 0.055797618 0.35826793
000220 85 3d ad 3e c7 9d 09 c0 c1 a4 ca 3e b3 a2 1f 3e
       0.33835998 -2.150255 0.39578822 0.15589409
000230 3d 6e 68 3d ee 78 77 be 98 40 21 bd 6a 7c 8e bd
       0.056745756 -0.24167225 -0.039368242 -0.06957324
000240 16 3e d8 be 77 84 58 bd fe 17 a8 3e c5 d3 89 3e
       -0.42234868 -0.052860703 0.32830805 0.2691938
000250 5d be cf 3e 66 54 03 3f 5b 9f 15 3e e6 9c 9f 3e
       0.40574923 0.51300657 0.1461157 0.31174392
000260 b2 b1 c0 3d a2 4e f9 3e 1b 2a 4d 3e 13 57 39 bf
       0.09408893 0.48692805 0.20035593 -0.7239849
000270 c1 d0 79 be 73 68 67 be 89 d6 f8 3e ae e0 92 3f
       -0.2439604 -0.22598438 0.48601177 1.1474817
000280 e5 43 98 3e 34 5c f4 bf df 18 e0 bc df 3c 9b bd
       0.297393 -1.9090638 -0.02735561 -0.075799696
000290 d8 ec b7 3e fb 92 81 3c b8 ad 22 bd fb 59 c9 be
       0.35922885 0.015817156 -0.039716452 -0.39326462
0002a0 e5 5e e9 be ef 16 b3 bd d3 1d 8b 3e f8 7c 00 3f
       -0.4558021 -0.087446086 0.27171192 0.5019069
0002b0 d3 d2 8b 3e b7 07 17 3e 84 b3 4a 3e 89 fd a9 3e
       0.27309284 0.14749037 0.19795042 0.33201244
0002c0 5e b6 09 3e a7 0a 66 3f 0e 18 45 be a9 62 a8 bf
       0.13448474 0.89860004 -0.19247457 -1.3155109
0002d0 e7 80 51 be 30 ba 43 be 03 7d a5 3d 1e 5a 0e 3d
       -0.20459329 -0.19113994 0.08080485 0.03475391
0002e0 fe fe d0 bd 88 a9 37 c0 98 39 88 be 2a bf a3 be
       -0.10204886 -2.8697224 -0.2660644 -0.31981784
0002f0 c1 82 cd be 1b 31 58 3e af d7 c9 be 3f 49 26 be
       -0.4013882 0.21112482 -0.39422366 -0.16238879

t_conv1.bias f4 [8]
000000 9a 4e a9 3d ec eb 78 be a5 2f 89 3e b0 e1 c5 3d
       0.08266945 -0.24308747 0.26794162 0.09662187
000010 54 04 4f 3c 71 a5 57 3e 4a 56 3d bc 00 c4 42 bc
       0.012635309 0.21059205 -0.011556217 -0.01188755

t_conv2.weight f4 [8, 16, 2]
000000 e0 d1 a3 bd a7 82 b6 bd ba 0f 80 bd 3c 44 5b 3e
       -0.07999015 -0.08911639 -0.062529996 0.21412748
000010 8c a6 7d bc ff d5 b9 3e 21 7d 80 3c de f3 c4 3e
       -0.015481602 0.3629608 0.015684666 0.38467306
000020 66 ce 77 3e fd da c2 3d 81 21 95 be 36 25 0e be
       0.24199829 0.09514425 -0.29127124 -0.13881382
000030 b1 9b 83 bc e2 c6 1a bb 40 6e e7 3e 5c 8c a5 3e
       -0.01606545 -0.0023617079 0.45201302 0.32333648
000040 31 99 19 3f 5e 1a aa 3a 45 c5 be bd 1d 71 c1 3d
       0.59999377 0.0012977829 -0.0931497 0.09445403
000050 05 aa 2a 3e 17 47 ef 3e e8 d2 99 3e 56 60 ba 3d
       0.1666642 0.46733925 0.3004372 0.09100406
000060 dd dd 90 be 2d d9 b3 3e 5e f9 ab 3e 6e 42 93 bd
       -0.28294268 0.3512663 0.3358869 -0.07190405
000070 c5 09 ea be d8 c8 19 3e 9a ad e3 3d 94 56 15 bd
       -0.4571058 0.15018022 0.11117096 -0.03645952
000080 6c 77 98 bd 21 43 4b 3e d6 b4 3c be 28 b9 9a 3e
       -0.07444653 0.19849826 -0.18428358 0.30219388
000090 27 5a 20 3f 96 2e a5 3c 5e ab 32 be 4f ac b0 bd
       0.6263756 0.020163815 -0.17448184 -0.08626615
0000a0 a4 db 15 bf f3 99 97 3b 71 8d 0e 3f 43 75 0a be
       -0.5853827 0.0046265065 0.5568457 -0.13521294
0000b0 57 83 75 3c 6a c9 07 bf 5a 4f fd 3d 86 0a d2 bd
       0.014984927 -0.5304171 0.12368651 -0.102559134
0000c0 ef 83 22 be 96 86 62 3d 18 9b f7 be 8d b6 a5 bd
       -0.15870641 0.055304132 -0.48360515 -0.080914594
0000d0 e9 ed 1c 3d c4 9b 28 3d cd 74 06 3f 29 7a 19 3e
       0.038312826 0.041164175 0.52521974 0.14988007
0000e0 f7 7d 3f 3d f2 51 26 bc 9b 1f 7e 3e cb 3d b8 3e
       0.04675099 -0.010151373 0.24816744 0.35984644
0000f0 1e 76 e8 3e 63 95 d8 be 83 8d 2c be a4 07 d7 3e
       0.45402616 -0.42301473 -0.16850857 0.41998017
000100 2e 11 1d be d9 92 b3 bd be a8 40 be 65 fa 00 be
       -0.15338585 -0.08768243 -0.1881437 -0.12595518
000110 da bc 2b be d1 68 dd bd a1 97 03 3e 73 d4 6f 3d
       -0.1677126 -0.10811008 0.1285081 0.058552217
000120 47 6b a5 3e db 1d a5 3e e8 d1 03 3d 69 48 5d 3b
       0.3230841 0.3224934 0.032182604 0.0033765084
000130 94 d0 90 3e 8c f0 8d 3e e6 53 7b 3e 86 35 6e 3e
       0.28284132 0.27722585 0.24543723 0.23262605
000140 26 9e 25 bf a0 0a 33 be ac 8a af 3d b1 e2 9b bd
       -0.6469444 -0.17484522 0.085713714 -0.07611597
000150 7b 76 10 be ee 2d 93 be 4a 5b 8d bd 5d cc 14 be
       -0.14107697 -0.2874598 -0.06902178 -0.14531083
000160 51 94 b3 bd 01 4d 1f be 7f 6f d1 bd f2 81 6b bd
       -0.087685235 -0.15556718 -0.10226344 -0.057496972
000170 7b 4b 99 be 44 11 0e bb e0 33 24 be ad e3 0f be
       -0.299404 -0.0021677772 -0.16035414 -0.14051695
000180 1d 83 9a 3e 54 ef 77 3e bb b6 01 be d4 a1 c5 bd
       0.30178156 0.2421239 -0.12667362 -0.09650007
000190 e2 88 8e 3e 4a e9 c4 3e 4b c5 0e bf ce 1d b9 3e
       0.27838808 0.38459235 -0.55769795 0.36155552
0001a0 5d f8 a5 be a1 56 4f be dd d7 57 be ff dd ad bd
       -0.3241605 -0.2024789 -0.21078439 -0.08489608
0001b0 95 db b9 be 3d 23 db be 1d ee 4e be 43 2c 22 be
       -0.3630034 -0.42800322 -0.2020802 -0.15837197
0001c0 62 00 88 bd 4e 8e 7b 3d 58 44 ec 3e c1 e9 2b be
       -0.06640698 0.06141501 0.46145892 -0.16788389
0001d0 5f 1d 2e 3e b3 56 64 3e 64 3a 6f be 25 ad 14 3f
       0.17003392 0.22298698 -0.23362118 0.580767
0001e0 21 3b 3a bb e2 36 d8 bd ed 2a b3 3e 44 ab 88 bf
       -0.0028416591 -0.10557343 0.34993687 -1.0677266
0001f0 b2 27 1a 3e a0 d1 91 bf 99 f5 3a bd 2e 68 1c be
       0.15054205 -1.1392097 -0.045644376 -0.15274116
000200 ae 6f 6d 3b c0 7b af 3e d3 c2 db bd f7 fd ad 3d
       0.0036229896 0.342741 -0.10730519 0.084957056
000210 38 a6 ab be a3 b4 a0 3e d8 92 09 3f 78 6b 64 3c
       -0.33525252 0.31387815 0.5373969 0.013941638
000220 40 54 48 3e 0f 6d c2 be 38 cd 86 3e 28 0e 3f 3e
       0.19563389 -0.3797383 0.26328444 0.18657744
000230 74 11 8f be e6 15 e4 3d 23 cc aa be 2d 61 2f 3e
       -0.27943003 0.11136989 -0.3335887 0.17126913
000240 71 b1 dd be 59 ba f9 3c 60 b5 f4 3e e0 ff 35 3d
       -0.4329944 0.030484365 0.47794628 0.044433475
000250 8d 58 82 3e 7c 2a ef 3d 2a b2 0e 3e 17 ec e2 bc
       0.25458184 0.11678025 0.13935152 -0.027700467
000260 2e 80 ad bd 82 7c 8a 3e 00 7e 40 3e fd d2 98 3e
       -0.08471714 0.27048117 0.18798065 0.2984847
000270 c9 07 2d bc da cc bd 3e 12 5b d3 3c 80 71 0a be
       -0.010560938 0.37070352 0.025800262 -0.1351986
000280 ec 6e 0e be e2 11 35 be 22 15 a2 3d 7f 01 db bd
       -0.13909501 -0.17682603 0.07914187 -0.10693645
000290 a2 16 05 3e b6 92 f9 bc 98 37 2c c0 2f d9 d2 3e
       0.12996915 -0.030465465 -2.6908932 0.41181323
0002a0 95 00 8c 3d e6 c3 13 3e b0 85 ed be 64 fa 8e 3d
       0.068360485 0.14430198 -0.46391058 0.06981352
0002b0 ba bd 8f 3d c5 fd 3f 3d 02 ed d0 3e 7c b6 f1 3d
       0.07018609 0.046872873 0.40805823 0.11802384
0002c0 13 ed 2d 3f cc 4c 03 be da f8 41 be fb f6 74 3d
       0.6793987 -0.12822264 -0.18942586 0.05980585
0002d0 ae 47 83 be 40 0c 8a bd 6b 25 02 3e 74 5a ac 3e
       -0.25640625 -0.06740618 0.12709586 0.3366276
0002e0 7f 87 0c 3f fd 24 a4 3e 47 e4 33 3e b6 5b 95 3e
       0.5489425 0.3205947 0.1756755 0.29171532
0002f0 41 b8 1e bf 47 93 08 c0 72 96 b6 3d bf 52 3f 3e
       -0.619999 -2.133989 0.08915414 0.18683909
000300 71 01 55 3e 8a 76 3b 3d b7 eb 01 be f1 35 ca 3e
       0.20801331 0.045767345 -0.12687574 0.3949428
000310 19 96 7f 3d 3f 60 21 3e e3 54 2e 3e 37 3e cf 3d
       0.062399004 0.15759371 0.17024569 0.101192884
000320 5b 2e ee bd f2 64 2d bf e5 47 e3 3d 22 c2 33 3e
       -0.11629935 -0.67732155 0.11097697 0.17554525
000330 a7 4a 85 be 49 df 21 be 1c ad dd be ab 36 b8 be
       -0.26033518 -0.15807833 -0.43296134 -0.35979208
000340 eb f2 64 be 05 03 a3 bd 23 83 50 3d c8 d2 df bd
       -0.22358291 -0.0795956 0.05090631 -0.10928875
000350 ac 73 46 3c 80 91 77 3e a3 4d 47 3e 9c cf af 3e
       0.012112539 0.24176598 0.1946321 0.3433808
000360 2b 8c 95 be 08 43 fe bd 84 75 9a 3e 20 ef 66 3e
       -0.29208502 -0.12415129 0.30167782 0.22552156
000370 f3 48 07 3d d2 57 8b 3d 38 37 4c be 66 91 42 3d
       0.033028554 0.0680386 -0.1994294 0.047501944
000380 09 dc ab 3e 45 2e fa bc 08 30 03 be 3e b8 48 3e
       0.3356631 -0.030539641 -0.12811291 0.19601533
000390 28 23 6c 3e 16 00 a4 3c c6 a0 bf be 4b c3 96 be
       0.23060286 0.020019572 -0.37427348 -0.29445872
0003a0 c2 b2 3e be b3 38 23 3d 35 6d 56 3e 8b e6 35 be
       -0.18622878 0.039848994 0.20940097 -0.17763726
0003b0 cf a3 9d 3e 6d 38 e4 be 41 76 2c bf f0 95 40 3d
       0.3078904 -0.445743 -0.6736794 0.04701799
0003c0 fd 15 09 be c5 fe 07 be b4 ba 5e bd 7a cf 15 be
       -0.13387294 -0.1328078 -0.054377273 -0.14629927
0003d0 a9 81 9f 3e c8 99 50 bd 08 df 55 be a7 5c 10 bf
       0.3115361 -0.050927907 -0.20885861 -0.56391376
0003e0 4f fa ec 3e 0b 96 4c be 5f 52 8d be ee f8 9e be
       0.4628472 -0.19979112 -0.27601907 -0.31049293
0003f0 01 11 2a bf 38 9c d5 be c4 43 22 be 85 29 c3 3e
       -0.66432196 -0.41720748 -0.15846163 0.38117614

t_conv2.bias f4 [16]
000000 5c c1 eb 3c 37 92 bb ba d3 68 31 be 4b ab bc 3c
       0.028778724 -0.0014310543 -0.17325144 0.023030898
000010 b4 6c 8a 3c 16 f1 9d 3d 1e 70 eb 3d b6 f6 57 be
       0.016897537 0.07711999 0.11495994 -0.21090207
000020 24 70 e2 be aa 1c 2c bf 58 9e 1c 3e c2 9a 0a be
       -0.44226182 -0.6723124 0.15294778 -0.13535598
000030 45 ff 22 3d a9 69 30 be 33 8f 41 3d c2 e5 9b be
       0.039794225 -0.17227806 0.047255706 -0.3044873

t_conv3.weight f4 [16, 32, 2]
000000 54 40 32 3e 8a aa e4 3d b6 00 ed bd 1a 9d ca 3d
       0.17407352 0.1116534 -0.11572401 0.09893246
000010 79 a9 b2 bd 8a 17 d0 be 34 44 ea bd 91 47 f9 3d
       -0.087237306 -0.4064296 -0.1143879 0.12171853
000020 42 cc 08 be 79 6e d6 be 8f c3 50 bd d9 07 39 3e
       -0.13359168 -0.4188116 -0.05096775 0.180694
000030 ed 35 fa bd ba d2 ce bd 9a 4b fc 3d 8e fd a3 3d
       -0.12217317 -0.10098787 0.12319107 0.08007346
000040 da 9c 49 3e b5 62 d8 bb a1 6f a0 3c 8c 14 12 be
       0.1968874 -0.0066035637 0.019584479 -0.1426565
000050 e1 b3 68 3e 81 81 15 3e bb 8f a6 3e 09 13 85 3e
       0.22724868 0.14600183 0.32531533 0.25991085
000060 f0 ca e4 3c 6c 8f 85 3e 12 f0 ac bd 48 af 9e 3e
       0.0279288 0.26085985 -0.08444227 0.30993104
000070 30 bf 5b be bc 5e f9 be ee c7 3d 3e 4e 5d 81 bd
       -0.21459651 -0.4870509 0.18533298 -0.063166246
000080 9c 67 a7 3d 18 b8 16 bf 62 7f 79 be a7 40 3e be
       0.08174059 -0.58874655 -0.24364999 -0.1857935
000090 7e 79 7c 3e 42 86 cc 3d cc cd ba be bd b2 49 be
       0.2465572 0.09986545 -0.36485136 -0.1969709
0000a0 1c 18 19 bf e7 a5 72 be 2d 7f 6b 3e b4 30 86 3d
       -0.59802413 -0.23696099 0.22997732 0.06552258
0000b0 9d 0c db ba 7e 60 89 bf 27 66 91 bd b5 36 de bf
       -0.0016712133 -1.0732572 -0.07099562 -1.7360445
0000c0 dc c3 40 3e d4 36 58 3e 8c 2c f6 3d a5 70 4a 3e
       0.18824714 0.21114665 0.120202154 0.19769533
0000d0 b9 80 36 bc 2e 2b 12 3d e4 26 f0 be 05 9c 1e 3e
       -0.011139088 0.03568571 -0.4690467 0.15489204
0000e0 36 69 90 bd c4 cf ef 3e fe 53 87 3e ed 86 1f 3d
       -0.070513174 0.468382 0.26431268 0.038947035
0000f0 30 16 e5 3c cb 15 39 3e 41 68 91 3e 2b b8 4d bb
       0.027964681 0.1807472 0.28399852 -0.003139029
000100 87 0e c3 3c b7 4e 5d 3e 1c 52 7b be a7 0b 9a bd
       0.023810638 0.21612059 -0.24543041 -0.07521754
000110 73 df 47 bd e4 ae e8 bd 55 57 46 bf d1 13 20 bf
       -0.048797082 -0.11361483 -0.7747701 -0.6253024
000120 8b 9f ec bd 6d 79 0c be 26 85 24 be 2f a2 b6 3d
       -0.11553868 -0.13718195 -0.16066417 0.08917653
000130 af 36 75 3c 82 53 9b 3d f3 f0 0e 3c 53 d1 2b 3d
       0.014966651 0.07584287 0.008724439 0.041947674
000140 b2 73 b9 3d 94 91 02 3e c3 51 3d bd a8 73 0e bd
       0.0905527 0.12750846 -0.046220552 -0.034778267
000150 88 1f 25 3e 00 8b 95 3d 71 49 73 3e e3 47 4c 3e
       0.1612531 0.07301903 0.23758484 0.19949298
000160 f0 53 91 3c 8b 33 59 3e d3 89 5d bd 1e 87 7a 3e
       0.01774022 0.21211068 -0.054086518 0.24465606
000170 5c 9a 70 bd d6 cf 42 bd 1b 36 91 3e 20 ea 39 bf
       -0.05874096 -0.04756149 0.28361592 -0.7262287
000180 3a 43 ac 3c 18 92 96 3f 03 54 8c be 9b fc 3a 3e
       0.02102815 1.1763334 -0.27407846 0.18260424
000190 64 4e 14 3e 7e 80 77 3e 25 90 8e be 53 65 a4 be
       0.14483029 0.2417011 -0.2784435 -0.32108554
0001a0 20 8f c5 3e d7 00 53 bd e6 17 22 3e 04 bd d2 3c
       0.38585758 -0.051514473 0.15829429 0.025724895
0001b0 fa 67 b7 3d 22 1d dc be df dd 60 bd ec ef 8b bf
       0.08955379 -0.42990977 -0.054899093 -1.0932593
0001c0 23 e7 b6 3d d3 86 24 3e 15 e6 90 3e fd 1a 15 3f
       0.089308046 0.16067056 0.2830054 0.58244306
0001d0 93 26 8c 3d 73 da c3 bd f3 30 99 3d 23 da 47 be
       0.06843295 -0.0956315 0.074800394 -0.19516806
0001e0 28 f6 7a bd c3 57 09 bf f9 9a 2a 3d f6 78 c3 bd
       -0.06126991 -0.5364954 0.0416517 -0.09544556
0001f0 c8 12 51 3d 3c 30 af bd 9e 12 6a 3d 92 d4 9e 3e
       0.0510433 -0.08554122 0.05714666 0.31021553
000200 9c 14 8e 3d 1e 92 b7 3d 74 ed 23 3e e6 d9 5c be
       0.06937525 0.089634165 0.1600855 -0.21567497
000210 09 d5 fa bc c8 4c 84 3e 7f 89 94 bf 45 1d 3e 3e
       -0.030619161 0.2583983 -1.160446 0.18565853
000220 01 eb dc 3c cf 6b 87 be ab a2 06 be cb 18 04 bf
       0.026967527 -0.2644944 -0.1314799 -0.5160033
000230 ee ff 4b be e3 79 27 be 5b 1f 53 bc a1 09 de 3d
       -0.19921848 -0.1635509 -0.012885894 0.1084168
000240 96 83 11 3e c4 77 ef bd b4 07 e1 3d 1e d5 95 3e
       0.14210352 -0.11692765 0.109877974 0.29264158
000250 ce 88 32 3c b4 b0 13 3e 8a 7e 39 3d 0a c0 14 3e
       0.010896875 0.14422876 0.045286693 0.14526382
000260 f2 a5 1e 3d 94 99 13 3e d4 06 45 bd eb a3 31 3e
       0.038732477 0.14414054 -0.048102215 0.17347686
000270 f6 6d 81 be 11 cf 87 be b2 e2 56 3e a2 25 eb be
       -0.25279206 -0.26525167 0.20984915 -0.4592715
000280 c6 9e 11 bf 31 0a f5 be 04 95 a0 be a0 a7 f2 be
       -0.56882894 -0.47859338 -0.3136369 -0.47393513
000290 c2 fa ac 3d 26 46 56 3e b3 ea 97 bd 5c d5 42 bd
       0.08446266 0.20925197 -0.07417812 -0.047566757
0002a0 94 c7 85 bf 5b 04 f2 be 10 4b ee bc 4a 62 f2 be
       -1.0451531 -0.47268948 -0.029088527 -0.47340614
0002b0 27 db 8f 3c 97 98 e2 3e b7 f4 3a 3d 02 95 9b 3e
       0.017560555 0.44257042 0.045643535 0.3038712
0002c0 d2 5f 46 bc 7f 4b 38 3c 06 c2 a8 3e 3c 26 83 3e
       -0.012107806 0.011248468 0.32960528 0.25615108
0002d0 9b a5 93 bd 11 7c 12 3e 90 17 24 3e 64 c0 29 3c
       -0.07209321 0.1430514 0.16024613 0.010360811
0002e0 e0 3e ed bd 8a f0 c4 3e 23 40 92 3e 14 0e 76 bb
       -0.11584258 0.38464767 0.28564557 -0.0037545012
0002f0 d6 c7 c0 bd 1e 7e a5 3e 4a 5b 14 be a4 68 e9 bd
       -0.09413116 0.32322782 -0.14487949 -0.11396912
000300 31 94 12 3d d3 e8 72 be d6 28 54 bf 1d 7d 0c bc
       0.035785858 -0.23721628 -0.8287481 -0.008574751
000310 bc 28 9c 3d 2f 69 a0 3d 06 72 a4 3e fe f4 c7 3e
       0.07624957 0.07832562 0.32118243 0.39054102
000320 e6 10 23 be 6a a1 08 3e cf 62 72 bd 6e bf 72 be
       -0.15924415 0.13342825 -0.059176262 -0.23705837
000330 fc 30 41 3e 32 c9 95 be 1e 6a a2 be 75 e3 39 3e
       0.18866342 -0.29255062 -0.31721586 0.18153174
000340 02 e6 13 be 6d e6 da 3d f2 c4 84 bc 2f 7d 34 3e
       -0.1444321 0.106884815 -0.016207192 0.17625879
000350 2d 7e 50 3e 0e 05 7d be 53 b0 6f 3e f9 e6 c5 3c
       0.20360632 -0.2470896 0.23407106 0.024157988
000360 79 38 f1 3d b6 85 35 3b bf 5e 19 be e8 98 e0 bd
       0.117783494 0.0027698106 -0.14977549 -0.109666646
000370 50 dd 90 3e f7 11 55 3e 7c e0 ac be ae 92 22 bf
       0.28293848 0.20807634 -0.33765018 -0.63505065
000380 c4 fd 3f bf b0 27 9b bc 80 81 af 3e a0 c8 ab 3d
       -0.7499659 -0.018939823 0.34278488 0.083878756
000390 54 66 87 3c 87 a9 82 3d 23 d3 ad 3e a7 32 aa 3e
       0.016528286 0.06379991 0.33950147 0.3324177
0003a0 84 65 7f bd 31 b5 3e be da dd 08 3f eb 70 6c 3d
       -0.062352672 -0.18623807 0.5346352 0.057724874
0003b0 71 ec f4 ba 15 bf a9 3e 91 8d 0d be bc 24 03 be
       -0.0018686188 0.33153597 -0.13823535 -0.12806982
0003c0 f8 94 f8 3c 84 f6 2e 3e 4e 88 2f be be d6 d5 ba
       0.030344471 0.17086226 -0.1714184 -0.0016314609
0003d0 ad 70 29 3d 56 96 e5 bd 10 27 b9 be 5e fc 2f 3d
       0.04136722 -0.11210315 -0.36162615 0.042965285
0003e0 e2 38 e7 bd 44 f1 ff 3c d2 e4 2b be 10 0e 5d bd
       -0.112901464 0.031242974 -0.16786507 -0.05396849
0003f0 5a 3e aa bd 7b ea de be e4 db 71 bf bc c3 ce 3a
       -0.08312674 -0.4353827 -0.9447615 0.0015774886

t_conv3.bias f4 [32]
000000 82 66 32 3e a9 c4 de 3d 49 99 77 bd 92 66 8f bd
       0.17421916 0.10877354 -0.06044892 -0.070019856
000010 00 c0 29 be ba 85 15 bd 73 2e b0 3d f8 19 30 bc
       -0.16577148 -0.036504485 0.086026095 -0.010748379
000020 e3 3f 05 3e c4 e1 07 3c c5 17 39 3e d1 af 16 3e
       0.13012652 0.008293573 0.18075474 0.14715506
000030 06 f8 38 3e 00 cc 46 3e 4e 86 20 bd da 35 af bc
       0.18063363 0.19413757 -0.039190583 -0.021387983
000040 f2 c6 55 3d ab 27 f2 3d 64 5a 79 3e da 34 5b 3c
       0.052191682 0.11823972 0.24350888 0.0133793
000050 7c a1 51 3e 72 54 21 bf 43 92 d6 be 0f ea 76 be
       0.20471758 -0.6301948 -0.41908464 -0.24112724
000060 41 83 10 3e d3 df 6a 3c 53 05 b7 bb 9a be 83 3d
       0.1411257 0.01433559 -0.0055853515 0.06432839
000070 88 69 b3 be ae 90 93 be 1b 85 bc be 10 6a d3 3c
       -0.3504145 -0.2882132 -0.368203 0.02580741

conv_out.weight f4 [1, 32, 3]
000000 16 d2 df bd 9a fd b8 bd 2f 78 43 bd ad e3 5a be
       -0.109287426 -0.09032746 -0.047722038 -0.21375914
000010 44 f0 15 bd 71 ae 27 3e 8e 93 5d 3e 7f 4a be 3d
       -0.03660609 0.16375138 0.21638319 0.09291553
000020 35 3f 92 bc 30 ff 0d be 21 65 0d bf 7a bb 17 bf
       -0.017852405 -0.13866878 -0.55232435 -0.5927044
000030 ea 71 17 bf 15 58 16 bf 5c 66 c5 be 2b 4b cc be
       -0.59158194 -0.5872815 -0.38554657 -0.399011
000040 b3 7f ee 3a e6 69 b5 be df e4 99 3d 17 29 e2 bd
       0.0018196016 -0.35432357 0.07514357 -0.110429935
000050 45 c4 1b bd c3 f8 af 3c c2 94 2a 3e 03 b4 65 be
       -0.038028974 0.021480924 0.16658309 -0.2243195
000060 c3 9d 10 be ed af 33 3d 36 87 0e be a4 61 4f bd
       -0.14122681 0.043868948 -0.13918766 -0.050630227
000070 e6 8b 1c 3e 31 da a3 bd 21 49 17 bd c1 09 21 be
       0.15287742 -0.08000601 -0.036934976 -0.15726377
000080 ae 2e 4b be 31 b3 6c be b5 be 36 be 54 4e 31 be
       -0.19842026 -0.23115231 -0.17846186 -0.17315036
000090 8b 54 45 be 21 43 27 be ec 08 58 bd 7a a1 89 be
       -0.19270532 -0.16334201 -0.052742884 -0.2688101
0000a0 66 74 c4 bd df 96 35 3d 8c 47 37 3e a5 3c a5 3c
       -0.09592514 0.044333335 0.17898387 0.02017052
0000b0 44 6c 54 3e ed 5f 48 3e 21 ec 32 be 09 e2 82 be
       0.20744425 0.19567843 -0.17472889 -0.25563076
0000c0 f6 a6 8b 3e 55 47 b6 3d b4 ce ad be 5a fc 4a 3e
       0.2727582 0.08900324 -0.33946764 0.19822827
0000d0 68 39 11 3e e0 e3 98 3e c2 67 5e be d6 16 f0 bd
       0.14182055 0.29861355 -0.21719268 -0.117231056
0000e0 f6 65 62 be 56 25 c0 3d 87 c2 f2 3d c2 d2 25 3e
       -0.22109208 0.09382121 0.118535094 0.16193679
0000f0 71 47 25 3e 43 3f 51 3d 3c c1 9c be d7 62 d4 3e
       0.16140534 0.05108572 -0.30616176 0.4148166
000100 b7 2e 6c 3f 3d 6c 4b 3f 64 75 8c bf 8b ea d2 bf
       0.9225878 0.79462034 -1.0973325 -1.6477827
000110 8b c7 99 be 06 ad b0 3d 45 36 5e 3e 41 bf 8a 3e
       -0.30035052 0.086267516 0.2170039 0.2709904
000120 b2 02 26 be b9 01 5b 3c 8a 4d e3 bd 6a c4 01 bf
       -0.16211966 0.01336711 -0.11098774 -0.5069033
000130 d5 53 8a be 0c d1 27 be 4e 3f 31 bc 58 40 4a 3e
       -0.27017084 -0.16388339 -0.010818316 0.19751108
000140 68 cf 19 be be ad a6 be 69 9e a5 3e 13 3f 03 3d
       -0.15020525 -0.3255443 0.3234742 0.032042574
000150 8e a0 14 3f 70 e7 1d 3f e9 95 d4 3e 43 88 a5 3d
       0.58057487 0.6168127 0.41520622 0.080826305
000160 d3 94 e3 3d 4e 92 08 3f e2 a5 8b 3f 3e 26 87 3f
       0.1111237 0.53348243 1.0909998 1.0558546
000170 ea ae 26 3f 69 08 6c be 4a 6e 88 3c c7 34 8b 3e
       0.6511065 -0.23050083 0.016654152 0.27188703
