dAE_PyTorch/checkpoints/spectra_dae_epoch_14.pth (torch, 18875 bytes, 13 tensors)

conv1.weight f4 [32, 1, 3]
00000000: 559c 1d3f f006 0d3f 47e6 e4bd 952e e6bd
00000010: 9c12 28be 5b06 013f efd3 24bf 6eb7 203f
00000020: 2555 6d3c 6003 dcbc 58db 1bbd 0355 4a3f
00000030: f8a1 063f da10 e9bd d285 35be e834 d33b
00000040: 8cd8 33bf 71ab e73e 6684 0ebf fce6 16bf
00000050: dac2 923e 2961 2f3f 770c 2f3e 1693 13bf
00000060: bd4d 40bc bd70 83bf ad36 9a3b 172c 413c
00000070: e6c3 cd3e 0706 fb3e 128f eebe cb6b 993e
00000080: cded 15bf 82a9 1abf 7929 74bc 1e92 183f
00000090: dab0 6c3e 155b 083e 670f d03e df24 023f
000000a0: e130 ccbe f772 33bf 8e11 163f 5492 93bd
000000b0: 567f 873e b00b 3ebe d536 303f 6a0f c0be
000000c0: 9bfd 87b9 1ac2 94bf ac45 c9b9 8d47 923e
000000d0: 2a4c 763e 8bc9 8d3e d54f 70bf 9896 a33d
000000e0: d3e8 393d 8b8b b73e 8332 6c3e ceee 9c3e
000000f0: aaca 003e 752f 843e 7139 0abe 6241 5dbf
00000100: 0f25 573c 33c5 543b a8d9 463f 5975 a8be
00000110: 1753 07be dae7 f5be 2034 24bf f83b 24bf
00000120: 19d8 01bf cd35 29bf 1e59 623d 9e14 d7be
00000130: a41b d7be 02a9 0fbf e631 adbe 383c fcbe
00000140: c84b c5be e6bd 2b3e 3547 aa3e 594e bdbf
00000150: e645 84be e939 a0be d2d1 39bf fb53 62bd
00000160: 7aae 633e 0158 5abf 710b acbc 5a91 503f
00000170: dd3e e1bc bbbe a6bf 0f96 5f3e 893c e83d
0.6156667 0.5508871 -0.111767344 -0.112393536 -0.16413349 0.5040032 -0.64385885 0.6277989
0.014485632 -0.026857078 -0.03805098 0.7903597 0.52590895 -0.11380167 -0.1772683 0.006445516
-0.702523 0.45247987 -0.55670774 -0.58946204 0.28664285 0.6850763 0.17094599 -0.5764631
-0.011737284 -1.026878 0.004706225 0.011790297 0.4018852 0.49028036 -0.4659353 0.29965052
-0.5856598 -0.604149 -0.014902466 0.5959796 0.23114339 0.13315995 0.4063675 0.5083751
-0.39881042 -0.700973 0.58620536 -0.07205644 0.26464337 -0.18559146 0.6883367 -0.3751176
-0.00025938157 -1.1621735 -0.00038389617 0.28570214 0.24052492 0.27692828 -0.93871814 0.07987708
0.045388054 0.3584865 0.23066144 0.30650944 0.1257731 0.25817457 -0.13498475 -0.8642789
0.013131394 0.0032466173 0.7767587 -0.3290203 -0.1321529 -0.4802845 -0.64142036 -0.64154005
-0.50720364 -0.6609772 0.05526077 -0.42007917 -0.42013276 -0.5611726 -0.33827132 -0.49264693
-0.3853438 0.1677166 0.33257452 -1.4789535 -0.25834578 -0.31294182 -0.72585785 -0.05525587
0.22234526 -0.85290533 -0.02100155 0.8147179 -0.027495796 -1.3026956 0.21834587 0.11339671

conv1.bias f4 [32]
00000000: e5f2 56be 3151 98bd 0590 18bd 9088 35bf
00000010: c04c 96be 5f0c 3f38 401b 633e dad2 6abe
00000020: dbd9 573e a9f0 a5be b467 b03e a769 afbd
00000030: 60a9 e0be 83bc 113e ee2f 69be 40c6 debe
00000040: 7396 b33d c384 7abe 57e0 a73e f2c8 28bf
00000050: 2b36 21be cb31 883e 9c63 bfbe ba18 64bd
00000060: 69b8 253f d449 dbbc 3a26 e23e 4631 08be
00000070: 6456 a5be 1a11 733e 3d56 3fbf e28d a3bd
-0.20991094 -0.07437361 -0.037246723 -0.709115 -0.2935543 4.554947e-05 0.22178364 -0.22931996
0.21079199 -0.32410172 0.3445412 -0.085650735 -0.43879223 0.14232068 -0.2277219 -0.43510628
0.0876893 -0.24464707 0.32788345 -0.6593162 -0.1574332 0.2660049 -0.37380683 -0.055687644
0.6473451 -0.026768602 0.4416979 -0.13300046 -0.32292473 0.23736992 -0.74740964 -0.079860464

conv2.weight f4 [16, 32, 3]
00000000: 3f66 39bd 3bee d03d 4236 b43c 447e 523d
00000010: 2cc4 2ebe d466 773e 776c 813e 5b03 f03d
00000020: 6527 783d 9ed9 123f a0dc 9c3f 7e9e 2440
00000030: 96ba f9bc b9b6 fabc b874 813d 8d3a f5be
00000040: c884 5bbe 664d 0cbe 7700 82be c813 85be
00000050: 7601 45be a2c3 25be 6bdf 223e aabb 85be
00000060: 7d40 1fbe 08d6 3ebd 61ed 3ebe 9446 ee3c
00000070: 3d9a 283d d82f d23e 8be5 c13d 5c8c 193e
00000080: 6bee 14bf 0ff7 813e ce10 d43e b08e 7e3d
00000090: a9db 8bbc f8ff 713e f986 1f3f 24fd edbc
000000a0: ed52 893e ef6b e5be 555c 0ebe dee9 213d
000000b0: e93c 783e 2322 153e d95a b83d 63e8 3f3d
000000c0: ab86 8fbe 0744 abbe ca48 79be 81db 27be
000000d0: 7d52 ac3d 69cd 463e 4e54 723e 8b2c f53d
000000e0: 3f44 0ebe e7b0 98be bcc3 083f 62fe 743e
000000f0: 3723 83be c545 773e 9865 2ebd 8a0b e7bd
00000100: 5830 16be 693b 5a3e ecb8 a7be 37dc 79bd
00000110: 68cb 0dbe 780c c4bd 92ec d1bd 63a1 5dbe
00000120: 62c1 cf3a f4a9 b2bc 405b 7bbe 234f d5bd
00000130: 06ff 65be 8f83 80be f524 833e 1bd8 dfbe
00000140: f8cc 20be 076f 5bbe 6261 ff3c 1ae2 a3be
00000150: d3b1 92bc 99c4 cbbc ba3c a3be 53eb b4bc
00000160: d22c 913e 6b84 abbf 6f6d 383f 2431 003f
00000170: 5037 cc3f 5784 ffbe 1f27 82be c36f e0bd
00000180: 4561 cebb 1402 073d 920e e13d 5c19 78be
00000190: 4651 86bd 5efa a53e c40d 65be 6029 2e3e
000001a0: ce60 143c f99e c53e 86dd 41be 970b 6d3f
000001b0: 75ee 1f3e 296a 823b f683 4cbe 02e3 d43c
000001c0: 561a 313e 2912 193d 79d4 513e d2c8 ffbd
000001d0: e9d8 c93d 678c 543e 8113 c9bd ce57 02bf
000001e0: 6d34 8d3e 6c38 903e 6722 d13d 2881 69bd
000001f0: d9b6 63bd 7797 b73e 5c15 fbbd 2738 573e
00000200: 49bc bebe d637 8bbe 4501 f73e aab3 0c3e
00000210: f85a 96bd 4b1e b1bd 6021 833e 2cc4 213d
00000220: 7f6e 163f bef7 52bf dee6 693d 01ac 133d
00000230: 9902 153e 5582 443e d42e 173d d7f9 00be
00000240: acff 06be 08c3 27be c647 84be 340c 07bd
00000250: 7ce5 113d 8108 6f3e 9549 16be 8cb7 063e
00000260: 09f1 4b3e f1c5 0dbf 3151 03bf eb53 67be
00000270: 666c 813e 3703 b0be 54c8 66be fda2 cb3e
00000280: 2551 803d 5337 7a3c 9325 9b3e bccd 2cbd
00000290: 18f9 12bf 973c c4bd 643a 12be 2148 0ebe
000002a0: c925 39be bf66 26bd c091 11be eb0b eebd
000002b0: 676a e9bd cb27 29be e5d7 de3e e515 b73c
000002c0: 3ead 87be 2a79 6c3c 9ce4 01be ea6c 7abe
000002d0: 9f74 1f3c bd34 1bbd b82b 5fbe 51ab 7c3c
000002e0: b57a d33e 3237 57bf 2b2b 2d3f cc81 cebd
000002f0: d59e e5bd e3f0 98be b1af 8b3e dfc5 903e
00000300: 38fb d0bd 74bf eb3d 98a8 b6bd 8dea a6be
00000310: f6d8 51be 05dd 4d3e 0a28 0bbe fa41 e7bd
00000320: b5f9 c03c 9742 cbbe 8aaa 02bf edc1 0a3e
00000330: 244e 84be f79c 41be ffa7 a13e 821d 09bf
00000340: d5d0 babe 527f c03d c67d 1dbd 6020 f0bb
00000350: f723 25bf ad51 7d3d e3ab 44be 67eb 3d3e
00000360: f20d a1be 0fd8 82be 33f0 05be a614 96bd
00000370: 5042 0e3e d356 993d b38b 5f3e eb7a 973e
00000380: 3e66 27bf 4904 353e 92a5 84be 1ce2 e5bd
00000390: ea76 cfbb 22d9 f43d b74e 373e aea5 3ebe
000003a0: c105 c23f 4b5c c8be 1d2e 9c3b 44e2 993b
000003b0: 2be9 093e 7a7f b9bd 44b9 33be 02a7 de3e
000003c0: cd22 f83f cb03 4e3e 884f 0e3f a103 363d
000003d0: 1190 383e b889 dabc fa29 293d e314 933c
000003e0: 6a40 5abf c0b6 e2bd ff6f e7bd 0778 ba3e
000003f0: fe6c e9bd bf17 01be d719 233e 85f6 5b3d
-0.045263525 0.10201689 0.021998528 0.051389948 -0.17067021 0.2416032 0.25278065 0.1171939
0.060584445 0.5736331 1.225483 2.5721736 -0.030484479 -0.030604707 0.063210905 -0.47896233
-0.21437371 -0.137014 -0.2539098 -0.25991654 -0.19238839 -0.16187909 0.1590554 -0.2611974
-0.15551944 -0.046590835 -0.1864524 0.029086389 0.041162718 0.41052127 0.0946761 0.14994949
-0.58176297 0.25383803 0.4141907 0.062147796 -0.017072516 0.236328 0.62315327 -0.02905137
0.2682108 -0.4480891 -0.1390241 0.039529674 0.24241985 0.14563803 0.09001703 0.04685248
-0.2803243 -0.33450338 -0.24344173 -0.16392328 0.08414171 0.19414295 0.23664972 0.119713865
-0.13893221 -0.29822466 0.53423667 0.23925164 -0.25612804 0.24147709 -0.042577356 -0.11281498
-0.14666879 0.21311726 -0.32758272 -0.06100103 -0.13847125 -0.09572691 -0.102502 -0.21643595
0.0015850479 -0.021809556 -0.24546528 -0.10415485 -0.22460565 -0.2510037 0.25614133 -0.43719563
-0.1570319 -0.21429072 0.031174365 -0.3200844 -0.017907059 -0.024874019 -0.31882268 -0.022084868
0.28354508 -1.3399786 0.7204198 0.5007498 1.595438 -0.49905655 -0.25420472 -0.10958817
-0.0062982165 0.032960966 0.10989107 -0.24228424 -0.065584704 0.32417578 -0.22368532 0.17007971
0.009056283 0.3859785 -0.1893216 0.9259581 0.15618308 0.0039799404 -0.19972214 0.025987152
0.17295203 0.037370834 0.20491208 -0.12489475 0.098558255 0.20756684 -0.09818173 -0.5091523
0.2757906 0.28168046 0.1021164 -0.05700794 -0.0555943 0.35857746 -0.12259933 0.21017514
-0.37253025 -0.27191037 0.48243156 0.13740411 -0.0734157 -0.08648356 0.256114 0.039493725
0.58762354 -0.82409275 0.057104938 0.036052708 0.14551772 0.19190343 0.036909893 -0.12595306
-0.13183469 -0.16382992 -0.2583601 -0.032970622 0.035619244 0.23343088 -0.14676507 0.13155955
0.19916166 -0.5538016 -0.51295763 -0.22590606 0.25278014 -0.34377453 -0.22537357 0.39772788
0.06265477 0.015271979 0.30302104 -0.04218839 -0.57411337 -0.09581869 -0.14280087 -0.13894702
-0.1808082 -0.04062533 -0.14215755 -0.11623367 -0.11397248 -0.16519086 0.4352409 0.022349307
-0.2649936 0.014433185 -0.12684864 -0.2445561 0.0097323945 -0.037892092 -0.21794021 0.015421704
0.41304556 -0.84068596 0.67643994 -0.100833505 -0.112119354 -0.29871282 0.2728248 0.28275964
-0.10204166 0.11511126 -0.089188755 -0.32600823 -0.2049292 0.20103844 -0.13589492 -0.11291881
0.02355657 -0.39699242 -0.5104147 0.1355054 -0.25840867 -0.18907534 0.31573483 -0.5356065
-0.3648745 0.093992844 -0.038450025 -0.007328078 -0.64508003 0.06184547 -0.19206195 0.1854683
-0.31455952 -0.25555465 -0.1307991 -0.07328157 0.13892484 0.074872635 0.21830635 0.29585966
-0.65390384 0.17677416 -0.2590757 -0.112247676 -0.0063313143 0.11955477 0.17901121 -0.1861789
1.5158006 -0.39132914 0.0047662393 0.0046961624 0.13467853 -0.09057517 -0.17551142 0.43486792
1.938562 0.20118634 0.55590105 0.044437055 0.18023707 -0.026676998 0.041299798 0.017954296
-0.8525454 -0.11070013 -0.113006584 0.364197 -0.11397742 -0.12606715 0.15927826 0.053701896

conv2.bias f4 [16]
00000000: 2d8b e6bd 77a9 79bd 949d 7e3d 847b 3abd
00000010: 6165 e43d 786e 5bbd 9f0a 09be d3fb 56bd
00000020: e8a7 353e 8e8e 913c 93c0 5b3d c725 133d
00000030: 1173 723d bc3a d3be 55a6 65bd d418 6c3e
-0.112570144 -0.06095263 0.062161997 -0.04552795 0.11152149 -0.053572148 -0.13382958 -0.052486252
0.17739832 0.01776817 0.05365045 0.0359247 0.059191767 -0.41255748 -0.05606683 0.23056346

conv3.weight f4 [8, 16, 3]
00000000: 040c 5ebe bfb6 24bd 5092 b7be 00f3 c2bd
00000010: 206f 203e 0c43 b4be 84ee 793f 3b7d 3f3e
00000020: 5689 9a3f 5d0d 1e3e 2098 0cbe af70 e9bc
00000030: 5fb7 563d 8401 74bd 4479 a03e 2e4e 693e
00000040: a49f 25be f563 1bbe 722c 7dbe 4bcf e3bd
00000050: e55a e5be 618e b83e 3e29 a4bd b84b b33e
00000060: 853b 293e 11e0 1c3e c60c 203e 29cd c33d
00000070: 5a93 403e fd99 a6bd f8a3 ae3e c6d6 ec3d
00000080: a14b d13e 0776 a9bf c960 80be f28b a7be
00000090: a7f5 633e b743 f63d 8d84 663c 5d53 ac3d
000000a0: c1fe 1ebf 22be eabe 03ab 6f3e e30a d5bd
000000b0: 4648 58be 2b49 fa3d 5730 cd3d 3aad 163f
000000c0: 2cce 423d b8d2 9abd 0b59 953e 776b 313e
000000d0: 9d2b d0bc 5f22 233e 466d 973e c060 3ebe
000000e0: 904d d43d 1319 01be d6d0 3a3d 104b c2bd
000000f0: 6642 0e3d 246f ca3c 1aff 10be 85b8 38be
00000100: bc96 bc3d e6eb 06bd 9eec e13d caa8 253e
00000110: 2968 833d 0c93 113c d87c 5abd 38df cabd
00000120: 484f 72be 30a2 7ebc 9dab 68be bd66 8e3e
00000130: 5d5e 383e 0b9b c83d d454 13bd bcac 32be
00000140: dccc 7e3d ef63 d33f f934 c13e c297 9a3f
00000150: bea5 853e c9e8 8a3e ad64 b53e ec20 a43c
00000160: 8cb2 0e3f 3ce7 053f 4040 c93d 7c8a 1b3e
00000170: d600 49bb d106 d8bd c254 583d e61d 96bd
00000180: 4a2a a03e 8fe6 8e3e efed bfbd 3212 5bbe
00000190: 14d4 0a3e 1e9a 903e 3348 0a3f 518b 96bf
000001a0: 7677 e23f 9573 293e 1488 d5bd fa81 c03c
000001b0: f38c 39bd cb32 00be 215c 8d3d 3daf f33e
000001c0: 655a 3cbe 02f5 533e 0bb6 d0be 1c55 353e
000001d0: 66b5 f7bc 2503 ee3d 080a 9d3d 234a 86be
000001e0: f698 ca3e 6adc 263c 1661 403e 6c03 c2bc
000001f0: a13f 183e 1b43 a93e cf7a 0c3f 44fd 253e
00000200: 59ad 8c3e 94a9 99bf a3e3 0f3e 5535 5dbf
00000210: 2c05 53bd 501b 9ebd 10d3 82be 1818 7cbe
00000220: 7af4 ccbe 8562 4dbe 1e6f 90be 0dcb 4a3d
00000230: 19c4 153e d50a 8d3e d684 b5bd ac77 cf3d
00000240: 8043 34bc 99a4 b3bd 5a12 e7be 2fe1 ed3d
00000250: 66f0 403d 6631 573e a3c1 bfbe bff6 153f
00000260: 7ed6 a53f ebea cebd f23e adbc 9d00 673e
00000270: 2289 73bd 02a8 d8bc e677 803e 6be6 dbbd
00000280: 22a1 94bd 9802 c13e d6ca 153e acf8 703d
00000290: 3415 0ebe 70cd 4a3d 4e4f c43d 009c a0be
000002a0: d513 f1bd 99ab 163e c3b2 bb3d e60f b53d
000002b0: ac56 63bd 3375 153f b639 5d3e 82e0 4a3d
000002c0: 13e5 5a3f 03b2 19bf 7fc1 36bf 17eb babf
000002d0: a78e 8fbc 6930 05be 586d c3bd c752 4a3b
000002e0: 8465 3cbf ac6d aabd bf72 883e 35d2 24bd
000002f0: d9ee 363e d7c1 7abe 010b 153d 818e 613e
00000300: 4406 e6bd b10d 963d 1337 10be ee26 823e
00000310: 511a 1e3d 1b71 d7bb 7b12 893f 32f7 6d3e
00000320: ba93 9c3e 9f7b eabe da35 69bd 40d7 a73c
00000330: b5fd ae3e 2f49 0bbe f6e2 383d 9f2b 61bc
00000340: 83d4 093e 8f12 c33d 8c93 d33e 72ac 023e
00000350: 5bd0 173e 8667 07bf d53e 3ebe 5080 213d
00000360: c6b4 0ebe dc10 f93b c45f 94be 82af 883d
00000370: 5332 be3d 5ea4 5f3d 181a 163f e00e 40be
00000380: 528c 033e 6e91 a83f 2bfa 0d3f 26ed ba3f
00000390: 3969 ad3e 2f06 033e d83e 953d afe7 3e3f
000003a0: 2fda 0a3e 0b1f c4bd da5b f73e d971 8c3c
000003b0: 5ce4 b13d 886f aabe ceca 2bbe c6ed cfbd
000003c0: 2378 423d 1b0c 913e ceea 96be f32d fcbd
000003d0: 2224 f73b 53cc 96be 63ef 763f dfc2 d93e
000003e0: d509 943e 6fc6 b33e cbfa 573e e80e 6f3e
000003f0: f1a4 4fbb 55ce da3d de0c 1b3f 03d0 913e
-0.21684271 -0.040213343 -0.35853815 -0.09519005 0.15667391 -0.35207403 0.9762957 0.18700115
1.2073162 0.15434785 -0.13729906 -0.028496115 0.05242097 -0.059571758 0.31342518 0.2278373
-0.1617418 -0.1517485 -0.24723986 -0.11123522 -0.4479591 0.36046126 -0.08015679 0.35018706
0.16526611 0.1531985 0.15629873 0.095606156 0.1880621 -0.0813484 0.34109473 0.11564402
0.40878013 -1.3239144 -0.2507384 -0.32723957 0.22261678 0.12024634 0.0140696885 0.08414338
-0.62107474 -0.45848185 0.2340508 -0.10402467 -0.2112132 0.12220987 0.10018986 0.5885807
0.047559902 -0.07559723 0.29169497 0.17326151 -0.025411421 0.1593108 0.29575557 -0.18591595
0.103663564 -0.12607221 0.045609318 -0.09486973 0.03473129 0.0247112 -0.14159814 -0.18039139
0.09208438 -0.032939814 0.11031459 0.16177669 0.06416351 0.008885156 -0.053341717 -0.09905857
-0.23663056 -0.015541598 -0.22721715 0.27812758 0.18004747 0.09795197 -0.03596957 -0.17448705
0.062207088 1.6514872 0.37735727 1.2077563 0.26103014 0.27130726 0.35428372 0.02003523
0.5574119 0.5230596 0.09826708 0.15189546 -0.0030670664 -0.10548175 0.052815206 -0.073299214
0.31282264 0.27910277 -0.09371554 -0.2139366 0.13557464 0.28242582 0.5401642 -1.1761266
1.7692707 0.16547997 -0.104263455 0.023499478 -0.045300435 -0.12519376 0.06902338 0.47594634
-0.18393858 0.20698932 -0.40763888 0.17708248 -0.030237865 0.116216935 0.07667929 -0.26228437
0.39569825 0.010184387 0.18787035 -0.023683272 0.14868023 0.3305901 0.5487489 0.16209894
0.27476004 -1.2004876 0.1405168 -0.86409503 -0.051518604 -0.07720053 -0.25551653 -0.24618566
-0.4003027 -0.20057113 -0.28209776 0.04951005 0.14625587 0.27547327 -0.08863227 0.101302475
-0.011002421 -0.08771629 -0.4513119 0.11615216 0.04710426 0.21014938 -0.3745242 0.5857963
1.2956083 -0.10103401 -0.021148179 0.22558828 -0.059456952 -0.0264473 0.25091475 -0.10737308
-0.07257296 0.3769729 0.14628157 0.058830902 -0.13875276 0.049512327 0.09585439 -0.3136902
-0.11771361 0.14713897 0.091649555 0.08840923 -0.05550258 0.58381957 0.21604046 0.049530514
0.8550579 -0.6003725 -0.71389 -1.4602994 -0.017524077 -0.13006748 -0.0954234 0.0030872093
-0.735924 -0.083216995 0.26650044 -0.04023953 0.1786455 -0.24488007 0.036387447 0.22027017
-0.11231664 0.0732683 -0.14083509 0.25420326 0.038599316 -0.0065747625 1.0708765 0.23238829
0.30581456 -0.4579744 -0.056936122 0.020488381 0.34177938 -0.13602136 0.04513832 -0.01374331
0.13459973 0.09525024 0.41323507 0.12761095 0.14825575 -0.5289234 -0.18578656 0.03942901
-0.13936147 0.0076008867 -0.28979313 0.066741005 0.09286942 0.054600112 0.58633566 -0.18755674
0.12846497 1.3169382 0.5545985 1.4603622 0.3386934 0.12795328 0.07287377 0.7457227
0.13559793 -0.095762335 0.48312265 0.01714413 0.08686134 -0.33288217 -0.16776583 -0.101527736
0.047477853 0.28329548 -0.29476017 -0.123134516 0.007542149 -0.29452762 0.96459025 0.42531487
0.2891375 0.3511233 0.21091764 0.2334553 -0.0031684006 0.10683886 0.6056651 0.28479013

conv3.bias f4 [8]
00000000: 989f 703e 5aa7 8a3e 222d 213b 8348 80bc
00000010: c565 7cbd 0365 0ebe 57f8 64be 6bce 403e
0.2349838 0.27080804 0.0024593552 -0.015659576 -0.061620492 -0.1390572 -0.22360359 0.18828742

t_conv1.weight f4 [8, 8, 3]
00000000: b5b1 7dbf ac7d c8be 0d68 c03e aa26 a4be
00000010: 6170 82bd d2ce dcbd c20e 31be 4e4a babe
00000020: e646 48be d340 b4bf faf2 9c3e 756a a43e
00000030: 1b2b e13e 168c 7f3e a35c 923d f639 8b3c
00000040: 264d 8c3b 7563 82c0 e465 ab3d d397 923e
00000050: f64a 893e d870 39bc 6927 fb3e 3a58 553e
00000060: 4ca5 d8bd 51d9 a33d a650 b13e 3eef 4dbe
00000070: f2e9 eebc cb1e c2be e993 853e 597f 7f3e
00000080: afda 763e 38f3 95bc 8fb1 9abe cc5e a9be
00000090: c92e a8be b9ea c9be cb99 ae3c ed4b 853e
000000a0: 1258 2fbd d895 12c0 70e0 74be 4fe1 14bf
000000b0: 12ae a8bd 2d60 d83e 03c1 02bd 41d0 f8be
000000c0: 36b3 83bf bf14 523e 1f85 113f f9c2 413e
000000d0: 3d0e 093e a27e 803e 87d2 a53d ec12 93be
000000e0: 92b3 96bc 1b45 f23e ce49 aa3c 85c2 213f
000000f0: dc9d 253e 5e5c 103e 92e6 b9bd 80d5 bd3f
00000100: ec8f 71be 9eb2 60c0 4e42 683e e50f 343e
00000110: 0ae3 4f3d ca19 e03e 5087 0fbf 48e3 213f
00000120: 5c92 e8be a37f 0bbe bd47 1f3d 2323 153f
00000130: 45cc 4f3e 87c7 ebbd 870c ffbc c5c1 d73d
00000140: cf3b 733b e647 d7be f79e 903e d44e fbbc
00000150: ce8f f03e f4d1 61bd 603e a73d c531 613f
00000160: 8357 443e f70a 57c0 c529 573e 6d5e df3c
00000170: c421 183e 88da 303d 7504 223e d8a4 91be
00000180: be68 85be 9d53 cd3e 90ee 553e 1c61 dfbd
00000190: c6ee e3be edb3 bebe 3cd6 873e a042 303e
000001a0: 37f2 f73d 6d9b cbbe 53a4 913e 922d 1b3f
000001b0: 3312 e13d 5e21 edbe 83e3 eb3e eb41 843e
000001c0: b4f9 bd3d 0742 c33f e87c 783e 434c 8bbf
000001d0: 4922 aa3e 029d 453e 3364 da3e eec7 c63d
000001e0: 0bdd 193f 3fcf 853c b317 5c3d 87f5 ab3e
000001f0: 2d20 4d3e dd1a 9a3e 4de2 c83e b2a8 143e
00000200: 65d5 523e 28f0 8fbf 9139 e43d 9173 28be
00000210: 4858 ca3d 5280 58bd 575a 7a3d 313a ad3e
00000220: b3b5 af3e c69f 09c0 feec c83e ce1b 243e
00000230: 61dc 563d 6d26 7bbe 7f0a 15bd e3f4 95bd
00000240: c1ca d7be 0de9 6bbd 972a a13e 5514 8a3e
00000250: b990 ce3e d5d1 033f d6e0 0f3e 06c9 a03e
00000260: acbd ca3d 0d91 f73e 18f6 503e 7833 36bf
00000270: 0fd3 7abe d715 6cbe 64e2 f43e 585a 953f
00000280: 1ff3 983e ed10 f5bf 90ea 01bd 49bb 92bd
00000290: de0f b73e 11ac af3c 33a0 31bd 04dc c7be
000002a0: 6d40 eabe 48b7 b0bd 978f 8d3e 290e 003f
000002b0: 7654 8e3e 922a 143e f875 4c3e d9f0 ab3e
000002c0: 3a59 083e 532b 663f a5c6 46be 07fe a3bf
000002d0: 00e4 53be fc53 3dbe 7fd6 a13d 7a90 3f3b
000002e0: fb9b d2bd 90a0 38c0 7a30 89be 8b7e a3be
000002f0: cd84 cfbe 29ed 513e b54d c7be 031f 20be
-0.99099284 -0.3915838 0.37579384 -0.32060748 -0.06369091 -0.10781635 -0.17290786 -0.36384815
-0.19558296 -1.4082283 0.30654126 0.3211247 0.439782 0.24955782 0.07146575 0.016995411
0.0042816577 -4.0746408 0.083690435 0.28631458 0.26815003 -0.011318408 0.49053505 0.20834437
-0.10578403 0.08000434 0.34631842 -0.20110795 -0.029164288 -0.37914118 0.2608941 0.24950923
0.24106859 -0.018304452 -0.3021359 -0.33080137 -0.32848194 -0.39436892 0.021313569 0.2603449
-0.0428086 -2.2903957 -0.23913741 -0.58156294 -0.08236326 0.42260876 -0.03192235 -0.48596385
-1.0289066 0.20515727 0.5684375 0.18922032 0.13384338 0.25096613 0.080967955 -0.28725374
-0.018396173 0.47318348 0.020787146 0.6318744 0.161735 0.14097735 -0.09077181 1.483078
-0.23590058 -3.510902 0.22681543 0.17584188 0.05075363 0.43769675 -0.56065845 0.6323743
-0.45424163 -0.13622908 0.038886774 0.5825674 0.20292766 -0.11512666 -0.031133903 0.105350055
0.0037114506 -0.42047042 0.2824628 -0.030677237 0.46984714 -0.055131868 0.08166194 0.8796657
0.19174008 -3.3600442 0.21012028 0.027266705 0.1485663 0.043177158 0.15822013 -0.28446078
-0.26056474 0.40102854 0.20891786 -0.10907194 -0.44518107 -0.37246647 0.26530635 0.17212915
0.12106746 -0.39767018 0.28445682 0.6061641 0.10989799 -0.4631452 0.46072015 0.2583154
0.09276143 1.5254525 0.24266398 -1.0882648 0.33229282 0.19298175 0.4265457 0.09706102
0.6010291 0.016334174 0.05373354 0.3358576 0.20031805 0.3009862 0.39235154 0.14517477
0.20589216 -1.1245165 0.111437924 -0.16450335 0.098801196 -0.05285675 0.06112131 0.3383346
0.34318313 -2.1503768 0.3924331 0.16026232 0.052456263 -0.24526377 -0.036386963 -0.07322099
-0.42146876 -0.0575953 0.31477806 0.26968637 0.4034479 0.51492053 0.14050612 0.3140337
0.09899458 0.48352852 0.20406377 -0.71172285 -0.24494575 -0.23055206 0.47828972 1.1668196
0.29872987 -1.914579 -0.031717837 -0.07164628 0.35754293 0.021444352 -0.04336567 -0.39035046
-0.45752278 -0.08628708 0.27648613 0.50021607 0.27798814 0.14469364 0.19966877 0.3358219
0.13315287 0.8990986 -0.19411714 -1.2811898 -0.20692444 -0.18489069 0.0790224 0.0029230402
-0.10283657 -2.8848 -0.26794797 -0.31932482 -0.40531006 0.20500626 -0.38926473 -0.1563683

t_conv1.bias f4 [8]
00000000: a100 a33d cc4f 77be d56f 893e b7e7 c83d
00000010: 0152 833c edf1 583e e184 74bc 5b61 6ebc
0.07959104 -0.24151534 0.26843134 0.09809821 0.016030313 0.21186037 -0.014924259 -0.014549579

t_conv2.weight f4 [8, 16, 2]
00000000: fc8a 9cbd 259a bebd ba0f 80bd eede 573e
00000010: 02f8 6bbc 173b b93e 0768 353d 2230 c53e
00000020: ff69 773e fb35 bb3d 6215 a1be 8f24 0fbe
00000030: 5b63 b2bc f043 4ebb 2b43 ed3e 627b a73e
00000040: 6457 183f 5e1a aa3a 0297 a4bd 1d71 c13d
00000050: b514 273e 1cae f03e 47fe 9b3e 475d b93d
00000060: 8593 8ebe 4f4d b83e f2ae ad3e 6333 95bd
00000070: 10b8 fbbe a85a 2f3e 9aad e33d debd 3abd
00000080: 74bf 8cbd 7013 523e d6b4 3cbe d5e1 9d3e
00000090: f88f 203f 387b 8a3c a849 31be 96dd c6bd
000000a0: b6fc 14bf b7bf 4b3c ff3f 0f3f 254d 1abe
000000b0: 5c3c 4f3c 45bc 07bf 09ef 013e a05f babd
000000c0: dc14 24be 9686 623d c576 f4be 8db6 a5bd
000000d0: 25a4 1b3d 10cb 3d3d 78ae 083f d425 1c3e
000000e0: 48fc 233d c093 80bc 5a63 833e e9bf bb3e
000000f0: f2c5 ea3e 223d d3be 838d 2cbe 5df2 d73e
00000100: d82d 1ebe c026 b5bd bea8 40be a804 03be
00000110: 466b 23be 871e d5bd 4a91 023e 0b5a 7b3d
00000120: 3e57 a63e 7237 a43e 3213 113d 7571 533b
00000130: ef91 923e 9c35 8d3e c9a5 793e bbe3 6f3e
00000140: d035 25bf a00a 33be d1d4 a93d b1e2 9bbd
00000150: 25d4 0dbe a5bc 93be feeb 90bd 7c87 15be
00000160: 8826 afbd 649d 21be 339b cfbd a4b7 70bd
00000170: 9d50 93be b146 16bb e033 24be 32bd 0dbe
00000180: 5d41 9b3e a1e8 793e bbb6 01be b4dd cfbd
00000190: 57f2 8c3e e60f c93e 8529 04bf 718e b83e
000001a0: b6b5 a5be a9e3 59be 676d 56be 35bd acbd
000001b0: 7f9b b9be 8dbf dabe 29ed 48be 5b23 2abe
000001c0: d67e 70bd 4e8e 7b3d 7a74 ec3e c1e9 2bbe
000001d0: 4193 2e3e 069d 653e 7151 71be 8277 143f
000001e0: 87d1 853b 9211 e4bd 9968 b33e da78 87bf
000001f0: af7e 1f3e eaa0 89bf 99f5 3abd 109b 15be
00000200: 6007 d43b c15f af3e d3c2 dbbd fe61 a93d
00000210: ca8a a8be 1436 a23e e010 093f 8e7c a23c
00000220: 3d50 493e 868d bfbe f46a 883e 9708 463e
00000230: 3397 8ebe 62ab e83d f752 a7be 3ea7 2b3e
00000240: cf27 d5be 59ba f93c ec6b f43e e0ff 353d
00000250: f9e1 813e c7cc f03d 749b 0d3e 0f89 d0bc
00000260: 56f7 b0bd 03cb 903e 1ae4 433e c2b0 963e
00000270: dc6a 78bc 75a9 bf3e 125b d33c e105 01be
00000280: a23d 0fbe ed8e 35be 2215 a23d bf4e d8bd
00000290: c678 0d3e 0991 a8bc 519c 2fc0 e7ad d83e
000002a0: dc11 863d 6058 123e 93ee f0be 8891 913d
000002b0: 6a53 8a3d 60d9 303d 1993 d03e 06ef f13d
000002c0: b39b 2d3f cc4c 03be c8a2 3bbe fbf6 743d
000002d0: 25d1 83be e576 94bd c373 043e 02b9 ac3e
000002e0: 63f0 093f 9e2a a63e 94e5 303e ff65 983e
000002f0: 33b0 1fbf 0516 09c0 7296 b63d ec05 3e3e
00000300: cef4 523e 3a0b 3a3d b7eb 01be d835 cb3e
00000310: 35a7 783d aaf9 233e df44 363e 7703 cc3d
00000320: 8b9b f9bd 261b 2bbf 9464 e33d 71df 313e
00000330: f7d7 86be fec5 2abe cfc6 cfbe 65e8 b4be
00000340: 4bd8 4ebe 0503 a3bd 4337 483d c8d2 dfbd
00000350: 08b8 f73b fdac 783e 5dd2 4c3e 9848 b13e
00000360: de7c 9abe 14cc 13be 61ee 9a3e 4538 6b3e
00000370: d605 283d 28a9 883d 3837 4cbe 6bb4 283d
00000380: c4d9 ab3e ff2f fcbc 0830 03be 1995 463e
00000390: 9cc6 6e3e 741c b43c b77b c1be e97d 90be
000003a0: 5598 3dbe 117b 383d 6e8c 5a3e bcb4 35be
000003b0: c020 9c3e 09ff dfbe e5fb 2dbf 125a 3f3d
000003c0: 5e73 efbd c5fe 07be 9a39 50bd 7acf 15be
000003d0: 79ae 9d3e 618e 5abd 84c6 51be 209d 0fbf
000003e0: 36ae ed3e 3b99 51be 5994 8abe fe18 9bbe
000003f0: 3374 27bf ac93 d5be c443 22be df37 c43e
-0.07643697 -0.093067445 -0.062529996 0.21081135 -0.014402391 0.36177894 0.04428866 0.38513285
0.24161528 0.09141155 -0.31461626 -0.1397879 -0.021775892 -0.00314736 0.46340308 0.3271132
0.5950835 0.0012977829 -0.08036615 0.09445403 0.16316493 0.47007835 0.30467436 0.09050994
-0.27846923 0.35996482 0.33922535 -0.07285192 -0.49163866 0.17124426 0.11117096 -0.045591228
-0.06872454 0.20515227 -0.18428358 0.3083636 0.6271968 0.016904458 -0.17313254 -0.09710233
-0.58198106 0.012435845 0.55957025 -0.15068491 0.012648668 -0.5302165 0.12688841 -0.0910027
-0.16023582 0.055304132 -0.47746864 -0.080914594 0.037998337 0.046336234 0.5339122 0.15248805
0.040035516 -0.015695453 0.25661737 0.36669853 0.45854145 -0.41257578 -0.16850857 0.42177096
-0.15447176 -0.088452816 -0.1881437 -0.12794745 -0.1595889 -0.10406213 0.12750736 0.06136517
0.32488436 0.3207355 0.035418697 0.003226367 0.28626963 0.27579963 0.24379648 0.23426716
-0.64535236 -0.17484522 0.08292545 -0.07611597 -0.13850458 -0.28854862 -0.07076262 -0.14602464
-0.08552271 -0.15782696 -0.10137024 -0.058768883 -0.2877244 -0.002293032 -0.16035414 -0.13841704
0.30323306 0.24405147 -0.12667362 -0.101497084 0.2752864 0.39269942 -0.51625854 0.36046174
-0.32365197 -0.21278252 -0.20940171 -0.08434526 -0.36251447 -0.42724267 -0.1962172 -0.1661505
-0.05871471 0.06141501 0.46182615 -0.16788389 0.1704836 0.22423181 -0.23566224 0.57994854
0.0040838155 -0.11136164 0.3504074 -1.0583756 0.1557567 -1.0752232 -0.045644376 -0.14609933
0.0064706057 0.34252742 -0.10730519 0.08270644 -0.32918388 0.31681883 0.53541374 0.019834783
0.19659515 -0.3741266 0.266441 0.19339214 -0.2784973 0.11360814 -0.32680485 0.16763017
-0.41631934 0.030484365 0.47738588 0.044433475 0.25367716 0.11757808 0.13828832 -0.02545598
-0.086409256 0.28279886 0.19129983 0.2943173 -0.015162196 0.37433973 0.025800262 -0.12599899
-0.13988355 -0.17730303 0.07914187 -0.105618946 0.13815603 -0.02057697 -2.7439158 0.42320177
0.06546375 0.14291525 -0.47057018 0.07107836 0.06754191 0.043176055 0.40737227 0.11813168
0.67815703 -0.12822264 -0.18323815 0.05980585 -0.25745502 -0.0724924 0.12934785 0.337349
0.53882426 0.3245439 0.17275077 0.29765317 -0.62378234 -2.141969 0.08915414 0.18556947
0.20601198 0.045420863 -0.12687574 0.39689517 0.060706336 0.16013208 0.1779971 0.09961598
-0.121878706 -0.668383 0.11103168 0.17370392 -0.26336643 -0.1667709 -0.40581366 -0.35333553
-0.20199697 -0.0795956 0.048880827 -0.10928875 0.00755978 0.2428474 0.20002122 0.34625697
-0.3017339 -0.14433318 0.30259994 0.22970684 0.04102119 0.06672889 -0.1994294 0.041187685
0.3356458 -0.030784605 -0.12811291 0.19392814 0.23317951 0.021986224 -0.377897 -0.28221062
-0.18515141 0.04503924 0.21342632 -0.17744726 0.30493736 -0.43749264 -0.67962486 0.046716757
-0.116919264 -0.1328078 -0.050836183 -0.14629927 0.30797175 -0.05335844 -0.20485884 -0.5609913
0.46421975 -0.20468609 -0.27066305 -0.30292505 -0.6541168 -0.41714227 -0.15846163 0.38323876

t_conv2.bias f4 [16]
00000000: 2605 e53c 99df 2dbb be85 3ebe 7a8a b83c
00000010: 2043 923c cb5d a23d 4dd3 eb3d 9b05 5abe
00000020: 04db f1be 69aa 2cbf 3c10 1e3e cadf 0bbe
00000030: 8971 2a3d edd3 34be 4069 413d 3c22 9ebe
0.027956557 -0.002653098 -0.18605706 0.022526968 0.017854273 0.07928046 0.11514912 -0.21291201
-0.47237408 -0.67447525 0.1543588 -0.13659588 0.04161218 -0.17658968 0.047219515 -0.30885494

t_conv3.weight f4 [16, 32, 2]
00000000: 3acc 303e 9bce e43d ecbb 0fbe ef99 cb3d
00000010: 79a9 b2bd 7045 d1be 7b4b f2bd 65ba 203e
00000020: 42cc 08be f7d8 d2be 8fc3 50bd 0da9 3e3e
00000030: d5f7 08be 4f80 ccbd ec1d 0c3e 8af4 b93d
00000040: 14ec 463e e87f c6bb ff62 283d 7779 23be
00000050: 1c22 683e a34f 143e 3869 a63e 79bd 843e
00000060: 168f db3c f739 863e 4c5c b8bd fe97 9f3e
00000070: 4fc7 59be d222 01bf e455 3d3e 5acc 77bd
00000080: d63b c03d 2cdb 12bf 4c33 7bbe b74d 45be
00000090: 6234 7c3e f1bf ce3d 1582 bebe a459 4abe
000000a0: 8ef9 19bf 8e83 70be b0b4 703e 1463 a33d
000000b0: 9d0c dbba 8e6b 8dbf 2766 91bd 8c4e e2bf
000000c0: aec3 3f3e d0d5 583e 8cc3 f93d 896c 4f3e
000000d0: eac6 8cbc a8da 1f3d c765 f4be cd9b 1c3e
000000e0: 3669 90bd d9aa f73e e5ee 893e ed86 1f3d
000000f0: 3016 e53c 1846 393e 4e00 873e 15ac af3a
00000100: ab6f cc3c 5f2e 603e a76e 7fbe d7f8 afbd
00000110: 73df 47bd 994f 12be 0a54 40bf 15d2 1fbf
00000120: 8b9f ecbd 5f40 10be 2685 24be f211 a43d
00000130: 7c83 7e3c df2f a43d a33e 25ba 9d7a 523d
00000140: afb2 b83d 6393 023e 4681 2abd 5fb8 3ebd
00000150: 2a12 253e 9f35 9b3d f159 733e af5e 503e
00000160: 91ac 943c f2a5 5b3e 36af 6dbd e9f7 7e3e
00000170: 2f28 36bd 3a37 34bd c662 903e 3931 4cbf
00000180: 3841 f83c d370 943f e2c0 92be 4c53 393e
00000190: 4040 143e 8d67 783e 9691 86be 01d7 a7be
000001a0: 67ca c93e 7a08 45bd 067e 223e da98 f63a
000001b0: fa67 b73d cccd debe dfdd 60bd 3c19 8bbf
000001c0: 11b1 b73d 3fb4 263e 7cdd 8f3e f53f 163f
000001d0: 7f79 8c3d 7484 f1bd 2274 993d 5a73 56be
000001e0: 28f6 7abd c964 11bf 2b41 5a3d f678 c3bd
000001f0: c812 513d 7424 b2bd 9651 903d cb2a ab3e
00000200: 15d7 8b3d 5da5 b53d a133 273e fe53 68be
00000210: 09d5 fabc 24ff 843e 42d5 93bf 67e2 3b3e
00000220: 01eb dc3c 5239 8abe c0f2 07be aec1 08bf
00000230: 14b9 66be 7904 41be 7453 debc 3c27 e33d
00000240: dca6 123e 5720 f3bd e32b 103e 06cc a53e
00000250: 39e3 323c 2ebf 153e e370 3b3d a594 143e
00000260: 93c2 1a3d ba10 133e 0775 0ebd 4076 2c3e
00000270: 9e5a 8abe a3d8 8dbe 3850 5d3e 180e f4be
00000280: 83c5 0fbf 7049 03bf be04 a6be 67aa f7be
00000290: df63 ab3d 1858 533e 0132 afbd 4467 3dbd
000002a0: 9d1b 84bf ad32 eebe c740 e6bc 99cc f9be
000002b0: 27db 8f3c be01 dd3e c67a 393d c639 9e3e
000002c0: f8c4 57bc 73a5 b03b 0b75 ac3e bfdd 823e
000002d0: 92fd 85bd b442 233e 38f9 203e ec57 0f3b
000002e0: e03e edbd 804a be3e a9c2 8f3e 140e 76bb
000002f0: d6c7 c0bd 639d a93e 51e2 2abe 706e e5bd
00000300: 112a 093d 4384 6ebe 5f15 52bf 5e6d 1ebc
00000310: bc28 9c3d bb3d a13d 0bff a43e 891d c83e
00000320: e610 23be 0867 023e cf62 72bd bb30 81be
00000330: 553d 453e f9fe 89be 6188 a5be d773 423e
00000340: 338a 16be 36e8 db3d 1001 82bc 271b 393e
00000350: e105 4f3e c4c7 7fbe ca81 723e bd3d b63c
00000360: 8b8c f13d edf9 693b 11b9 e0bd 5064 e8bd
00000370: 6471 923e a3e0 5a3e f1ff afbe 5824 21bf
00000380: e027 3fbf d33a 0ebd be53 b03e 7273 b43d
00000390: e590 673c 5cc2 863d 4781 ae3e 684b ad3e
000003a0: cff1 87bd 673e 40be f089 093f 84d4 7f3d
000003b0: 71ec f4ba 96e9 a63e 918d 0dbe fa53 09be
000003c0: bcf2 d93c 47a2 2c3e 2b3c 29be 226f 913c
000003d0: 7ef3 743d 27bc c2bd de44 c7be 6d70 ef3c
000003e0: e238 e7bd 6cf1 1e3d cd3b 27be 100e 5dbd
000003f0: 5a3e aabd 5106 dcbe 21fe 78bf 0cfa 76bc
0.17265406 0.11172219 -0.1403653 0.0994147 -0.087237306 -0.4087329 -0.11830803 0.15696104
-0.13359168 -0.41181156 -0.05096775 0.18619175 -0.1337579 -0.099854104 0.1368329 0.09079845
0.19425994 -0.006057728 0.041110035 -0.15964304 0.22669262 0.14483504 0.3250215 0.25925806
0.026801627 0.262161 -0.09001979 0.31170648 -0.21267436 -0.50443757 0.18489796 -0.06049762
0.09386413 -0.5736568 -0.24531287 -0.19267927 0.24629357 0.10095204 -0.3720862 -0.19760758
-0.60146415 -0.23487684 0.23506427 0.07977882 -0.0016712133 -1.1048448 -0.07099562 -1.7680221
0.1872699 0.21175313 0.12195501 0.20256247 -0.017184693 0.039026886 -0.477339 0.15293808
-0.070513174 0.48372534 0.26940075 0.038947035 0.027964681 0.18093145 0.2636742 0.0013402725
0.024955591 0.21892689 -0.24944554 -0.08592384 -0.048797082 -0.14288177 -0.75128233 -0.62429935
-0.11553868 -0.14087056 -0.16066417 0.08011235 0.015534278 0.08016943 -0.0006303584 0.051386464
0.09018456 0.12751536 -0.04162719 -0.04656255 0.1612021 0.07578587 0.23764779 0.20348619
0.018148692 0.21450022 -0.058028422 0.24899258 -0.044471916 -0.04399798 0.28200358 -0.7976261
0.030304536 1.1596931 -0.28662783 0.18098181 0.14477634 0.24258251 -0.26282948 -0.32781222
0.39412233 -0.048103787 0.15868387 0.0018813864 0.08955379 -0.43516386 -0.054899093 -1.0867076
0.089693196 0.16279696 0.28098667 0.5869134 0.06859111 -0.117928416 0.07492854 -0.2094244
-0.06126991 -0.5679441 0.053284805 -0.09544556 0.0510433 -0.08698359 0.07046811 0.33431086
0.06828133 0.08869431 0.16328289 -0.2268829 -0.030619161 0.25975907 -1.1549456 0.18348084
0.026967527 -0.26996857 -0.13276196 -0.5342053 -0.22531539 -0.18849362 -0.027139403 0.11091468
0.14321464 -0.11871403 0.14079241 0.3238222 0.010918432 0.1462371 0.045761954 0.14509828
0.037783217 0.1436185 -0.034779575 0.16841984 -0.2702226 -0.27704343 0.21612632 -0.47667003
-0.56160754 -0.5128393 -0.32425493 -0.48372194 0.08368658 0.20639074 -0.08554459 -0.04624106
-1.0320927 -0.46523038 -0.02810706 -0.48788908 0.017560555 0.43165392 0.0452831 0.30903453
-0.01316952 0.005390817 0.33683047 0.25559804 -0.06542505 0.15943414 0.1572007 0.0021872474
-0.11584258 0.37166214 0.280782 -0.0037545012 -0.09413116 0.3312789 -0.16687895 -0.11202705
0.033487383 -0.23292641 -0.8206386 -0.00966963 0.07624957 0.07873102 0.32225832 0.39085034
-0.15924415 0.12734616 -0.059176262 -0.2523249 0.19261678 -0.2695234 -0.3233061 0.18989502
-0.14701156 0.1073765 -0.015869647 0.18076764 0.20217086 -0.24978548 0.23682323 0.022246236
0.117943846 0.0035701946 -0.109727986 -0.11347258 0.28602135 0.21374755 -0.34374955 -0.6294608
-0.7467022 -0.034724068 0.3443889 0.08811082 0.014133667 0.0658004 0.34083006 0.33846593
-0.06637918 -0.18773805 0.537261 0.06245853 -0.0018686188 0.32600087 -0.13823535 -0.13410941
0.026605003 0.16858779 -0.16526859 0.017753188 0.059802525 -0.095085435 -0.3891973 0.029228413
-0.112901464 0.038804457 -0.16331406 -0.05396849 -0.08312674 -0.4297357 -0.9726277 -0.015074264

t_conv3.bias f4 [32]
00000000: fc5c 323e 1678 e53d 2dc0 6bbd 1d70 95bd
00000010: 9736 2ebe 9913 20bd 269e ba3d b136 adbc
00000020: 6dd6 033e 894c 323c 21f3 393e 8637 153e
00000030: f30d 393e 1a34 493e b8d7 17bd 0cef c1bc
00000040: 9b25 5a3d c4c2 f43d 7193 793e a551 7b3c
00000050: ca9b 543e 4ac8 21bf 9731 d7be 65c2 78be
00000060: ef19 113e 7da8 633c 13f0 00bc ee34 8d3d
00000070: 0d3f b2be ef2f 94be 674a bdbe 9b5e ec3c
0.17418283 0.11204545 -0.05755632 -0.072967745 -0.17013012 -0.03908119 0.09112196 -0.021144243
0.12874766 0.010882505 0.18159153 0.14571962 0.18071727 0.19648781 -0.03707096 -0.023673557
0.05325852 0.11951211 0.2437265 0.01533929 0.20762554 -0.6319624 -0.42030022 -0.24292906
0.14170049 0.013895151 -0.007869738 0.06894861 -0.3481373 -0.2894282 -0.36970827 0.028853705

conv_out.weight f4 [1, 32, 3]
00000000: 7827 e0bd 7e0c b9bd fecf 3dbd 2e57 61be
00000010: c355 3abd 90f0 253e 8e25 5c3e a5eb bc3d
00000020: 39fc 7ebc 4141 17be bd1a 0ebf a01b 19bf
00000030: 50af 18bf 29ce 15bf ee90 c8be de3f eabe
00000040: a6c3 25bd ff47 cdbe 372e 993d 2f68 febd
00000050: fa02 31bd fa49 dc3c 9b78 2e3e 84e7 6abe
00000060: b9dc 0ebe ae09 383d 036e 0ebe d698 35bd
00000070: 7822 2b3e 83e4 b3bd a686 16bd 47c3 20be
00000080: 5012 4bbe c75c 6cbe c5da 36be 6f33 31be
00000090: 5f6e 46be 36c0 27be 7383 55bd 373e 8abe
000000a0: 739c c8bd 06b2 3c3d ed8b 363e f9e5 943c
000000b0: c877 563e 4f57 423e 10c1 36be 0fa8 84be
000000c0: 4b18 8d3e 453b be3d 7f5d adbe 2c13 493e
000000d0: 8ba8 103e c75f 993e 1fec 5ebe 2a60 efbd
000000e0: b5d2 62be ab6d be3d a89c f13d e3b9 263e
000000f0: 99f6 243e bdd1 4c3d e6a8 9dbe e80a d33e
00000100: 0761 6b3f aaab 4b3f 9bb2 85bf dbaf d2bf
00000110: 9c42 a9be 47cb b73d 091e 673e 9ed9 8b3e
00000120: 17e0 25be eecc 713c d3bd e1bd 0846 02bf
00000130: 5824 8ebe da2d 30be 9786 ff39 1ee1 553e
00000140: 78c9 19be 1c07 a8be 1850 a73e ee8d 283d
00000150: 3b10 1c3f b380 213f 3360 df3e 0508 aa3d
00000160: 9252 fc3d 9a1b 0b3f 9a35 8c3f 37d0 873f
00000170: 6d7e 253f 567a 6abe 296f 9d3c abb3 8e3e
-0.10945028 -0.09035586 -0.046340935 -0.22005913 -0.045491945 0.16205049 0.21498701 0.09224633
-0.015563064 -0.14770986 -0.5550955 -0.5980778 -0.59642506 -0.585177 -0.39173073 -0.45751852
-0.040469788 -0.4009399 0.07479518 -0.12422215 -0.04321573 0.026890744 0.17038195 -0.22939879
-0.13951387 0.044931106 -0.13909154 -0.04433521 0.16712368 -0.087838195 -0.036749505 -0.15699492
-0.19831204 -0.23082267 -0.17856891 -0.17304777 -0.1937804 -0.16381916 -0.052127313 -0.2700059
-0.09795465 0.046068214 0.17826815 0.018176066 0.2094413 0.18978618 -0.17847085 -0.2590947
0.27557597 0.092886485 -0.33860394 0.1963622 0.14126794 0.29955885 -0.2176976 -0.11688264
-0.22150691 0.09298261 0.11797458 0.16281848 0.16109695 0.05000471 -0.30792922 0.41219258
0.91944927 0.79558814 -1.0445131 -1.6459917 -0.3305863 0.08974319 0.22570051 0.27314466
-0.16198765 0.014758332 -0.11022534 -0.5088811 -0.27762103 -0.17204991 0.00048737667 0.20886657
-0.1501826 -0.32817924 0.32678294 0.04115098 0.60962266 0.63087004 0.43628082 0.08302311
0.123204365 0.5433899 1.0953858 1.0610417 0.64646035 -0.2289823 0.019218044 0.2787145
