dAE_PyTorch/checkpoints/spectra_dae_epoch_3.pth (torch, 18875 bytes, 13 tensors)

conv1.weight f4 [32, 1, 3]
000000 4c c7 2a 3f 8c 41 0f 3f c1 6b 45 be 07 6a fe bd
       0.6671035 0.5595939 -0.19279386 -0.12422567
000010 37 e4 1b be 88 bc d1 3e 04 e7 ce be 22 cd 1e 3f
       -0.15223776 0.4096415 -0.40410626 0.6203176
000020 2b b4 70 3c 45 34 2f bd 87 23 97 bd dc fa 3b 3f
       0.014691393 -0.042774457 -0.07379823 0.73429656
000030 16 47 b7 3e 72 78 9b be 9b 72 c7 be 0e 15 60 3b
       0.35796422 -0.3036533 -0.38954625 0.0034192237
000040 ec 30 04 bf e1 6d 88 3e 21 29 f3 be 77 71 0b bf
       -0.5163715 0.2664633 -0.47492316 -0.5447001
000050 24 89 b7 3e 49 dc 37 3f d4 d9 2e 3e 87 38 e2 be
       0.35846817 0.71820503 0.17075282 -0.44183752
000060 21 b8 21 bd b9 28 0e bf a8 1c bf 3d 4d 27 d6 3d
       -0.03948224 -0.5553089 0.093316376 0.10456715
000070 ec 0f cd 3e ab 2a 12 3f 10 f0 d4 be 9e 26 b9 3e
       0.4005121 0.57096356 -0.41589403 0.36162275
000080 99 f3 08 bf 69 cb 16 bf 90 62 04 bd 13 8e 0a 3f
       -0.534967 -0.5890413 -0.03232056 0.5412304
000090 25 94 2b 3e c6 e5 b5 bc 72 cb 07 3f f8 12 00 3f
       0.16755731 -0.022204291 0.5304481 0.50028944
0000a0 00 9f c0 be 67 69 2c bf 50 68 0f 3f 77 34 a8 bc
       -0.37621307 -0.6734833 0.56018543 -0.02053283
0000b0 de 0a 71 3e d5 09 88 be 39 13 29 3f 86 d6 ea be
       0.23539302 -0.2657 0.66044956 -0.45866793
0000c0 cc ea 52 3c 31 a6 85 bf f8 93 14 3c c6 9c cf 3e
       0.012873363 -1.0441343 0.009068482 0.40549296
0000d0 a2 e3 c7 3e 94 bc c0 3e 3b 3b 5c bf 5d 90 98 3d
       0.39040858 0.37643874 -0.8602788 0.0744941
0000e0 32 22 3d 3e 6a fa 85 3e 7b 76 b3 3d ad 95 b0 3e
       0.18470076 0.26167613 0.08762833 0.34489194
0000f0 2c 59 71 3d 2a 86 26 3e d9 e1 f7 bc 48 a4 4a be
       0.05892293 0.16262117 -0.03025906 -0.19789231
000100 af 0d 02 be 60 b1 15 3d 07 ac 10 3f 9d a2 a4 be
       -0.12700532 0.03654611 0.5651249 -0.32155314
000110 ca 2a b3 bd fb 14 c7 be 23 58 22 bf 1e 8d 00 bf
       -0.08748396 -0.38883194 -0.63415736 -0.5021533
000120 80 99 ea be 24 ac 2e bf f5 af e8 3d 02 82 ad be
       -0.45820236 -0.68231416 0.11361686 -0.3388825
000130 e6 86 ad be 23 3f e7 be b5 55 6f be 12 96 03 bf
       -0.33891982 -0.45165357 -0.23372538 -0.51400864
000140 2a a8 84 bd 93 81 fe 3d 6b 6a ce 3e ba da 81 bf
       -0.06477387 0.12427058 0.40315565 -1.0144875
000150 a5 69 58 be fc a7 8c be ef 6a 2b bf ed 4e 01 bd
       -0.2113405 -0.27471912 -0.6696004 -0.03156941
000160 85 8d 6c 3e a3 1d 49 bf e5 d5 e6 3c 89 e8 3d 3f
       0.2310086 -0.7856085 0.028178165 0.74182945
000170 23 4d c6 bd 9c 6c 7c bf f1 ac b5 3e be 98 e1 3d
       -0.096826814 -0.98603225 0.35483506 0.110154614

conv1.bias f4 [32]
000000 91 44 0b be d4 03 5c bd a0 1a f2 bd 42 bc 16 bf
       -0.13600375 -0.05371459 -0.118214846 -0.5888101
000010 18 d9 b7 be b1 7e 08 3d 46 8f 86 3e b9 cf 96 be
       -0.35907817 0.033323947 0.26281184 -0.29455355
000020 5d fb 31 3e 74 d7 7d be 29 f9 a4 3e 25 35 ce bd
       0.17381044 -0.2478922 0.32221344 -0.1006873
000030 ca 5d af be d3 f9 e7 3d 47 93 65 be cb 09 05 bf
       -0.34251243 0.11326947 -0.22419463 -0.5196807
000040 97 bd 64 3d 48 b9 64 bd f3 a7 c7 3e 66 cc 04 bf
       0.05584487 -0.05584076 0.38995323 -0.5187439
000050 67 07 d9 bd 4b 69 5b 3e 7b 82 c7 be 3f 17 e2 bd
       -0.10597115 0.21426885 -0.38966736 -0.1103959
000060 3c ca 20 3f 11 f0 a1 bd 29 12 b9 3e 8f 31 02 be
       0.62808585 -0.07907117 0.36146668 -0.12714218
000070 a2 00 d0 be ab 7b 63 3e 3d f6 20 bf 86 d9 c5 bd
       -0.40625483 0.22215144 -0.6287573 -0.0966063

conv2.weight f4 [16, 32, 3]
000000 e8 95 e4 3c 46 de c2 3d c3 54 31 3d 46 31 0b 3d
       0.027903512 0.095150515 0.043293726 0.033982538
000010 41 3d aa 3b cd 77 58 3e f7 28 5f 3d b2 84 a7 3d
       0.0051952903 0.2113945 0.054482426 0.081796065
000020 1a 3f e9 3d 50 99 2f 3f e9 2e 93 3f 93 80 01 40
       0.11388989 0.6859331 1.1498691 2.0234725
000030 ee 0d 76 bc a3 94 dc bd 4b 13 30 bd c8 a9 33 3e
       -0.0150179695 -0.10770538 -0.04298715 0.17545235
000040 7f b2 bd 3d c8 32 7a bd ff 2e 70 3c 76 7d 2e bd
       0.09262561 -0.061083585 0.014659642 -0.042600118
000050 95 ed d8 bd fb 81 8c bc 53 c6 c3 3c 9a 33 0f bd
       -0.1059219 -0.017151823 0.02389828 -0.03496132
000060 0f 6a 82 3e 53 af 80 3d 01 88 c6 be ca fb b5 3d
       0.2547154 0.062834404 -0.38775638 0.088859156
000070 19 ed ca 3c 5e 9e 9f 3e 8b cc c9 3c 6e dc 86 bd
       0.02477126 0.31175512 0.024633667 -0.065850124
000080 a5 f7 aa be 51 16 e6 bc 05 d2 95 3e fe 4f e6 3e
       -0.33392063 -0.028086813 0.29261795 0.44982904
000090 11 42 0f 3b aa 16 32 3e b3 d6 f8 3e d5 de b8 be
       0.0021859447 0.17391458 0.48601303 -0.36107507
0000a0 66 f4 1e be f2 10 36 bf 11 f0 9a bc 79 ce 30 3d
       -0.15522918 -0.71119606 -0.0189133 0.043165658
0000b0 7d d6 47 3e e8 03 00 3e 0a ec c0 3c 92 27 4a 3d
       0.19515415 0.1250149 0.023550052 0.049354143
0000c0 0d 64 6d be 18 70 8c be 10 d1 6e be 3f 71 8e bd
       -0.23182698 -0.2742927 -0.23321939 -0.06955194
0000d0 e1 82 84 3d c7 16 1a 3e 43 24 5a 3c fd 8e 14 3d
       0.06470276 0.15047751 0.0133143095 0.036269177
0000e0 09 ac c4 bd 75 1e 3c 3e e1 25 a7 3e 55 ce 0a 3d
       -0.096031256 0.18370993 0.32646087 0.03388818
0000f0 6e 33 cb bc 3c 1f 0a 3e 19 f6 37 3d e5 40 ab 3c
       -0.024804797 0.13488477 0.04491243 0.020904968
000100 58 3d 24 bc cf 0d 01 bd eb cf 38 3d 4a f2 55 bd
       -0.010024391 -0.03150731 0.04512016 -0.052233018
000110 bc 04 df bd d7 e4 be bd 5f 2e 78 bd c0 c0 ba bd
       -0.10889575 -0.093209915 -0.060591098 -0.091187954
000120 96 38 30 be 12 da 07 be d3 a6 c6 be d7 f5 c6 bd
       -0.17209086 -0.13266781 -0.38799152 -0.09714859
000130 5d 5e 35 be e0 06 e0 bd 63 4d 10 3e 3e 0a b7 bd
       -0.17711778 -0.10938811 0.1409202 -0.089375004
000140 b3 40 e1 3c 4b d1 0b bd 1c 86 06 3e 0e a6 74 3d
       0.027496671 -0.034135144 0.13137096 0.059728675
000150 07 c7 58 bc f9 5d 5f 3c 5e 32 41 be 2c 3c 60 bd
       -0.013231046 0.013633245 -0.1886687 -0.054744884
000160 59 c4 87 be 8e 8c 65 bf 64 a4 36 3f 2c 28 d7 3e
       -0.2651699 -0.89667594 0.7134459 0.42022836
000170 39 ad 9c 3f 75 e3 bf be c4 5d 54 be 72 a6 80 bc
       1.2240363 -0.37478223 -0.20738894 -0.015704367
000180 b8 83 09 3d 96 26 af 3d 4e 99 1b 3e c7 6b 13 be
       0.033572882 0.085522816 0.151952 -0.14396583
000190 1e 41 57 3c 2a 2d 3d 3e eb 18 63 be 56 a9 da bc
       0.013138084 0.1847426 -0.22177474 -0.026692074
0001a0 0d 9c fd 3d e8 17 be 3e a2 82 e1 bd 9c d5 82 3f
       0.1238328 0.37127614 -0.11011244 1.0221438
0001b0 07 fc 1b bb f4 42 6e 3c 73 c2 df bd a9 d0 ae 3d
       -0.0023801343 0.01454233 -0.1092576 0.085358925
0001c0 44 10 1e 3d f5 10 0e 3e 74 c1 21 be e8 eb 10 bd
       0.03858973 0.13873656 -0.15796453 -0.035381228
0001d0 de 43 2d 3d fe b8 c3 3d 75 61 09 be 74 58 05 bf
       0.04230105 0.09556769 -0.13416083 -0.52088094
0001e0 92 a4 c3 3c b9 f6 47 3e 69 df 18 be 4c 8a 2b 3d
       0.023882184 0.19527711 -0.14928974 0.041879937
0001f0 ef 88 65 bc 01 c5 4d 3e 1b f1 43 be 62 f4 5f 3d
       -0.014009698 0.20094682 -0.19134943 0.05467642
000200 02 88 08 be fa ab e3 be cd e3 e9 3d 46 02 13 3e
       -0.13333133 -0.44467145 0.11420403 0.14356336
000210 2a 05 82 bd 60 ef 22 be 15 c7 68 3e 2d 7a 25 3e
       -0.06348641 -0.15911627 0.22732194 0.16159888
000220 6b 4d de 3e cd 83 4c bf 5c 18 cb 3d 47 70 fa 3c
       0.4341844 -0.7988861 0.099167556 0.030571116
000230 fc 67 e1 3d 2b dc 9e 3d a1 e4 af bb 8c 75 a5 bd
       0.110061616 0.077568375 -0.005367831 -0.08079061
000240 44 99 9a be 70 47 b0 be c8 17 bc be ff 28 7d 3d
       -0.30195057 -0.34429502 -0.36736894 0.061806675
000250 83 04 40 3d 7d af 22 3e f5 24 13 be a1 c3 12 bc
       0.046879303 0.15887256 -0.14369567 -0.008957774
000260 e8 48 cd 3d 40 75 9e be 7d c9 c6 be 1b 45 c8 bd
       0.100236714 -0.3094883 -0.38825598 -0.09778806
000270 5c 8f 43 3d 47 8a 94 bd c4 fa cc 3d 48 e0 e2 bd
       0.04774414 -0.07252937 0.10008767 -0.110779345
000280 c3 75 c9 3d f9 96 42 3d e7 ee a0 3d 0a 1a 3e 3c
       0.098369144 0.04750726 0.07858067 0.011602888
000290 b0 7b 02 be e9 67 c0 bd ad 33 11 be 81 8a 99 bd
       -0.12742496 -0.09394819 -0.14179869 -0.07497121
0002a0 21 8b 1d be fb bb 07 be dc a6 57 be 51 a2 e4 bd
       -0.15385105 -0.13255303 -0.21059746 -0.11163772
0002b0 1c 2a d9 bd 8b 8c b2 bd 0c 88 87 3e 21 95 c0 ba
       -0.10603735 -0.08718213 0.26470983 -0.0014692881
0002c0 5e bc 63 bd c4 d4 0f 3e ed 1a 99 3c a4 c3 41 3c
       -0.055599563 0.14046007 0.018689597 0.0118264295
0002d0 24 b0 4f bc c9 de d2 bc 23 1a 1b be 73 80 c0 bd
       -0.012676273 -0.025740998 -0.15146689 -0.093995
0002e0 33 f2 de 3c e5 87 44 bf 5b a7 d9 3e 5a 41 c4 bd
       0.027215099 -0.7676986 0.42510495 -0.09582777
0002f0 ae a2 18 3d 18 fb a8 be 84 3e 7c 3e 8d cf b3 3e
       0.03726452 -0.3300407 0.24633223 0.35119286
000300 c9 0f 27 be bb 92 d6 bc b5 92 8a bd 6c 20 15 be
       -0.16314615 -0.026193013 -0.067662634 -0.14563149
000310 e9 19 93 3c 68 26 3c 3e 52 b7 04 3e b4 40 43 3e
       0.01795669 0.18374026 0.12960556 0.19067651
000320 54 87 fe 3d a7 b6 a0 be 79 d5 2e be fb 41 51 3e
       0.124281555 -0.31389353 -0.17073621 0.20435326
000330 cc 69 da bd 69 80 b2 bd a0 a0 78 3e 5e 7d 4d be
       -0.106647104 -0.087158985 0.24280024 -0.20067355
000340 a6 06 cb 3c 90 c9 22 bc 87 a1 1f 3d 53 33 69 3d
       0.024783444 -0.009935752 0.038972404 0.056933712
000350 b6 85 07 bf e7 9a 66 be 7a 00 ba be 8a 91 d2 3e
       -0.529384 -0.22520028 -0.3632849 0.41126662
000360 22 ee 8d 3d b1 fc bf 3a 14 31 0a bf bc 6f f6 bd
       0.06930186 0.0014647451 -0.5398114 -0.120330304
000370 ef 30 18 3c 17 e7 0d 3d 1e 8c 56 3e d6 cc 29 3e
       0.00928901 0.034644213 0.20951888 0.16582045
000380 8a 1c 97 be b2 91 18 3f bc 91 d4 3d 97 a5 aa 3e
       -0.2951396 0.59597313 0.10379359 0.3332946
000390 4a 4e a6 be 2f 53 93 3b ab 67 17 3e c9 81 49 3d
       -0.32481605 0.0044960002 0.1478564 0.04919604
0003a0 f0 37 25 3f 52 1f 93 be 28 8a 67 bd 94 dd 51 3d
       0.6453848 -0.28734833 -0.05652824 0.051236704
0003b0 9c 44 5e 3e 34 8a 7d 3d ea ce e3 3c 25 71 7a 3e
       0.2170586 0.06189938 0.027808625 0.24457224
0003c0 9b 96 11 40 f2 ce 11 3f e1 ff f7 3e 5a 23 1e be
       2.2748172 0.569564 0.48437408 -0.15443173
0003d0 f1 2c 73 3d 64 13 22 3a f4 ef 25 3e af 75 86 3d
       0.05936903 0.0006182699 0.16204816 0.06565415
0003e0 ee 37 c2 be fa 5d 3e bc 44 2c 4c be 3a 8c 59 3e
       -0.37933296 -0.011619085 -0.19938761 0.21244898
0003f0 cf 82 d5 bd 6f bb d3 bc f5 8f be bc 52 cb 29 3d
       -0.104253404 -0.025846211 -0.023262003 0.041453667

conv2.bias f4 [16]
000000 36 ea ca bd 24 ad 05 bd a6 50 1b bd 17 ba 41 bd
       -0.099079534 -0.032635823 -0.03791871 -0.04729661
000010 88 d1 ed 3d ed 5a 94 bd 83 33 f3 bd 23 b6 51 bc
       0.116122305 -0.07243905 -0.118750595 -0.012799772
000020 38 36 3b 3e aa f7 ae bb 94 d5 be ba e8 13 37 bd
       0.18282402 -0.0053395825 -0.0014559501 -0.04469672
000030 37 9c 83 3c ff c6 b0 be f4 75 58 bd cd cc 44 3e
       0.0160657 -0.34526822 -0.052846864 0.1921875

conv3.weight f4 [8, 16, 3]
000000 4c e5 da bd 22 0a b5 bd 0e 3e 9e be 4c cf c3 bb
       -0.10688266 -0.08839823 -0.3090672 -0.0059756394
000010 49 dd 01 3d a2 8f 07 be 63 ee f1 3d 3d 1c 37 be
       0.031705175 -0.13238385 0.11813047 -0.17881866
000020 12 a3 df 3e 70 db 5f 3e 7c ca d7 bd 18 07 81 bd
       0.436791 0.21861053 -0.10536668 -0.06300181
000030 c4 44 d3 bc 90 2f cc bd 77 d2 96 3e 57 41 86 3e
       -0.025789626 -0.09970009 0.29457447 0.26221725
000040 fc 36 1c be 2e a5 dd bd 73 92 4b be 8a da ce 3c
       -0.1525535 -0.10822521 -0.19880085 0.025250692
000050 dc bf a2 be 66 85 e7 3d 76 7c 2c 3e 29 36 da 3d
       -0.31787002 0.113047406 0.16844353 0.106548615
000060 fc 9d 32 3e ab d9 13 3e 64 69 e3 3d 34 77 89 3e
       0.17443079 0.14438502 0.11104086 0.26848757
000070 b9 da 0e 3d 74 de a5 3d 3e de 38 3f e1 21 ac be
       0.03487656 0.0809907 0.72214115 -0.33619598
000080 0b a2 38 3f d7 54 61 bf d4 79 fd bd 8e d1 fa be
       0.7212226 -0.8802008 -0.123767525 -0.48988003
000090 df b1 ee 3d e3 38 75 3d d3 d4 b9 3c 71 1e 95 3a
       0.1165502 0.059868705 0.02268449 0.001137687
0000a0 c7 57 be be 8c 32 7a be 6d 55 57 3e 3a 16 27 be
       -0.37176344 -0.24433345 0.21028681 -0.16317073
0000b0 3a a6 98 bd 09 84 2c 3e c4 8e 84 bc 01 2d e7 3e
       -0.0745358 0.16847242 -0.016181357 0.45151523
0000c0 8f b0 ca 3d f2 ce f8 bd b1 8f 95 3e d6 f0 75 3e
       0.09896957 -0.12148847 0.2921119 0.24017653
0000d0 d9 2f 09 3d dc 06 91 3d 0b b1 0f 3e ca d4 a4 bd
       0.033492897 0.070813864 0.1403238 -0.08048399
0000e0 85 e7 54 3c 08 4d 9d bd c9 1f c6 3b 71 27 f4 bc
       0.012994652 -0.07680708 0.0060462696 -0.029803963
0000f0 6e 5b 05 be 97 97 73 3c 02 8e c6 bd 90 1b 0c be
       -0.13023159 0.014867685 -0.096950546 -0.1368239
000100 cb d5 33 3e 8e 85 2d bc ee b2 15 3e 2a 1c 58 3e
       0.17562024 -0.010590924 0.14619038 0.21104494
000110 ea 06 e7 3d cb 1e 9f 3a af 7f 31 bd e8 5b a9 bd
       0.11280616 0.0012139914 -0.04333466 -0.08269483
000120 81 36 4c be da 99 44 bd 55 7d 60 be 95 0a 80 3e
       -0.19942667 -0.047998287 -0.2192281 0.25008073
000130 0a ab 43 3e 75 82 22 3d 18 de 1b be a5 7c 0d be
       0.19108215 0.039675195 -0.15221441 -0.1381708
000140 1e 5b d4 3d f5 6a 95 3f bd 7a cc 3e 07 01 04 3f
       0.10368942 1.1673266 0.39937392 0.5156407
000150 a9 bb e9 3d 8f 6c 84 3e f5 25 93 3e 53 69 50 be
       0.114127465 0.25864074 0.28739896 -0.20352678
000160 d1 06 a9 3e 0d 8d 90 3e 00 4c d2 3d 61 77 f3 3d
       0.33013013 0.28232613 0.10268402 0.11888004
000170 7f 44 e8 bc 43 44 e4 bd 60 bc a6 3c dc bb 01 be
       -0.028352974 -0.111458324 0.020353496 -0.12669319
000180 a5 ec 80 3e c2 01 ad 3e ea ce 74 3c a1 a7 aa bd
       0.25180545 0.33790404 0.01494191 -0.08332754
000190 82 7d 77 3e 23 80 df 3c e7 e8 96 3e 12 74 9c be
       0.24168971 0.02728278 0.29474565 -0.30557305
0001a0 1b bd 51 3f b6 d0 81 3d 12 e9 65 3d 2c 1c a6 bc
       0.8192918 0.063386366 0.056130476 -0.020277105
0001b0 db f3 32 3e c6 d1 07 be cb a4 81 3d 07 ba ac 3e
       0.17475836 -0.13263616 0.0633026 0.33735678
0001c0 a7 99 9a be 8a 07 f2 3a 81 a2 4b be bb 04 54 3d
       -0.30195352 0.0018465382 -0.19886209 0.051762324
0001d0 14 69 38 3d 7d 88 24 3e a8 12 ef 3d 4c 63 8a bd
       0.045022085 0.16067691 0.1167348 -0.067572206
0001e0 47 be 7c 3e 94 3d 9b bc ad 82 b8 3d 9f 7f 4f bc
       0.2468196 -0.018950261 0.090092994 -0.012664705
0001f0 e1 91 30 3e e5 f6 28 3d 80 fe d8 3e 8a 29 91 bb
       0.17243148 0.041251082 0.42381668 -0.0044300007
000200 83 6a b4 3e 13 a5 77 bf 77 06 52 be 99 5a 1d bf
       0.35237512 -0.9673626 -0.20510279 -0.61466366
000210 1e 03 5f bd 04 5e 49 bd 73 4b 8d be f0 62 25 be
       -0.054446332 -0.049161926 -0.27596626 -0.16151023
000220 c3 fc ab be 9d e6 67 be 6e a5 e7 bd 26 9e 9e 3d
       -0.3359128 -0.22646566 -0.1131085 0.07745008
000230 52 15 e3 3d fc 8f 7e 3e 8f 6a e8 bd df 88 67 bb
       0.11088051 0.24859613 -0.113484494 -0.0035329384
000240 ea 3c 6e 3c 60 97 cd bb bb 9c 83 be 99 a4 95 3d
       0.01454089 -0.006274149 -0.25705513 0.07306785
000250 18 74 d7 3d e4 e8 50 3e 2a 5b 35 be 87 c6 1c 3d
       0.1052019 0.2040134 -0.17710558 0.038275268
000260 b1 a8 fa 3e bd 16 16 be 56 e2 48 bd bc 70 5e 3e
       0.48956826 -0.14657111 -0.049043976 0.21722692
000270 9c 9a fd 3c 46 88 fd bd 0a 57 33 3e 06 b1 92 bd
       0.030957513 -0.12379508 0.17513672 -0.07162671
000280 c1 d4 1c be 6b f8 ae 3e cc 39 91 3d 73 b2 10 3e
       -0.15315534 0.34173903 0.07091102 0.14130573
000290 94 28 8e be c1 73 62 bd a8 f4 ee 3d 4e b2 4c be
       -0.27765334 -0.055286173 0.11667758 -0.19989893
0002a0 92 18 f0 bb c5 e7 25 3e 0b 6d 15 3e 16 69 4a 3d
       -0.0073271478 0.16201694 0.14592378 0.049416624
0002b0 e2 a9 80 3c 99 1d b1 3e 2d c7 41 3e 2e 57 db 3c
       0.015706006 0.34592894 0.18923636 0.026774969
0002c0 86 e6 63 3f 46 a6 c1 be 0a 6e 1c bf b8 ff 68 bf
       0.89023626 -0.3782217 -0.61105406 -0.91015196
0002d0 cf 19 47 bd a2 32 cd bd c1 43 eb bd d0 8c 19 bd
       -0.048608597 -0.10019423 -0.114875324 -0.037487805
0002e0 5a 30 0d bf 5f b4 21 3d c1 c5 6b 3e 31 e1 fd bd
       -0.55151904 0.039478656 0.23024656 -0.123964675
0002f0 62 53 18 3e 33 66 da bd 2f e5 0b 3e c1 31 2d 3e
       0.14875558 -0.10664024 0.13661645 0.16913511
000300 ca 59 b7 bc 36 ee 84 bb eb cb bd 3d 13 43 33 3e
       -0.022381682 -0.0040567173 0.0926741 0.17506056
000310 ea d0 3a 3e 47 54 59 3d f9 79 53 3e d4 f4 20 3e
       0.18243757 0.05305889 0.20651998 0.15718395
000320 38 7b 9f 3d f6 a9 ec bd b7 db e5 bd 72 d6 0c 3e
       0.07787174 -0.11555855 -0.11223548 0.1375368
000330 ee 1f 5b be bd 9a 51 bd f1 8c 38 be 5f f0 82 3d
       -0.21398899 -0.05117296 -0.18022515 0.063935034
000340 9c 5e 9c 3d d7 3d eb 3d c1 90 97 3e 1b 94 4c 3e
       0.07635233 0.114864044 0.29602626 0.19978373
000350 b6 41 27 3e bf 36 2d 3e af 82 17 be 09 76 19 be
       0.1633366 0.16915415 -0.14795946 -0.14986433
000360 69 62 96 be e6 60 96 be eb 6a 6d be c0 7b e7 3d
       -0.29371956 -0.29370803 -0.23185317 0.113029
000370 e5 bb 10 3e 9f 61 73 bd 9d 9c 2c 3f 0e 7e 42 3d
       0.14134176 -0.05941927 0.6742647 0.047483496
000380 0a 8e 19 3e 20 bc 6e 3f 89 0c 0b 3e 68 30 65 3e
       0.1499559 0.93255806 0.13579 0.22381747
000390 18 81 1f 3e 7f 63 a5 3d 19 44 1a 3e 51 8f 06 3f
       0.15576589 0.08075618 0.1506504 0.52562433
0003a0 a8 44 78 3e 5d 71 0d 38 10 a0 8a 3e c4 6d 6c 3d
       0.2424494 3.3722597e-05 0.27075243 0.05772187
0003b0 3c 47 c2 3d 2b 3b fb be 71 20 85 be 1b da e8 bd
       0.09486243 -0.4906858 -0.26001313 -0.11369725
0003c0 b7 88 a1 bc 38 39 64 3e dc 37 e7 bd ce ae d8 bd
       -0.019718511 0.22287452 -0.11289951 -0.10580216
0003d0 ef 3a 97 3a 02 a4 49 3b 82 c5 7f 3e 8e 56 c7 3d
       0.0011537949 0.0030767922 0.24977687 0.09733306
0003e0 ad 05 23 3f 56 69 8e 3e 9b 13 28 3c e1 60 cf 3d
       0.63680536 0.2781474 0.010258581 0.101259
0003f0 f1 30 7f bc 62 f7 29 3c 50 6d ac 3e 4e 07 b1 3e
       -0.015575633 0.010373922 0.3367715 0.34575886

conv3.bias f4 [8]
000000 d1 bc 3e 3e 2a c7 33 3e 03 ad 1d 3d df f4 82 3d
       0.18626715 0.17556444 0.038495075 0.06394362
000010 6a 06 de bd 56 2e 19 bd 18 1f 31 be 06 07 0a 3e
       -0.10841067 -0.037397705 -0.17297018 0.13479242

t_conv1.weight f4 [8, 8, 3]
000000 e2 15 39 bf 60 36 0b bf bb 8d e0 3e 69 c9 86 bd
       -0.72299016 -0.54379845 0.43858132 -0.06581385
000010 26 e5 97 3d ee 4c 94 bd ca 3a cd bd 44 43 c9 be
       0.074167535 -0.07241236 -0.10020979 -0.39309132
000020 78 6f 20 be 86 9b 8d bf 38 2c 8b 3e 5e 32 bf 3e
       -0.15667522 -1.1063087 0.27182174 0.37343115
000030 20 44 b6 3e 37 8c 73 3e ee 5e 2d 3d 22 54 84 3e
       0.3559885 0.23783956 0.04232686 0.25845438
000040 4e 7d 12 be 45 3d f0 bf 55 63 cb 3d f1 b3 80 3e
       -0.14305612 -1.8768698 0.099310555 0.25137284
000050 a0 4d 3a 3e 8c b6 ea bd 35 57 34 3e 1f 58 b5 3e
       0.18193674 -0.11460599 0.17611392 0.35418794
000060 97 3f 83 bd 0b df 7f 3d 82 9f eb 3c 5b 9f 5a be
       -0.06408613 0.06246857 0.028762583 -0.21349852
000070 0a 6b e0 bd 4b da fe be db 69 8d 3e 64 63 40 3e
       -0.10957916 -0.4977592 0.27619824 0.18787915
000080 e2 35 d0 3d 52 2d 6a be b4 b3 3e be e9 01 10 3e
       0.10166527 -0.22868851 -0.18623239 0.14063229
000090 75 b3 63 be fd 88 de be f5 47 e4 3d 47 20 5c 3e
       -0.22236426 -0.4346389 0.11146537 0.21496688
0000a0 dd cd 17 be c0 c3 bd bf d6 cd a4 be bc 60 e2 be
       -0.14824624 -1.4825363 -0.3218829 -0.44214427
0000b0 4a d0 21 bd b2 99 3f 3e a6 73 a3 3c 78 01 a4 be
       -0.03950528 0.18710974 0.019952606 -0.3203237
0000c0 4f 4e 0a bf 14 e4 83 bd 86 31 e8 3d e6 13 a0 3d
       -0.5402574 -0.06439987 0.11337571 0.07816295
0000d0 fa c3 41 bd e9 7f 0a 3e 79 0b fc 3c e0 7b 64 be
       -0.04730604 0.13525356 0.03076719 -0.2231288
0000e0 62 b3 4f 3d 53 f2 b1 be 4c 13 42 bc c0 23 9e 3e
       0.050708182 -0.3475519 -0.011845421 0.3088665
0000f0 2e 7a 14 3e 9f a0 cd 3d 4f 15 16 bd f6 65 7c 3f
       0.14499733 0.10040402 -0.036641415 0.9859308
000100 e2 8e 83 bd 3d 6f ad bf 6e 8f 6e 3d c7 a2 18 3e
       -0.06423737 -1.3549572 0.058242254 0.14905845
000110 1a 5b 40 3d 1c aa b9 3e a0 5b 29 be 8a 4c 14 3f
       0.04696188 0.36262596 -0.16538858 0.5792929
000120 42 5e 9c be 12 79 7a be c0 2a b8 3e 50 e3 dd 3e
       -0.30540663 -0.24460247 0.35970116 0.43337488
000130 d7 65 3b 3e 45 a4 05 be dc d7 b8 bd 86 f0 79 3d
       0.18300568 -0.13050945 -0.09025547 0.061020397
000140 9a 26 a5 3d 1d 5b 16 bf 18 86 9a 3e 23 7f 5a 3f
       0.08064003 -0.5873278 0.3018043 0.85350245
000150 c0 a5 f7 3e 93 2b 48 3d 07 ba 2f 3d 7c 47 06 3f
       0.48368645 0.04886968 0.04290202 0.52452826
000160 cc 95 19 3e c7 ea ac bf 28 3b 36 3e 58 c9 88 3e
       0.14998549 -1.3509148 0.17796004 0.26716113
000170 56 f8 25 3e fa 39 22 3d ab 16 6d 3e 6e 21 c8 bd
       0.16208014 0.039606072 0.23153178 -0.09772001
000180 99 72 be bd eb 6f a2 3e ff 57 31 3e 19 6f 39 bc
       -0.092992015 0.31726012 0.17318724 -0.011317992
000190 5a 3e 8f be 5a 28 77 be 15 a5 88 3e b3 b4 70 3e
       -0.27977258 -0.24136487 0.26688448 0.23506431
0001a0 95 7e 85 3d a9 a2 5f be ce 3b 0d 3e a5 b9 4b bf
       0.06518284 -0.21839394 0.13792345 -0.79580146
0001b0 8e 88 a5 3c e0 b0 b6 be df 8f ad 3e 28 2e 9c 3e
       0.020206716 -0.3568182 0.33898827 0.30503964
0001c0 83 bd 1d 3e 3a ce 3e 3d 14 33 e2 3d 32 2a 29 bf
       0.15404324 0.04658339 0.11044899 -0.6608001
0001d0 0b 15 29 3e ba bb d0 3e fc 23 91 3e df 94 5b 3d
       0.16511934 0.40768224 0.28347766 0.05360877
0001e0 0c 0a 30 3e 23 a4 5e 3e 2a aa 9c 3e 5f 05 84 3e
       0.17191333 0.217423 0.30598575 0.25785348
0001f0 46 9c 6c 3e 4f 0a 02 3e 0f 86 a7 3e 1c 1c ea 3d
       0.23106489 0.12699245 0.32719466 0.11431143
000200 c4 1c cf 3e b4 4e 5f bf 1a c5 24 3e 58 25 1d 3f
       0.40451634 -0.87229466 0.16090813 0.6138511
000210 7b a7 39 3e 3f 71 1a 3e 3f a8 cb bd cd ed 10 3f
       0.18130295 0.15082262 -0.099442 0.56612855
000220 f2 79 7a 3e c7 2f 89 bf fa 0d f8 3e f3 2d 40 3e
       0.24460581 -1.0717705 0.48448163 0.18767528
000230 83 ec 32 3e e1 61 ba bd 3d ab a5 bd c7 8d 5c bc
       0.17473035 -0.091007 -0.08089302 -0.013461537
000240 ca 03 95 be 97 85 40 3d f0 a7 18 3f da 39 9c 3e
       -0.29104453 0.0470024 0.5963125 0.30512887
000250 f3 f8 c4 3e 3a 13 da 3e 57 32 52 3e 87 23 63 3e
       0.38471183 0.42592794 0.20527016 0.22181521
000260 17 19 98 bc da bd 32 3f d1 85 27 3e 5c 69 a5 bf
       -0.018566651 0.6982094 0.1635964 -1.2922778
000270 a5 5a 88 be 66 ce de be f3 92 f8 3e 11 4f cb 3e
       -0.26631656 -0.43516845 0.48549613 0.3970876
000280 d3 a3 31 3e e6 d3 8f bf a7 81 a0 3d 9c 3c 2f 3d
       0.1734765 -1.1236541 0.07837229 0.04278241
000290 47 14 db 3e 25 7a 82 3d f5 7e 20 3d ca 46 cf be
       0.42788908 0.063709535 0.039183576 -0.40483695
0002a0 6f 82 9f be bf 71 01 bd 33 4c 65 3e c5 35 0a 3f
       -0.311542 -0.031602617 0.22392349 0.53988296
0002b0 b7 6d 84 3d f2 6c 81 3b d4 13 2b 3e 65 76 9e 3e
       0.06466239 0.003949755 0.16706783 0.30949703
0002c0 0d 8a 07 3e 64 09 1b 3f 09 73 db bd 68 49 74 bf
       0.13236256 0.60561204 -0.107153006 -0.9542451
0002d0 be 81 4b be f3 aa 64 be e5 c8 18 3e 6c 2d 07 3f
       -0.19873711 -0.22330837 0.14920385 0.52803683
0002e0 00 d0 b2 3c ae dd bc bf 6b 30 2b be 01 73 b1 be
       0.021827698 -1.4755151 -0.16717689 -0.34658054
0002f0 d1 2e 80 be 79 3e 8c 3e 46 62 a9 be 7b 5f a5 be
       -0.25035718 0.27391413 -0.3308279 -0.32299408

t_conv1.bias f4 [8]
000000 31 44 3a 3d 2c 95 5a be b5 f6 37 3e c2 57 99 3d
       0.04547519 -0.21345967 0.17965205 0.074874416
000010 d5 72 84 bc e5 ab 02 3e 57 1c e7 3d 22 f3 3d 3e
       -0.016168037 0.12760885 0.11284702 0.18549779

t_conv2.weight f4 [8, 16, 2]
000000 8e e8 34 bf 35 be af 3d ba 0f 80 bd ed aa e8 3d
       -0.7066735 0.08581201 -0.062529996 0.113607265
000010 fc ca bb bd fb 62 1d 3f 29 d5 a9 3c 70 f1 89 3e
       -0.091695756 0.6147916 0.020731525 0.26942015
000020 a1 2c d9 3d f6 96 c5 3d de ca 86 bd 48 92 a4 bd
       0.106042154 0.09647934 -0.065816626 -0.080357134
000030 89 29 91 3b 68 7e 88 bb e2 b8 3f 3e cd b0 88 3e
       0.00443 -0.0041654594 0.18722871 0.26697388
000040 66 db 06 3f 5e 1a aa 3a 0a d9 60 bd 1d 71 c1 3d
       0.52678525 0.0012977829 -0.054894485 0.09445403
000050 49 ef 0e 3e d5 27 b5 3e bc 86 52 3e bf dc 2c 3d
       0.13958468 0.35381952 0.2055921 0.042202707
000060 25 c9 07 3d 25 d6 bd 3d 7f cd 2f 3e 7d cb 49 3d
       0.03315081 0.092693605 0.17168234 0.049266327
000070 3b 37 1a be 9e 51 27 3d 9a ad e3 3d 45 06 7b 3d
       -0.15060131 0.04084932 0.11117096 0.061285276
000080 17 b1 10 3e b9 21 62 3d d6 b4 3c be 93 8e 79 3e
       0.14130054 0.05520794 -0.18428358 0.24370794
000090 97 de e6 3e 6a 37 9b 3d 2e 15 d3 bd e2 ce d8 3d
       0.45091698 0.07578929 -0.10306774 0.10586335
0000a0 eb 35 11 bf 89 3e 7a bc 37 a1 e6 3e 62 33 39 bc
       -0.567229 -0.015273699 0.45044872 -0.0113037545
0000b0 87 7a 9b bc 60 eb 0c bf b8 c8 13 3c 44 ed d2 be
       -0.018979324 -0.55046654 0.009020023 -0.41196644
0000c0 45 7c c4 3c 96 86 62 3d 32 8f ec be 8d b6 a5 bd
       0.023985038 0.055304132 -0.46203 -0.080914594
0000d0 fc 5b 21 3e 26 56 04 3e 7b d9 ec 3e 7d 49 61 3d
       0.15757746 0.12923488 0.46259674 0.055001725
0000e0 fc b1 c4 3e 96 87 b8 3d 7c 2c 95 3e 79 ac bc 3e
       0.3841704 0.09010236 0.291355 0.36850336
0000f0 65 90 76 3d 93 f3 90 be 87 4c 25 be 4a a2 cf 3e
       0.0601963 -0.28310832 -0.16142474 0.40553504
000100 e1 d4 98 be b6 2c 03 be 39 ac 33 be 0c d6 e8 bd
       -0.29849914 -0.12810025 -0.17546166 -0.11368951
000110 ab ce 44 be cd e1 35 be 35 ae a0 3d 7d d1 c8 3d
       -0.19219463 -0.17761917 0.07845727 0.09805582
000120 26 1c 92 3e 15 74 90 3e fc 5a 0e bc 59 92 ac bc
       0.285371 0.28213564 -0.008688685 -0.021065878
000130 80 3d 7f 3e a4 8c 78 3e c0 6a 79 3e 1c e6 72 3e
       0.24925804 0.242724 0.24357128 0.23720592
000140 03 ee 2c bf a0 0a 33 be 26 23 4d 3c b1 e2 9b bd
       -0.6755068 -0.17484522 0.012520587 -0.07611597
000150 e5 2a 11 be 4f 66 8c be 9d 39 a8 bd 3b 03 20 bd
       -0.14176519 -0.27421805 -0.08214114 -0.03906558
000160 18 5a c7 bd be 5f e3 bd 83 5b ca bd 14 09 80 bd
       -0.09733981 -0.11102246 -0.09880736 -0.062517315
000170 bc bf a9 be 73 f9 62 bc 23 cc 21 be 26 a1 e7 bd
       -0.33154094 -0.013853419 -0.15800528 -0.113100335
000180 3c 67 3f 3e e1 6d e7 3d 65 36 d1 bd 8f eb 2d 3b
       0.18691725 0.113002546 -0.10215453 0.002653811
000190 bc ff ae 3e 37 b6 1b 3e 6d d7 44 be 21 91 0f 3f
       0.34179485 0.15206228 -0.19222803 0.56080824
0001a0 31 a3 44 be 98 96 09 be 8d ea 32 be 2d 55 b0 bc
       -0.19202878 -0.13436353 -0.17472287 -0.02152499
0001b0 87 fc b2 be 32 ab da be 1f 85 e7 be 15 fc 44 bd
       -0.34958288 -0.42708737 -0.4521875 -0.048091967
0001c0 23 6d 4b 3e 4e 8e 7b 3d 1b ba 53 3e c1 e9 2b be
       0.19865851 0.06141501 0.20676462 -0.16788389
0001d0 e2 aa f5 3d 92 aa 55 3e cc c6 74 be 90 b9 f6 3e
       0.11995484 0.20865849 -0.2390396 0.48188448
0001e0 cd f0 e7 3c 41 41 69 3d 93 32 89 3e f6 34 9e bf
       0.028313065 0.056946997 0.26796398 -1.2359912
0001f0 71 3b 0b 3e 14 65 9a bf 99 f5 3a bd 0f 0f f5 bb
       0.13596894 -1.2062097 -0.045644376 -0.0074786018
000200 58 02 d7 3d 25 52 a9 3e 23 49 b4 bd 4e 47 85 3d
       0.10498494 0.33070484 -0.08803012 0.06507741
000210 a9 44 aa be 96 14 94 3e cf 82 18 3f 2d 2a e8 bd
       -0.3325551 0.28921956 0.595746 -0.113361694
000220 18 a2 0c 3e 7a 92 df be 91 d4 8d 3e cf 47 6f 3e
       0.13733709 -0.4366644 0.27701238 0.23367237
000230 b5 9f 3a be 8e fe ad 3d 8e da 85 bd 10 7b 00 3e
       -0.18224986 0.08495818 -0.065358266 0.12546945
000240 43 bc 12 be 59 ba f9 3c c1 fa e7 3e e0 ff 35 3d
       -0.14329629 0.030484365 0.45308498 0.044433475
000250 1e 68 92 3e 67 c3 a0 3d 95 13 5e 3e 28 18 25 bd
       0.2859506 0.0784977 0.21687157 -0.04030624
000260 12 a9 f0 bb b0 11 79 3e b3 6d 32 3e ba e0 9d 3e
       -0.0073443735 0.24323153 0.1742466 0.30835515
000270 31 94 d1 39 5c f4 9d 3e 7b 3b 3c 3d 70 0d 5e be
       0.00039973998 0.30850494 0.045955162 -0.21684813
000280 ca 08 d1 bd d0 2b 40 bd ac b2 d5 3d 6e c8 0e 3d
       -0.102067545 -0.046916783 0.104344696 0.034859113
000290 4f e5 db bc 2e 65 3b be ac 83 1f bf e0 a2 95 3e
       -0.026842741 -0.18300316 -0.6231029 0.29225826
0002a0 2a 1c 6c 3e e7 cb bc 3d 9d 7f 90 be 30 87 8f 3d
       0.23057619 0.09218579 -0.2822236 0.07008207
0002b0 46 4d c4 3d 82 93 48 3d 73 a3 ce 3e 57 74 83 3e
       0.09585051 0.0489688 0.40359077 0.25674698
0002c0 9d 44 21 3f cc 4c 03 be 94 6b 79 bd fb f6 74 3d
       0.6299532 -0.12822264 -0.06089361 0.05980585
0002d0 07 0f 02 be 52 93 03 3d ef c6 2a 3e 3b d1 8d 3e
       -0.12701045 0.032122917 0.1667745 0.27698693
0002e0 db de 41 3e a0 1e c0 3d cd 59 e6 3d 49 2f d1 3e
       0.18932669 0.09380841 0.11247597 0.40856388
0002f0 e5 50 4c be 8d 13 99 bf 3a 14 fd 3d 79 26 a5 3e
       -0.19952734 -1.1959091 0.123573735 0.32255915
000300 d4 6d 98 3e 9d 6e 8a 3d 0f 34 e7 bd b3 85 b2 3e
       0.29771292 0.06759379 -0.11289226 0.3486763
000310 e2 bf d0 3d a4 c7 6d 3e ca 6f 9c 3d 4d eb c9 bd
       0.10192849 0.23220688 0.076385096 -0.09859333
000320 19 bf c6 bd 87 de 15 bf c0 18 5c 3e 47 cb 0f 3e
       -0.09704418 -0.58542675 0.21493816 0.14042388
000330 70 20 84 be bf 73 ca bc a7 99 45 bf 67 14 c7 be
       -0.25805998 -0.024713395 -0.7718758 -0.38882753
000340 88 9e f3 be 05 03 a3 bd 4d f3 fc 3d c8 d2 df bd
       -0.47581887 -0.0795956 0.123510934 -0.10928875
000350 95 bd c8 3d 03 2f 6b 3e 74 1c 9b 3d 3d 3b 9e 3e
       0.09801785 0.22967152 0.075737864 0.3090457
000360 1b 1a 83 3d c1 e5 8d 3d d6 87 47 3e bf b2 16 3e
       0.064014636 0.06928588 0.19485411 0.14716624
000370 2a 54 98 3c 68 55 ab 3d 4f cf 3f be 38 88 0f 3e
       0.01859482 0.08365899 -0.18731426 0.14016807
000380 fa 74 60 3e a1 bc ff 3c 23 38 e8 bd f9 81 03 3e
       0.21919623 0.031217875 -0.11338832 0.1284255
000390 3f c8 c4 3d cf 8d 90 3d 03 48 8a be 83 58 78 be
       0.096085064 0.07058298 -0.27008066 -0.24252515
0003a0 a2 32 8d be ca 4c 1d bd d5 2a 72 3e 98 4a 48 be
       -0.27577692 -0.03840331 0.23649152 -0.19559705
0003b0 af c4 a7 3e 6a 56 d6 be 0b ef 52 bf f4 2d d4 3d
       0.32767245 -0.41862804 -0.82396 0.10360327
0003c0 16 0b 93 be c5 fe 07 be f3 cb 42 be 7a cf 15 be
       -0.28719395 -0.1328078 -0.19023113 -0.14629927
0003d0 a1 fe 83 3e ec fe b1 3c 94 38 91 be 9b a3 c2 be
       0.25780204 0.021728002 -0.28363478 -0.38015446
0003e0 aa d9 91 3e 16 15 22 be 98 27 4d be 09 48 a0 be
       0.28486377 -0.15828356 -0.20034635 -0.31304958
0003f0 7c 0e ad be 43 30 e3 be 33 98 19 be 26 73 31 3e
       -0.33800113 -0.44372758 -0.14999466 0.17329082

t_conv2.bias f4 [16]
000000 a5 1b 47 3d f1 e5 cf 3c 4d 9e 08 3d a6 89 ce bb
       0.04861035 0.0253782 0.033354092 -0.00630303
000010 ad af 09 bd 7d 5a b5 3d ea 64 84 3d f1 09 6d be
       -0.033614803 0.0885515 0.0646456 -0.23148324
000020 dd 51 11 be a2 b4 d9 be 42 e8 08 3e 09 53 7d bd
       -0.14191385 -0.42520624 0.1336985 -0.061846767
000030 d8 64 64 3d 50 3b ae bd ae 50 87 3c c8 0d 30 be
       0.055760235 -0.08507407 0.016517963 -0.17192757

t_conv3.weight f4 [16, 32, 2]
000000 f1 4b 68 3e 0c 71 1e 3e 27 a9 2b 3e 84 1e 33 3e
       0.2268522 0.15472811 0.16763745 0.1749211
000010 79 a9 b2 bd 6b 06 ba bd 82 14 a6 bc 32 ac cd be
       -0.087237306 -0.090832554 -0.02027345 -0.40170437
000020 42 cc 08 be f4 4c bd be 9f e7 21 3e 09 d4 29 3e
       -0.13359168 -0.36972773 0.15811013 0.16584791
000030 bd bf 87 3d bf 27 81 3d 8d 0b 31 3e 14 65 9e 3c
       0.06628368 0.06306409 0.17289563 0.019335307
000040 01 d1 70 3e 4a 98 09 3d 03 43 2a 3d a1 5d 76 3d
       0.23517229 0.0335925 0.041567814 0.060147885
000050 c4 95 6c 3e fc fa 34 3e 97 df 95 3e fe c4 79 3e
       0.23104006 0.17673868 0.29272148 0.24391553
000060 6d 46 4f 3d 6c d2 7a 3e 40 79 db 3d b1 0a 9d 3e
       0.050604273 0.24494332 0.10716486 0.3067222
000070 83 e5 1d be 30 86 04 be b7 0c 28 3e fb 14 97 3c
       -0.15419583 -0.12941813 0.164111 0.018442621
000080 2c d4 c7 be 99 21 ed be f2 be 89 be 56 c8 2a be
       -0.39029062 -0.46314695 -0.26903492 -0.16677985
000090 af 4f 5b 3e 10 9a 90 3d ab 65 84 be 44 a1 fb bd
       0.21417116 0.07060635 -0.25858817 -0.12286618
0000a0 7a 35 0c bf 23 e1 28 be fd 89 61 3d c8 05 6d bd
       -0.547691 -0.16492133 0.055063237 -0.05786684
0000b0 9d 0c db ba 5c d8 da be 27 66 91 bd 79 31 2d bf
       -0.0016712133 -0.42743194 -0.07099562 -0.67653614
0000c0 6b 41 5a 3e e6 7b 76 3e e6 58 a8 3d 66 50 3b 3d
       0.21314017 0.24070701 0.08220081 0.04573097
0000d0 86 86 e2 3d 05 47 7c 3d c6 3d 9a be 4a 6a 79 be
       0.110608146 0.061591167 -0.30125254 -0.24356952
0000e0 36 69 90 bd 93 ef f7 3c fe 5f 09 3e 28 1b 77 3d
       -0.070513174 0.030265605 0.13415524 0.060328633
0000f0 30 16 e5 3c 07 05 26 3e f0 98 66 3d 13 82 9e bc
       0.027964681 0.16212855 0.056298196 -0.019349134
000100 a9 bf 96 3d ae 31 72 3e 2b 1c c2 bd 42 52 44 bd
       0.07360775 0.23651764 -0.09478029 -0.04793001
000110 73 df 47 bd 17 96 25 be 87 cf bf be 6d 88 d4 be
       -0.048797082 -0.16170536 -0.37463018 -0.41510335
000120 8b 9f ec bd 41 1a 07 3d 39 15 38 bc b6 ba f9 3d
       -0.11553868 0.032984022 -0.011235529 0.121938154
000130 9b 30 27 3e 2b d2 13 3e 06 85 16 3e dc 8d 31 3e
       0.16327135 0.14435641 0.14699182 0.17339271
000140 c5 13 0c 3e 5c dd 48 3e a8 e6 9e 3d d9 79 24 3d
       0.13679416 0.19615692 0.07758838 0.040155265
000150 fa 77 3e 3e 4a bd 9c 3d 90 36 5e 3e 7a 29 19 3e
       0.18600455 0.076532915 0.21700501 0.14957228
000160 d6 0a 3f 3d 76 9f 5c 3e b5 e0 be 3d 70 9a 63 3e
       0.046641193 0.21545205 0.09320203 0.22226882
000170 d7 2c 0f be 26 85 a1 be 4a 95 01 3e 4c e6 a7 be
       -0.13981949 -0.31546897 0.12654606 -0.3279289
000180 3e 75 78 3e f2 0e 54 3f b9 19 02 be b2 c9 bf 3d
       0.24263474 0.82835305 -0.12705125 0.09364642
000190 cf 07 02 3e 81 fb 71 3e e1 ce eb be 48 05 0b be
       0.12698291 0.23631097 -0.46056274 -0.13576233
0001a0 5d 44 f2 3e 79 e6 95 3e eb e3 e4 3d cc 2d f3 bd
       0.47317782 0.292774 0.111762844 -0.118739694
0001b0 fa 67 b7 3d 26 c8 f0 be df dd 60 bd d4 e6 ad be
       0.08955379 -0.470277 -0.054899093 -0.3396517
0001c0 d7 db df 3d 5f 1f 4c 3e 46 c9 8d 3e 68 3a aa 3e
       0.10930603 0.19933842 0.27692622 0.33247685
0001d0 28 9c 45 3e 41 64 4e 3e 1d 52 46 3e 5f 27 13 3c
       0.1929785 0.20155431 0.19367261 0.008981555
0001e0 28 f6 7a bd e6 b9 96 be 1f ff ad bd f6 78 c3 bd
       -0.06126991 -0.29438704 -0.08495926 -0.09544556
0001f0 c8 12 51 3d c5 44 3e bd 7c a7 fe bc 2c f6 a9 3d
       0.0510433 -0.046452302 -0.031085722 0.08298907
000200 39 07 bc 3d 9f b1 36 3e 7a 1c 17 3c 2c 62 f3 3b
       0.09181065 0.17841195 0.009223098 0.0074274745
000210 09 d5 fa bc 70 67 51 3e 4c 12 2a bf 4f 16 a9 3e
       -0.030619161 0.20449615 -0.6643417 0.33024833
000220 01 eb dc 3c 7d e8 83 be 30 5a 60 3d 50 28 0b bd
       0.026967527 -0.25763312 0.05477351 -0.033973992
000230 38 39 79 3c ec 7f 4f 3d 9b 90 6d 3d f4 5e 19 3d
       0.015211396 0.050659105 0.057999235 0.03744407
000240 df b0 43 3e 69 ae 67 3c 80 ca 37 3e 74 ce 5e 3e
       0.1911044 0.014140704 0.17948341 0.21758443
000250 bf cd 61 3c 94 32 13 3e 5a 7e b1 3b df 13 1d 3e
       0.013781964 0.14374763 0.0054166736 0.15339611
000260 79 fc 7c 3d 80 e5 4b 3e cd 10 67 bd c7 45 b2 3e
       0.061764214 0.19911766 -0.056412507 0.3481886
000270 61 cd 12 be 78 3b 54 be 88 9d ae bd 60 38 a3 be
       -0.14336158 -0.2072581 -0.085261405 -0.31878948
000280 71 5d 92 be f2 f8 8c 3e bc a5 75 bd 32 e5 d4 bd
       -0.28586915 0.2753368 -0.05997251 -0.10395278
000290 da 29 54 3d fc 09 6c 3e 85 d5 18 bd 5d bc a2 bd
       0.051797725 0.23050684 -0.037313003 -0.07946084
0002a0 2f 3e 5f bf 27 de e6 bd 31 4b 28 3d 00 c2 b1 bb
       -0.8720426 -0.11272841 0.041087333 -0.005424738
0002b0 46 47 35 3d 0d a5 83 3e 7c df 4d 3d 03 9c 9d 3d
       0.044257425 0.2571186 0.05026196 0.076957725
0002c0 d0 84 3b 3d 64 1a 06 3e 3f c0 32 3e 47 7c 53 3e
       0.045780957 0.13096005 0.17456149 0.20652877
0002d0 62 7e 29 3e 41 1a 04 3e 7f f6 c2 3d a0 5d 64 3e
       0.16552117 0.1290064 0.09519672 0.2230134
0002e0 e0 3e ed bd c6 04 e8 3d 60 5e 94 3e d0 5b 48 3c
       -0.11584258 0.113290355 0.28978252 0.012228921
0002f0 d6 c7 c0 bd a9 a2 14 3e 37 0e ab bd df 17 5f 3e
       -0.09413116 0.14515175 -0.08352321 0.2178645
000300 3f 93 bb 3c b5 48 47 be 35 22 b6 be 6d d6 49 3d
       0.02289736 -0.1946133 -0.35572973 0.049276758
000310 bc 28 9c 3d 96 30 08 3e 33 bb 63 3e d7 c0 52 3e
       0.07624957 0.13299784 0.2223938 0.20581375
000320 e6 10 23 be 0d 5f bd 3d 71 99 0e 3e 8c dd db 3c
       -0.15924415 0.09246645 0.13925721 0.02683904
000330 94 41 36 3e 4e 85 ab be 68 74 21 be 95 cc 04 3d
       0.17798454 -0.3350014 -0.15767062 0.032421667
000340 70 66 ae bd 5f e4 04 3d 76 b1 be 3d 1d 0c 51 3e
       -0.08515632 0.032444354 0.09311192 0.20414777
000350 f6 7e 22 3e f9 39 31 be e0 bd 16 3e 1b ce 2f 3b
       0.15868744 -0.17307271 0.14720869 0.002682573
000360 e7 62 8e 3d e4 5f 9d bd e1 fd 58 bd ed 96 12 3d
       0.06952458 -0.07684305 -0.052976493 0.035788465
000370 98 cb 10 3e 4d 51 68 3e 39 0d e7 bd eb db 2c bf
       0.14140165 0.22687264 -0.11281819 -0.6752307
000380 65 8d cb bf 78 bd 39 be c1 8b 5a 3e 4b c7 ab 3d
       -1.5902525 -0.18138683 0.21342374 0.083876215
000390 01 57 60 bc b4 84 d4 bc c0 21 89 3e d6 77 99 3e
       -0.013692618 -0.025942184 0.26783562 0.2997424
0003a0 09 9a 3b be e8 71 a0 bd 67 d8 ad 3e c0 7f 42 3d
       -0.18320478 -0.07834226 0.33954164 0.047485113
0003b0 71 ec f4 ba 1d 57 cb 3e 91 8d 0d be 1f 6e eb bb
       -0.0018686188 0.397149 -0.13823535 -0.0071847583
0003c0 f3 69 9b 3d aa 39 13 3e ce 2c c0 bd bc 40 3d 3d
       0.075885676 0.14377466 -0.09383546 0.046204314
0003d0 23 14 d4 3c 0b ad b9 bd 51 a5 22 be ed c3 cb 3d
       0.025888508 -0.090662085 -0.15883376 0.09949479
0003e0 e2 38 e7 bd 7d e3 28 bc be 3d 29 be 10 0e 5d bd
       -0.112901464 -0.010308144 -0.16527459 -0.05396849
0003f0 5a 3e aa bd aa e1 0d bf cf b0 38 3d b9 4f 0c bd
       -0.08312674 -0.5542246 0.045090493 -0.034255717

t_conv3.bias f4 [32]
000000 53 3b 1b 3e a6 d9 35 3d e6 ab 80 bd e3 c4 40 bd
       0.15159349 0.04439702 -0.06282787 -0.047062766
000010 44 da d8 bd de 87 8c 3d 52 1c 0a 3e 19 89 d0 3d
       -0.10588506 0.06861852 0.13487366 0.10182399
000020 65 cc 01 3e 37 d3 9c 3d ce e0 18 3e 75 53 b2 3d
       0.12675627 0.076574735 0.14929506 0.087073244
000030 92 d3 10 3e 9e 6b 0d 3e 9f d5 14 bd 68 aa 7e bb
       0.14143208 0.13810584 -0.036336537 -0.0038858894
000040 2f 90 30 3e 53 cd bd 3d cd 92 3b 3e 92 22 d0 3a
       0.17242502 0.09267678 0.18317719 0.0015879443
000050 ac 18 08 3e 37 df f2 be 17 1a a6 be 0b da 4d be
       0.13290662 -0.47435924 -0.3244178 -0.20102708
000060 53 f4 d6 3d 38 f0 3b 3c 65 db 97 3c cb 2d 8d 3b
       0.1049582 0.011470847 0.018537233 0.0043084375
000070 f0 f8 a5 be 60 2d 96 be ad 6d ae be d5 2e ff bc
       -0.32416487 -0.29331493 -0.3406805 -0.031150261

conv_out.weight f4 [1, 32, 3]
000000 bf 60 e8 bd ea 36 f9 bd 60 98 98 bd 60 1c 4f be
       -0.11346578 -0.12168677 -0.07450938 -0.20225668
000010 e4 e6 73 bd 91 35 e3 3c 0a 84 75 3e 5c bc 0a 3e
       -0.059546366 0.027735503 0.2397615 0.13548416
000020 1b eb f0 3c 7e f7 9c 3c 68 b9 0c bf d3 27 00 bf
       0.029408982 0.019160982 -0.5497041 -0.50060767
000030 a7 9c e4 be 63 d4 4b bf e1 e0 24 bf 9e 4f c4 bd
       -0.44650766 -0.7962095 -0.6440564 -0.09585498
000040 77 1a 12 bd 73 f1 df bd 84 8c 98 3a 77 a6 1b be
       -0.03566977 -0.10934725 0.0011638557 -0.1520022
000050 12 ce d4 bd 7d 27 dd bd 03 96 18 3d b3 e1 30 be
       -0.10390867 -0.107985474 0.037252437 -0.17273597
000060 6e 8c 1f be e5 86 bb 3b 66 51 1d be 7e 56 2d be
       -0.15580913 0.005722868 -0.15363082 -0.16927525
000070 46 20 b7 3c 6e 31 fe bd 8e c8 a6 bc 2e ea 14 be
       0.022354256 -0.12411772 -0.020359304 -0.14542457
000080 06 2e 31 be c8 8c 60 be ae 68 2b be 21 75 1e be
       -0.17302713 -0.21928704 -0.16739151 -0.15474369
000090 9e 8e 3e be 23 8f 2d be 16 7e 42 bd e3 00 85 be
       -0.18609092 -0.16949134 -0.047483526 -0.2597724
0000a0 38 05 a2 bd 19 c2 22 3c 66 88 4d 3e 4d a2 88 3d
       -0.07911152 0.009933972 0.20071563 0.066715814
0000b0 32 d6 76 3e 5f 77 38 3e bf 9c dc bd 23 6f 69 be
       0.24105147 0.18014286 -0.107720844 -0.22796302
0000c0 8d 51 5a 3e b2 0a 85 3d 20 45 8b be 7f 49 4f 3e
       0.21320172 0.064961806 -0.27201176 0.2024288
0000d0 d6 cf 04 3e 86 aa 97 3e ee 5b 34 be c6 df b8 bd
       0.12969908 0.29622287 -0.17613193 -0.090270564
0000e0 db c2 3a be 36 6e fd 3d 0c 64 0c 3e f0 12 52 3e
       -0.18238394 0.12374537 0.1371004 0.20515037
0000f0 81 a1 3c 3e 68 f0 5c 3d c6 c4 8c be 86 18 05 3f
       0.18420984 0.053940207 -0.27493876 0.51990545
000100 9f df 90 3f 0d 07 7f 3f de fe 33 bf 9f e8 ee bf
       1.1318244 0.99620134 -0.7031077 -1.866474
000110 ea e8 4e bc cf dd 52 3e f6 93 46 3e 13 06 9c 3e
       -0.012628773 0.20592426 0.1939238 0.30473384
000120 24 82 2d be 1b 48 c0 bc 9b cf 07 be e0 08 bf be
       -0.16944176 -0.023471883 -0.13262789 -0.3731146
000130 8c f7 11 be cd 75 b6 bd 9b d7 e9 bd db 05 9b 3c
       -0.14254588 -0.089091875 -0.114180766 0.01892369
000140 0c 32 18 be 53 7f 43 be d9 24 77 3e 86 dc 03 bd
       -0.14862841 -0.19091539 0.2413515 -0.03219273
000150 d8 8d 06 3f 79 e2 22 3f c2 63 e5 3e bb 88 75 3e
       0.52560186 0.6362682 0.44802672 0.2397794
000160 26 1f 00 3e 1b 4f 33 3f 1d 07 96 3f 32 51 8f 3f
       0.12511882 0.7004258 1.1720921 1.1196654
000170 0c c6 72 3f 54 ef 54 be 19 85 5c bd 25 28 c1 3d
       0.94833446 -0.20794421 -0.05383787 0.09431485
