dAE_PyTorch/checkpoints/spectra_dae_epoch_13.pth (torch, 18875 bytes, 13 tensors)

conv1.weight f4 [32, 1, 3]
000000 99 e0 1d 3f 25 9f 0c 3f 78 3d ee bd 41 e6 e8 bd
       0.61670834 0.54930335 -0.11632818 -0.113720424
000010 00 0d 2a be 18 b3 00 3f e5 ae 24 bf 5e 95 20 3f
       -0.16606522 0.50273275 -0.6432937 0.62727916
000020 32 4f 6b 3c 73 6f db bc f6 52 1d bd 91 20 4a 3f
       0.014362143 -0.026786542 -0.038409196 0.7895594
000030 9d b5 06 3f 96 07 ef bd c6 1d 36 be ac 16 d9 3b
       0.5262087 -0.11671369 -0.17784795 0.006625017
000040 e2 f8 33 bf 38 02 e8 3e 95 9d 0e bf e1 8e 17 bf
       -0.7030164 0.45314193 -0.557092 -0.5920239
000050 e5 6f 93 3e 40 c7 2f 3f e8 c6 2d 3e c6 e3 13 bf
       0.28796306 0.68663406 0.16970408 -0.5776943
000060 0d 10 43 bc a0 e5 82 bf 61 b2 95 3b 9a 50 6d 3c
       -0.011905682 -1.0226326 0.0045683836 0.014484549
000070 8d 6f cc 3e f6 06 fc 3e 1f 04 ef be f8 8e 9a 3e
       0.39928856 0.4922406 -0.46682832 0.30187201
000080 6f 1b 16 bf 7c b2 1a bf 51 ef 77 bc b3 b2 18 3f
       -0.5863561 -0.60428596 -0.015132741 0.59647673
000090 48 71 6d 3e 6d e2 05 3e 3a 15 d0 3e b6 72 02 3f
       0.23187745 0.13074656 0.40641195 0.50956285
0000a0 c7 7d cc be f5 b7 33 bf 6e 5e 16 3f b9 b7 91 bd
       -0.3993971 -0.7020257 0.5873784 -0.071151204
0000b0 7e f9 86 3e 0d e4 40 be c1 7d 30 3f cf 7b bf be
       0.26362222 -0.18836994 0.68941885 -0.37399146
0000c0 f8 ef 63 b9 d0 e1 94 bf 1c a3 b1 b9 de a6 92 3e
       -0.00021737802 -1.1631413 -0.00033881597 0.28642935
0000d0 75 1b 77 3e 82 fe 8d 3e 82 9b 70 bf 9a 6d a5 3d
       0.24131568 0.27733237 -0.93987286 0.080775455
0000e0 62 b9 3d 3d fe 19 b7 3e 27 d7 6a 3e b0 8b 9d 3e
       0.046319373 0.35762018 0.22933637 0.30770636
0000f0 75 83 00 3e 6f 3d 83 3e 95 66 08 be 59 83 5c bf
       0.12550147 0.25632808 -0.13320382 -0.8613792
000100 e5 90 5f 3c c5 f7 65 3b 94 ee 46 3f 19 b5 a8 be
       0.013645385 0.003509031 0.7770779 -0.32950667
000110 d1 00 06 be c4 a1 f5 be 5d 06 24 bf a6 0e 24 bf
       -0.13086249 -0.4797498 -0.6407221 -0.6408485
000120 15 e5 01 bf 75 46 29 bf 24 ef 62 3d 9a b2 d6 be
       -0.50740176 -0.66123134 0.055403844 -0.41933137
000130 c0 b9 d6 be 1e 68 0f bf 60 e4 ad be d6 0c fc be
       -0.4193859 -0.56018245 -0.339633 -0.49228543
000140 46 cd c3 be 59 57 2b 3e 6c fa a9 3e 0f 0e bd bf
       -0.3824255 0.16732539 0.3319887 -1.4769915
000150 b5 13 84 be db ec 9f be 98 98 39 bf 1e b7 66 bd
       -0.25796285 -0.31235394 -0.72498465 -0.056326978
000160 cf ca 63 3e 78 58 5a bf 1d 03 b0 bc de 73 50 3f
       0.22245334 -0.8529124 -0.02148586 0.814268
000170 54 3a ea bc 27 ce a6 bf 3f cf 60 3e 11 97 e7 3d
       -0.028592266 -1.3031663 0.21954058 0.113081105

conv1.bias f4 [32]
000000 c2 dd 57 be c1 dc 95 bd 62 3d 18 bd fe 2d 35 bf
       -0.21080688 -0.07317496 -0.037167914 -0.70773304
000010 cb d9 94 be 19 1b d4 38 dd 53 63 3e 64 79 6c be
       -0.29072413 0.00010113995 0.2219996 -0.23093182
000020 cc 73 57 3e d6 6a a6 be 67 25 b0 3e 7c 41 af bd
       0.21040267 -0.32503384 0.34403536 -0.08557412
000030 28 eb df be 06 96 11 3e 0f 43 6a be e9 22 de be
       -0.43734097 0.14217386 -0.22877143 -0.4338601
000040 a8 d1 b3 3d 31 eb 7a be 09 e7 a6 3e a4 5d 28 bf
       0.08780223 -0.24503781 0.3259814 -0.65767884
000050 5d 17 21 be d7 f4 87 3e f4 69 be be 24 d2 66 bd
       -0.15731569 0.26553985 -0.3719021 -0.05635275
000060 ca ac 25 3f 5e 66 e0 bc d1 2f e2 3e bf 71 07 be
       0.6471678 -0.027392562 0.44177106 -0.13226984
000070 3f a5 a5 be b2 93 73 3e 09 da 3e bf 46 2e a3 bd
       -0.32352635 0.2378681 -0.74551445 -0.0796781

conv2.weight f4 [16, 32, 3]
000000 af c6 34 bd 25 1f d1 3d ca 36 b2 3c 18 80 57 3d
       -0.044134792 0.102110185 0.021754641 0.052612394
000010 86 92 2b be c2 9f 78 3e 8d 8e 81 3e 6b 1b f1 3d
       -0.16755113 0.24279693 0.2530407 0.11772808
000020 a4 8f 71 3d ea 43 13 3f 1c e4 9c 3f 89 47 24 40
       0.058974877 0.57525504 1.2257113 2.5668662
000030 b0 61 f6 bc 15 e7 ec bc 14 f0 7e 3d fb 4c ef be
       -0.030075878 -0.028918782 0.062240675 -0.4673842
000040 9f 87 54 be e0 91 12 be 4b a0 7a be 65 9b 81 be
       -0.2075486 -0.1431346 -0.2447521 -0.2531387
000050 da 4a 4e be 15 33 29 be d2 9f 1f 3e cd b2 83 be
       -0.20145741 -0.16523392 0.1558831 -0.25722352
000060 de 5b 19 be 51 9d 38 bd 19 98 46 be 95 f5 f4 3c
       -0.14976451 -0.045071904 -0.19393958 0.029902259
000070 0e 5b 2d 3d 89 1f d2 3e 91 e6 bd 3d 7b 99 13 3e
       0.042323165 0.41039684 0.09272493 0.14414017
000080 c6 91 18 bf 61 7f 82 3e b7 4d d5 3e d6 8f 8d 3d
       -0.5959743 0.25487807 0.41660854 0.069122
000090 6a 3a 8d bc 7d 3f 75 3e b8 c9 1f 3f dd 05 1f bd
       -0.017239768 0.2395 0.62417173 -0.03882395
0000a0 4f 22 86 3e 01 34 e9 be 4e e2 0c be 44 18 25 3d
       0.2619805 -0.45547488 -0.13758203 0.040306345
0000b0 cf 1e 79 3e ec 16 16 3e b6 7f b8 3d fa 8e 3e 3d
       0.24328159 0.14657182 0.09008734 0.04652307
0000c0 f3 33 90 be 60 81 ab be d7 8a 79 be 54 21 26 be
       -0.28164634 -0.33497143 -0.2436937 -0.16223651
0000d0 8f a7 ac 3d fd 84 47 3e 31 41 72 3e 5e f9 f3 3d
       0.08430397 0.19484325 0.23657681 0.119127974
0000e0 3f bf 0e be 3b 93 96 be f8 41 0a 3f 5e 2c 80 3e
       -0.13940142 -0.29409203 0.5400691 0.2503385
0000f0 66 45 80 be 03 93 79 3e fd 4b 17 bd 9f 8b df bd
       -0.25052947 0.24372487 -0.036937702 -0.109153025
000100 e2 d4 12 be 36 2b 56 3e e6 d5 a8 be ce 6a 81 bd
       -0.14339021 0.20914921 -0.32975692 -0.063191995
000110 80 53 08 be e4 70 c4 bd 3b 5a d1 bd 2e 68 5b be
       -0.13313103 -0.09591845 -0.10222288 -0.2142646
000120 e7 3a 18 bb 05 84 dc bc 37 4e 81 be 71 82 d5 bd
       -0.0023228468 -0.02691842 -0.25254986 -0.1042527
000130 95 a2 65 be 0e 91 7e be b9 b0 80 3e a8 94 dd be
       -0.22425301 -0.24860021 0.2513483 -0.43277478
000140 e4 02 20 be 7a 52 5a be 45 06 10 3d 28 a8 a1 be
       -0.15626103 -0.21320525 0.03516223 -0.31573606
000150 b3 f8 90 bc 45 da c6 bc 54 f9 a1 be e1 77 7c bc
       -0.017696714 -0.024274 -0.31635535 -0.015409441
000160 0f 3e 90 3e 64 84 ad bf a3 58 38 3f 56 a1 ff 3e
       0.28172347 -1.3556027 0.7201025 0.49927777
000170 ff 9a cb 3f 31 c5 fe be 06 39 82 be 46 4b da bd
       1.5906676 -0.4975982 -0.2543413 -0.106588885
000180 1b ad cb bb 12 65 08 3d 27 73 e2 3d fd 6f 7a be
       -0.006215704 0.033299513 0.1105712 -0.24456783
000190 e4 be 83 bd 77 2d a5 3e e9 8c 63 be 01 a9 2e 3e
       -0.06432894 0.3226125 -0.22221722 0.17056657
0001a0 ff e0 35 3c 3d 49 c4 3e d4 57 42 be ea 6b 6d 3f
       0.0111010065 0.38337126 -0.18978816 0.9274279
0001b0 31 43 1a 3e 87 2a b8 3b d4 56 4c be 73 1d a2 3c
       0.15064694 0.005620304 -0.19954997 0.019789433
0001c0 8f 2f 33 3e 10 fd 4f 3d 99 b5 4f 3e 0b 3a f7 bd
       0.17498611 0.05077845 0.20284118 -0.12071618
0001d0 10 da d3 3d 9f 37 54 3e ed 23 d7 bd 59 04 04 bf
       0.103443265 0.20724343 -0.10504899 -0.51569134
0001e0 47 ae 88 3e bb ee 90 3e cb bc c9 3d e5 d1 62 bd
       0.26695463 0.28307137 0.098504625 -0.055375952
0001f0 8e ae 5e bd e0 9e b6 3e b5 c4 fd bd 53 c2 57 3e
       -0.054365687 0.35668087 -0.123910345 0.21070223
000200 08 51 c0 be 75 42 8c be 9c 41 f4 3e 11 f0 0d 3e
       -0.37561822 -0.27394453 0.47706306 0.1386111
000210 a4 52 99 bd 1e 81 be bd 7d 1d 82 3e 2f 1a f8 3c
       -0.074864656 -0.09301971 0.25413123 0.030285923
000220 fd 40 18 3f 9a 33 55 bf 25 81 67 3d f0 ea 11 3d
       0.59474164 -0.8328186 0.056519646 0.035624444
000230 a7 fc 14 3e 56 1f 43 3e 6c 2a 17 3d 9d 0e ff bd
       0.14549504 0.19054922 0.03690569 -0.12453959
000240 c2 74 0d be 77 97 2d be 91 52 86 be 64 04 01 bd
       -0.13814071 -0.1695231 -0.26234868 -0.031498328
000250 4c b9 11 3d e1 f2 6d 3e 2a e3 13 be 7f cd 06 3e
       0.035577103 0.23237182 -0.14442125 0.13164328
000260 52 57 4a 3e 0a 90 0f bf 47 f9 04 bf 78 47 68 be
       0.19759873 -0.5607916 -0.5194287 -0.22683513
000270 aa c6 81 3e 75 34 af be ed 4a 65 be b4 cb ca 3e
       0.2534688 -0.3421971 -0.22391863 0.39608538
000280 4e aa 8d 3d 16 5d 8e 3c 89 31 98 3e 4a 7c 2b bd
       0.06917249 0.017378371 0.29725292 -0.04186658
000290 85 42 13 bf 1e 94 c3 bd 32 ed 12 be f2 15 0e be
       -0.57523376 -0.095497355 -0.14348295 -0.13875559
0002a0 79 dd 3a be 4b b5 2e bd de 39 15 be 78 41 ed bd
       -0.18248548 -0.042653363 -0.14572856 -0.11584753
0002b0 e0 77 ea bd 48 aa 28 be 3c f3 e5 3e fb dc ca 3c
       -0.114486456 -0.16471207 0.44912136 0.024763575
0002c0 7e 6b 89 be a6 90 8a 3c 6e 50 00 be 09 b6 77 be
       -0.26839823 0.016914677 -0.12530681 -0.24190535
0002d0 4d e4 1d 3c a5 75 1c bd 1b 90 5e be b0 c4 80 3c
       0.009636951 -0.038198132 -0.2173466 0.015718788
0002e0 e8 f0 d4 3e 52 ff 5a bf 74 e5 2b 3f 9d 8a d3 bd
       0.41590047 -0.8554584 0.6714699 -0.10329173
0002f0 ed 4c e5 bd c7 2a 9a be a3 86 8c 3e aa bb 90 3e
       -0.11196313 -0.30110762 0.2744647 0.28268176
000300 79 d2 d2 bd 2f 16 e6 3d b6 aa b3 bd 4b 6e a7 be
       -0.10294051 0.112347 -0.08772795 -0.32701334
000310 42 75 4f be 06 3d 52 3e 9c 4c 0e be de 0f de bd
       -0.20259574 0.20531091 -0.13896412 -0.1084287
000320 4d b9 c0 3c 42 2f cb be e7 56 01 bf f0 22 13 3e
       0.023525858 -0.39684492 -0.5052323 0.14368796
000330 58 91 84 be 41 fe 43 be eb 45 a1 3e 9a a2 0a bf
       -0.25892138 -0.19139959 0.31498656 -0.5415436
000340 33 dc be be 34 67 d9 3d d0 52 27 bd 09 76 27 bc
       -0.37277374 0.106153876 -0.04085046 -0.010221013
000350 40 0d 26 bf 44 91 7c 3d 07 eb 48 be 8e 46 49 3e
       -0.6486397 0.061661974 -0.19620906 0.1965582
000360 10 28 a0 be 38 45 7e be fa 09 0a be 3a 2a 97 bd
       -0.31280565 -0.24831092 -0.13480368 -0.07381101
000370 38 75 0f 3e 96 a0 a2 3d 31 42 60 3e 19 2e 97 3e
       0.14009559 0.079407856 0.2190025 0.29527357
000380 27 56 28 bf c1 81 3c 3e 60 09 83 be 62 18 dd bd
       -0.6575646 0.18408872 -0.2559309 -0.10795666
000390 f1 2f 3f bc 72 e0 e6 3d 9e a8 36 3e 7b 7b 40 be
       -0.011669145 0.11273278 0.1783776 -0.18797104
0003a0 50 3d c2 3f 6d e5 cc be ce 42 b1 3a 3c f4 94 3b
       1.5174961 -0.40018788 0.0013523938 0.0045457166
0003b0 28 01 0c 3e ba 50 b8 bd ca a3 31 be d4 32 df 3e
       0.13672316 -0.08999772 -0.17347637 0.43593466
0003c0 65 4b f8 3f 6b ab 53 3e aa 16 0e 3f 35 17 28 3d
       1.9398009 0.2067086 0.5550333 0.041037757
0003d0 08 f4 37 3e 0e 9a d1 bc 80 2c 3a 3d 75 98 af 3c
       0.17964184 -0.025586154 0.045452595 0.021435002
0003e0 26 ee 59 bf d9 06 de bd 02 b2 eb bd 6a 45 b6 3e
       -0.8512901 -0.1084115 -0.11508562 0.35599834
0003f0 9e 44 e7 bd 04 86 01 be eb 65 24 3e ec b4 6c 3d
       -0.112923846 -0.12648779 0.16054504 0.057789728

conv2.bias f4 [16]
000000 73 ed e7 bd c3 3c 77 bd cf 42 7a 3d 6b 28 40 bd
       -0.11324587 -0.06036068 0.06109887 -0.046913546
000010 94 d9 e2 3d ac 20 5d bd c5 0f 07 be 6b 89 57 bd
       0.11076656 -0.053986236 -0.1318961 -0.052621286
000020 93 cb 34 3e 2b 6c 8d 3c 96 1c 57 3d 4f 9a 09 3d
       0.17655782 0.017263493 0.052517496 0.033594426
000030 c2 93 71 3d cf 87 d2 be d5 72 67 bd 51 f2 6a 3e
       0.058978803 -0.4111924 -0.056505997 0.22943999

conv3.weight f4 [8, 16, 3]
000000 40 a4 59 be 14 7c 23 bd 22 5b b7 be f0 6c c0 bd
       -0.21254063 -0.039913252 -0.35811716 -0.09395778
000010 9f 8e 23 3e 55 0e b3 be 8e 34 77 3f ad cd 35 3e
       0.15972374 -0.34971872 0.9656457 0.1775424
000020 9c 02 9a 3f 84 78 20 3e 00 b0 0e be fd f5 07 bd
       1.2032046 0.15670973 -0.13934326 -0.033193577
000030 d4 66 4a 3d 0e 5c 82 bd 15 80 a1 3e e6 63 6b 3e
       0.04941447 -0.06365214 0.3154303 0.22987327
000040 e0 bd 24 be e0 de 1a be 98 4c 7f be 00 2c df bd
       -0.16088057 -0.15124083 -0.24931562 -0.10897064
000050 b6 fa e5 be 68 a7 b6 3e 2a 51 9e bd f5 e9 b1 3e
       -0.4491784 0.35674596 -0.077303246 0.34748808
000060 6c 58 28 3e 09 58 1d 3e e7 a9 20 3e b3 8f cc 3d
       0.1643998 0.15365614 0.15689813 0.09988346
000070 9d 02 3f 3e 08 7d a1 bd d1 4f b0 3e cc 2a f0 3d
       0.1865334 -0.07885176 0.34435895 0.11726913
000080 23 65 d4 3e b0 a1 a7 bf ea 28 75 be 34 2a a6 be
       0.4148341 -1.3096218 -0.23941389 -0.32454073
000090 db 52 64 3e d9 08 f6 3d 8d 0c 82 3c 72 96 a7 3d
       0.22297232 0.12013406 0.015875125 0.08182992
0000a0 64 a0 1d bf 88 18 eb be f0 d1 70 3e 39 14 d4 bd
       -0.6157286 -0.45917153 0.23517585 -0.1035542
0000b0 ee a1 55 be 8c 76 fa 3d e2 56 ca 3d 85 92 16 3f
       -0.20862553 0.12229642 0.09879853 0.5881732
0000c0 76 d9 41 3d 25 68 9d bd 2d 66 96 3e b0 1d 31 3e
       0.047326528 -0.076858796 0.2937483 0.17296481
0000d0 7d e5 d7 bc 36 b4 22 3e 5d bc 9c 3e 2b e4 43 be
       -0.026354546 0.15889058 0.3061246 -0.19130008
0000e0 1c 57 db 3d 8d 08 02 be ca 4a 3d 3d b3 41 c6 bd
       0.10709974 -0.12698574 0.046213903 -0.096805
0000f0 be ff 10 3d 08 6a e2 3c 2b b1 0f be 3b f8 3a be
       0.035400145 0.02763845 -0.14032428 -0.18258755
000100 4b 8a bd 3d 43 08 07 bd 63 86 eb 3d 43 ba 29 3e
       0.09254893 -0.032966863 0.115002416 0.1657496
000110 79 32 8b 3d 30 65 fa 3b ff 50 5b bd 21 3c ca bd
       0.06796736 0.007641457 -0.05354404 -0.0987475
000120 02 a2 72 be b7 fa 80 bc ac 77 68 be 55 f0 8e 3e
       -0.23694614 -0.01574455 -0.22701901 0.27917734
000130 83 34 39 3e 34 2f ca 3d c9 6d 11 bd ab 3d 36 be
       0.18086438 0.098722845 -0.03550509 -0.17796962
000140 f9 9b 83 3d d2 a2 d1 3f c3 c7 c0 3e fa e7 97 3f
       0.06426234 1.6377814 0.37652406 1.1867669
000150 c5 de 84 3e 70 27 8b 3e f9 49 b5 3e f3 98 85 3c
       0.2595121 0.27178526 0.35408 0.016308283
000160 22 81 0e 3f f2 a7 05 3f af 57 c9 3d c7 1c 1c 3e
       0.5566579 0.5220939 0.098311774 0.15245353
000170 dd f0 4a bb 1b 16 d8 bd 6d 46 5b 3d 05 20 99 bd
       -0.003096632 -0.10551091 0.05353396 -0.0747681
000180 76 eb a0 3e 68 e5 8f 3e 1b f4 ba bd c9 f7 59 be
       0.31429642 0.2810471 -0.09128591 -0.21285929
000190 b4 9b 0f 3e 5e a5 91 3e 71 1e 08 3f 62 7a 96 bf
       0.1402424 0.28446478 0.5317145 -1.1756098
0001a0 70 8e e3 3f dc f4 27 3e d7 d9 d6 bd 2b 17 c0 3c
       1.7777843 0.16402 -0.104907684 0.023448547
0001b0 44 6a 2f bd 6f d1 02 be 07 e7 88 3d 72 9b f4 3e
       -0.042825952 -0.12775205 0.0668469 0.47774845
0001c0 f5 8c 3f be 22 d6 55 3e 54 b2 cf be 82 e6 31 3e
       -0.18706115 0.20882466 -0.4056574 0.17373088
0001d0 fb 02 0f bd 2a ce f2 3d 82 6e a1 3d 7f d6 89 be
       -0.03491495 0.11855729 0.07882406 -0.2692146
0001e0 c7 18 c9 3e 5b 7e 21 3c 47 f2 3f 3e 50 43 bd bc
       0.39276716 0.009856786 0.18744765 -0.023103386
0001f0 17 09 19 3e ef fc a7 3e 8e 41 0c 3f 4b 2c 1e 3e
       0.14944874 0.3281016 0.5478753 0.15446584
000200 4f de 8d 3e 26 f7 99 bf 14 bd 0b 3e 21 99 5c bf
       0.2770867 -1.2028549 0.13646346 -0.86171156
000210 86 9e 53 bd c3 9c 9d bd ad ce 82 be 22 d2 7a be
       -0.05166485 -0.076959155 -0.25548306 -0.24494222
000220 62 a7 cc be 76 32 55 be ff dc 8f be 28 e9 4e 3d
       -0.39971453 -0.2082003 -0.28098294 0.050515324
000230 f9 69 16 3e a0 c7 8c 3e b7 5d b5 bd ce 37 cb 3d
       0.14688863 0.27496052 -0.08855765 0.09922753
000240 52 51 d6 bb 97 45 b3 bd 1f fb e7 be ec 28 f5 3d
       -0.006540456 -0.087535076 -0.45308778 0.11970696
000250 3e 51 4b 3d cf 53 55 3e 2f b5 c5 be 16 49 16 3f
       0.049638025 0.20832752 -0.38614795 0.5870527
000260 46 6e a8 3f f0 cc cb bd 43 9e a7 bc 06 46 68 3e
       1.3158653 -0.09951198 -0.020461207 0.22682962
000270 35 90 73 bd 9c f1 f5 bc 6f d1 80 3e 22 b1 d8 bd
       -0.0594637 -0.030022435 0.25159785 -0.105806604
000280 49 5b 97 bd 32 83 c0 3e f5 ae 19 3e cf c9 62 3d
       -0.07390458 0.37600094 0.15008147 0.05536824
000290 89 90 0f be 5c 87 3f 3d d7 ba c1 3d f4 15 a2 be
       -0.1401998 0.046759948 0.09459465 -0.31657374
0002a0 8f be ee bd 87 b3 16 3e 90 85 ba 3d a6 32 b6 3d
       -0.1165744 0.14716922 0.09107506 0.08896379
0002b0 aa e2 62 bd d3 54 14 3f ae 46 5d 3e 4f b6 3d 3d
       -0.055391945 0.5794193 0.21608993 0.04631644
0002c0 97 f6 5b 3f ff 5f 17 bf ba 4e 36 bf 94 40 b9 bf
       0.8592314 -0.59130853 -0.7121388 -1.4472833
0002d0 66 10 8d bc 23 8e 04 be cb 5c c3 bd 4d 11 4c 3a
       -0.017219733 -0.12944846 -0.09539183 0.00077845604
0002e0 ce 4f 3c bf 25 bb a8 bd c9 7b 89 3e 51 b0 26 bd
       -0.7355927 -0.0823882 0.26852253 -0.040695492
0002f0 79 f5 38 3e 48 18 79 be d5 63 16 3d 34 c5 60 3e
       0.1806239 -0.24325669 0.0367163 0.21950227
000300 ea 06 e3 bd 9a c7 8a 3d 63 9c 0d be b1 26 82 3e
       -0.11085303 0.06776352 -0.13829188 0.25420144
000310 98 bb 1f 3d 3b 2d cb bb a5 01 8a 3f 14 0b 6f 3e
       0.038997263 -0.0062004603 1.0781752 0.2334407
000320 0e 66 92 3e 37 af e9 be 14 e5 5d bd 81 01 d0 3c
       0.28593487 -0.4564149 -0.054173544 0.025391342
000330 1d b3 ad 3e f4 e3 16 be 4f e0 22 3d 61 7a 54 bc
       0.33925715 -0.14735395 0.0397647 -0.0129686305
000340 a2 5e 04 3e cf 1d d1 3d f6 fd d2 3e 33 b9 00 3e
       0.12926725 0.10210764 0.41209382 0.12570648
000350 df d9 15 3e 21 ab 09 bf 32 6e 43 be ad 5b 35 3d
       0.14633892 -0.53776747 -0.19085005 0.044276882
000360 bb 01 0f be db b7 20 3b 56 f9 95 be d8 38 8b 3d
       -0.13965504 0.002452365 -0.2929179 0.067979515
000370 f1 7b c0 3d c5 8c 4c 3d 42 e3 1a 3f 22 c2 4d be
       0.0939864 0.049938936 0.6050302 -0.20093587
000380 81 ca 01 3e 96 46 a8 3f 81 54 05 3f 6b 62 b6 3f
       0.12674905 1.3146541 0.5208207 1.4248785
000390 49 41 ab 3e 3d 80 01 3e 62 f4 98 3d fe 10 40 3f
       0.33448246 0.12646575 0.07468487 0.7502593
0003a0 79 85 11 3e 5d 94 b0 bd 60 28 f6 3e af f9 8b 3c
       0.14211072 -0.08622048 0.4807768 0.017086832
0003b0 d0 59 b6 3d 92 97 aa be 20 fe 31 be 74 67 d2 bd
       0.08903849 -0.33318764 -0.17382097 -0.10273638
0003c0 27 b0 48 3d 54 a3 93 3e e0 a9 94 be 5e 31 fb bd
       0.048996117 0.28835547 -0.29035854 -0.122652754
0003d0 3c d2 0b 3c 9c 77 94 be 9c c0 76 3f 41 96 d5 3e
       0.0085340105 -0.28997505 0.9638765 0.41716197
0003e0 d7 93 95 3e 43 11 b3 3e 73 1c 55 3e 1b 02 71 3e
       0.29214355 0.34974107 0.20811634 0.2353596
0003f0 0f ba 0e bc 9b 53 ca 3d 45 60 1a 3f 86 e9 92 3e
       -0.008711352 0.09879228 0.60303146 0.2869379

conv3.bias f4 [8]
000000 46 1c 70 3e 76 9e 8a 3e 2a d8 22 3b 88 44 7b bc
       0.23448285 0.2707402 0.0024848082 -0.015336163
000010 ca a0 81 bd f7 0a 0d be 9b 3a 64 be 8b 5d 40 3e
       -0.06329496 -0.13773714 -0.22287981 0.18785684

t_conv1.weight f4 [8, 8, 3]
000000 dc 0c 7d bf f9 83 c9 be cb bb c1 3e 67 70 a2 be
       -0.98847747 -0.393585 0.37838587 -0.3172638
000010 09 90 7d bd 6a 70 dd bd c4 f1 2e be e1 fe ba be
       -0.06190494 -0.10812457 -0.17084414 -0.36522582
000020 41 c5 47 be fd ca b4 bf 5c de 9c 3e d0 61 a4 3e
       -0.1950884 -1.4124447 0.30638397 0.32105875
000030 31 4c e0 3e 9f 91 7d 3e 67 ce 91 3d 6b 1e 8c 3c
       0.4380813 0.24762581 0.07119446 0.017104348
000040 7e b8 89 3b 39 18 82 c0 e3 07 ac 3d 7a 6a 93 3e
       0.0042029014 -4.065457 0.08399942 0.28792173
000050 18 68 88 3e 47 2c 43 bc 93 9a fb 3e 36 62 59 3e
       0.26641917 -0.011912412 0.49141368 0.21228871
000060 e6 a8 d5 bd 07 d3 a2 3d b1 8b ae 3e c5 b0 50 be
       -0.104326054 0.079504065 0.3409095 -0.20379932
000070 6d cf 07 bd b5 94 c3 be 71 b5 85 3e a5 93 7f 3e
       -0.0331568 -0.38199392 0.2611499 0.24958666
000080 83 f4 74 3e da 2d 9d bc 4f c7 99 be 4b 50 a5 be
       0.23921399 -0.019186903 -0.30034873 -0.3228782
000090 06 4e a8 be de 37 d3 be 3b 51 b2 3c 08 4c 84 3e
       -0.32872027 -0.4125356 0.02176725 0.25839257
0000a0 5e 54 30 bd cc 7b 12 c0 af 84 76 be cd f7 16 bf
       -0.04304921 -2.288806 -0.24074052 -0.58971864
0000b0 fb 29 a6 bd 41 69 d7 3e 57 78 02 bd 70 38 f8 be
       -0.08113476 0.4207249 -0.031853046 -0.48480558
0000c0 ff d8 84 bf b4 18 50 3e 00 cb 0f 3f aa 09 40 3e
       -1.0378722 0.20321923 0.5616913 0.18753687
0000d0 1d 8e 03 3e 16 53 7e 3e 46 cb a4 3d 64 f1 93 be
       0.1284718 0.24836382 0.08046584 -0.28895104
0000e0 ff 3c 91 bc eb 95 f4 3e 62 fa a0 3c f5 7b 21 3f
       -0.01772928 0.47770628 0.019650642 0.6307977
0000f0 07 6c 26 3e 62 e6 0d 3e 7b 5e ba bd 68 60 bc 3f
       0.16252147 0.13857415 -0.09100052 1.4716921
000100 c2 70 75 be d2 32 60 c0 17 e4 67 3e 5d f0 35 3e
       -0.23968795 -3.5031018 0.22645603 0.17767473
000110 a5 25 4d 3d d7 9a df 3e b0 f7 11 bf fa 8d 20 3f
       0.05008473 0.4367282 -0.57018566 0.6271664
000120 cf a9 ee be 07 32 07 be 27 c9 3a 3d 8e 86 14 3f
       -0.4661393 -0.13202678 0.04560199 0.58017814
000130 ea 53 4e 3e 16 cd ee bd df e3 fd bc 94 62 d5 3d
       0.20149198 -0.11660211 -0.030992446 0.10419193
000140 de 38 ca 3b 4e b9 d9 be 91 b0 8f 3e 7b ca b3 bc
       0.00617133 -0.4252419 0.28064397 -0.021947136
000150 16 f8 f1 3e e2 b7 54 bd a4 33 a1 3d 07 99 5d 3f
       0.47259587 -0.051933177 0.07871178 0.86561626
000160 73 7e 47 3e 6f a7 56 c0 8d f9 55 3e 81 d1 de 3c
       0.1948183 -3.3539693 0.20895977 0.027199509
000170 c0 dd 17 3e 8a a5 2d 3d fc 28 26 3e c0 e4 90 be
       0.14830685 0.0423942 0.16226572 -0.28299522
000180 57 bb 84 be 88 74 cc 3e 7b 2d 57 3e b6 52 dd bd
       -0.2592418 0.39932656 0.21013443 -0.108067915
000190 4a 51 e3 be f3 71 bd be 82 39 87 3e 7e 60 32 3e
       -0.44397956 -0.37001 0.26411062 0.17419621
0001a0 c5 ed f7 3d 72 ba c5 be 32 00 92 3e cf f1 18 3f
       0.12105898 -0.3861881 0.28515774 0.5974397
0001b0 71 17 de 3d 5e d9 eb be d2 69 eb 3e 36 4d 84 3e
       0.10844315 -0.46064276 0.45979172 0.25840157
0001c0 a0 de c1 3d 13 09 c3 3f 49 41 77 3e 89 df 8b bf
       0.094662905 1.5237144 0.24145998 -1.0927593
0001d0 7a 74 a8 3e 20 56 4f 3e b9 51 d9 3e 29 3b c0 3d
       0.32901365 0.20247698 0.42445162 0.09386284
0001e0 a7 ba 17 3f 65 53 c4 3c 01 29 82 3d 30 a3 ac 3e
       0.59269184 0.023965547 0.06355477 0.33718252
0001f0 72 7b 4e 3e b8 b2 99 3e cb fd c8 3e 0f 15 15 3e
       0.20164278 0.30019164 0.3925613 0.14558814
000200 45 a1 53 3e 97 58 8e bf a5 46 e1 3d 9f bb 1b be
       0.20666988 -1.1120785 0.109998025 -0.1520829
000210 7e a0 c9 3d d9 49 52 bd 64 48 6f 3d 02 32 b2 3e
       0.098450646 -0.051339958 0.058418646 0.34803778
000220 9d 7e ae 3e 26 a1 09 c0 f0 8c c9 3e 46 85 21 3e
       0.34080973 -2.1504607 0.3936534 0.15773496
000230 9d aa 60 3d 8a 79 79 be b4 40 1a bd a0 44 91 bd
       0.05485021 -0.2436277 -0.037659362 -0.07093167
000240 ab 27 d8 be 70 bd 61 bd 81 78 a4 3e 20 f1 89 3e
       -0.42217764 -0.055112302 0.32123187 0.26941776
000250 0b 3b cf 3e de 8d 03 3f e0 a9 12 3e ae 34 a0 3e
       0.40474734 0.5138835 0.14322615 0.3129019
000260 61 08 c6 3d fe 76 f8 3e 27 f1 4e 3e 71 b0 37 bf
       0.09669567 0.48528284 0.2020918 -0.71753603
000270 77 38 7a be 00 97 69 be 32 ce f6 3e 2a 1a 94 3f
       -0.24435602 -0.22811508 0.4820419 1.1570485
000280 f0 a6 98 3e a2 ba f4 bf 08 36 f2 bc e6 48 97 bd
       0.29814863 -1.9119456 -0.02956678 -0.07386951
000290 4b 68 b7 3e 23 f9 99 3c 25 64 29 bd fe a2 c8 be
       0.35821757 0.018795555 -0.04135527 -0.39186853
0002a0 22 0b ea be 43 ae b1 bd 64 5d 8c 3e b6 3a 00 3f
       -0.4571162 -0.08675816 0.27415 0.50089586
0002b0 f7 10 8d 3e ff 6f 15 3e c1 ae 4b 3e 31 f7 aa 3e
       0.27552006 0.14593504 0.19890882 0.33391717
0002c0 3a 0a 09 3e f4 1a 66 3f 77 f7 45 be 1d 25 a6 bf
       0.13382807 0.8988488 -0.19332682 -1.2980076
0002d0 cc a2 52 be 9a fb 3f be a6 59 a3 3d 1a a3 97 3c
       -0.20569915 -0.18748322 0.079760835 0.01851039
0002e0 a4 b5 d1 bd 3d 2f 38 c0 54 da 88 be 20 a4 a3 be
       -0.10239723 -2.8778832 -0.2672907 -0.31961155
0002f0 25 96 ce be 28 d5 54 3e 0a a1 c8 be 75 17 23 be
       -0.40348926 0.20784438 -0.39185363 -0.15926917

t_conv1.bias f4 [8]
000000 77 2e a6 3d 2f 52 78 be a8 55 89 3e 6b 73 c7 3d
       0.08114331 -0.242501 0.26823163 0.09738811
000010 31 c3 6b 3c b3 51 58 3e 99 74 5a bc 59 4e 5b bc
       0.014389799 0.21124916 -0.013333463 -0.013385379

t_conv2.weight f4 [8, 16, 2]
000000 61 89 9e bd f7 92 bb bd ba 0f 80 bd a9 11 5a 3e
       -0.07741047 -0.09158891 -0.062529996 0.212958
000010 a2 56 68 bc 8f 63 b9 3e 07 22 fd 3c fa 1f c5 3e
       -0.014180811 0.3620877 0.030900015 0.3850096
000020 40 28 78 3e fa 7b bf 3d ef 47 9b be bc 27 0e be
       0.24234104 0.093498185 -0.30328318 -0.13882345
000030 24 6d 99 bc 92 81 3b bb 42 e0 e9 3e e7 e9 a6 3e
       -0.0187288 -0.0028611165 0.45678908 0.32600328
000040 dc 03 19 3f 5e 1a aa 3a 80 51 b9 bd 1d 71 c1 3d
       0.59771514 0.0012977829 -0.09048748 0.09445403
000050 c7 d3 27 3e 88 f9 ef 3e 59 4d 9b 3e 41 49 bb 3d
       0.1638938 0.46870065 0.3033245 0.091448314
000060 bc a0 8f be 35 30 b6 3e 76 ca ac 3e 01 8e 93 bd
       -0.28052318 0.35583654 0.33748215 -0.072048195
000070 4b 6d f2 be af 79 24 3e 9a ad e3 3d 7b 5d 28 bd
       -0.4734901 0.16062044 0.11117096 -0.041104775
000080 52 d8 93 bd 46 a3 4e 3e d6 b4 3c be 53 60 9c 3e
       -0.07218994 0.20179471 -0.18428358 0.3054224
000090 1e 79 20 3f 6e 64 96 3c 64 f3 31 be 92 bb bb bd
       0.6268481 0.018358435 -0.17378002 -0.091666356
0000a0 ad 63 15 bf 19 1c 0d 3c c0 ed 0e 3f b7 64 13 be
       -0.5835522 0.008612656 0.5583153 -0.14393888
0000b0 a2 b4 63 3c 86 c9 07 bf b0 11 00 3e a8 90 c6 bd
       0.013898047 -0.53041875 0.12506747 -0.0969556
0000c0 e5 09 23 be 96 86 62 3d 0a 3e f6 be 8d b6 a5 bd
       -0.15921743 0.055304132 -0.48094207 -0.080914594
0000d0 7b 71 1b 3d 57 da 32 3d 7b 91 07 3f a0 f4 1a 3e
       0.03795002 0.043665256 0.5295636 0.1513238
0000e0 dd 91 30 3d bd 09 4d bc d5 19 81 3e 50 f6 b9 3e
       0.043107856 -0.012514529 0.2521502 0.36320734
0000f0 4d fd e9 3e a8 ce d5 be 83 8d 2c be d9 68 d7 3e
       0.45701066 -0.4175923 -0.16850857 0.4207218
000100 62 40 1d be 48 1e b4 bd be a8 40 be 36 e9 01 be
       -0.15356591 -0.08794838 -0.1881437 -0.12686619
000110 8e 14 27 be ce da d9 bd ba c7 02 3e c3 1f 76 3d
       -0.16316435 -0.10637437 0.12771502 0.060088884
000120 0d e6 a5 3e 98 ab a4 3e 23 ad 0a 3d 9c fd 4a 3b
       0.32402077 0.32162166 0.033856522 0.0030973917
000130 44 cc 91 3e 68 85 8d 3e 86 f5 79 3e 54 5d 6f 3e
       0.28476155 0.27640843 0.24410066 0.23375446
000140 9d 6b 25 bf a0 0a 33 be d4 03 ac 3d b1 e2 9b bd
       -0.6461733 -0.17484522 0.08399168 -0.07611597
000150 b7 f2 0e be f2 89 93 be af 89 8e bd bc 25 15 be
       -0.13959776 -0.2881618 -0.06959855 -0.14565176
000160 ff 8e b0 bd 85 6f 20 be 3d 34 d1 bd 40 4b 6e bd
       -0.08621024 -0.15667541 -0.10215042 -0.058177233
000170 c1 f3 95 be af 00 09 bb e0 33 24 be e1 e3 0e be
       -0.29287532 -0.0020904948 -0.16035414 -0.13954116
000180 c9 e0 9a 3e 07 f2 78 3e bb b6 01 be 83 fa ca bd
       0.30249622 0.24311076 -0.12667362 -0.099110626
000190 96 5d 8d 3e 45 0d c7 3e c3 54 09 bf 0d ad b8 3e
       0.27610463 0.3887731 -0.5364496 0.36069527
0001a0 cc b5 a5 be ee ca 54 be e8 9b 56 be 0a 20 ad bd
       -0.32365263 -0.20780537 -0.20957911 -0.084533766
0001b0 3a a4 b9 be 50 e1 da be 62 5a 4c be 26 8a 25 be
       -0.36258107 -0.42750025 -0.19956353 -0.1616598
0001c0 5f a2 7d bd 4e 8e 7b 3d d6 79 ec 3e c1 e9 2b be
       -0.061922427 0.06141501 0.46186703 -0.16788389
0001d0 c3 55 2e 3e 45 da 64 3e 46 c1 6f be 8e 98 14 3f
       0.17024903 0.22348888 -0.23413572 0.5804528
0001e0 4f 20 45 3a c4 2a df bd 1a 2a b3 3e c0 f6 87 bf
       0.0007519768 -0.10896829 0.34993058 -1.0622177
0001f0 0d 6c 1c 3e 23 c8 8d bf 99 f5 3a bd be 35 19 be
       0.15275593 -1.1076702 -0.045644376 -0.14961907
000200 bb fe a4 3b a2 74 af 3e d3 c2 db bd b2 8d ab 3d
       0.005035249 0.3426867 -0.10730519 0.083766356
000210 f2 13 aa be 1f 8a a1 3e 3a 57 09 3f 3a 94 8c 3c
       -0.33218342 0.3155069 0.5364872 0.017160524
000220 4c c7 48 3e 41 cf c0 be b7 a0 87 3e f0 4c 42 3e
       0.19607276 -0.37658122 0.26489803 0.18974662
000230 7b cb 8e be ae 00 e6 3d b6 99 a9 be 0d 62 2d 3e
       -0.27889618 0.112305984 -0.33125085 0.16931935
000240 4c 64 d9 be 59 ba f9 3c 24 80 f4 3e e0 ff 35 3d
       -0.42459333 0.030484365 0.47754014 0.044433475
000250 86 29 82 3e 4e 1b f0 3d ff 2f 0e 3e fe e1 d9 bc
       0.25422305 0.11723958 0.13885497 -0.02659702
000260 0d e9 af bd 1c a4 8d 3e 24 f4 41 3e 35 b9 97 3e
       -0.08589373 0.27664268 0.18940789 0.2963349
000270 19 ad 4c bc 13 c6 be 3e 12 5b d3 3c 1f 96 05 be
       -0.012492442 0.37260494 0.025800262 -0.13045548
000280 6e f2 0e be ff fd 34 be 22 15 a2 3d 23 46 d9 bd
       -0.13959667 -0.17675017 0.07914187 -0.10609081
000290 04 9a 08 3e 05 b4 cc bc a0 f6 2d c0 8f a4 d5 3e
       0.13340002 -0.024988184 -2.7181778 0.4172711
0002a0 86 6e 88 3d 0e 1c 13 3e 36 1a ef be 16 e3 90 3d
       0.06661706 0.14366171 -0.46699685 0.07074563
0002b0 9f 61 8d 3d 61 03 39 3d 1d ce d0 3e 80 4a f2 3d
       0.06903385 0.045169238 0.40782252 0.11830616
0002c0 bb cf 2d 3f cc 4c 03 be b6 d1 3e be fb f6 74 3d
       0.67895097 -0.12822264 -0.18634686 0.05980585
0002d0 cd 82 83 be 24 56 8f bd 12 2d 02 3e 1e 68 ac 3e
       -0.2568573 -0.06998852 0.12712505 0.33673185
0002e0 d7 48 0b 3f 65 06 a5 3e ab 2d 33 3e d9 4a 97 3e
       0.5440802 0.3223144 0.1749789 0.29549292
0002f0 f7 50 1f bf e7 b3 08 c0 72 96 b6 3d af e2 3e 3e
       -0.6223292 -2.1359804 0.08915414 0.1864116
000300 ce d4 53 3e 28 ed 3a 3d b7 eb 01 be 84 ae ca 3e
       0.20686647 0.045636326 -0.12687574 0.3958627
000310 07 7d 7b 3d 04 b0 22 3e 47 25 32 3e 81 73 cd 3d
       0.061398532 0.15887457 0.17397033 0.10031796
000320 b8 06 f4 bd d5 2a 2c bf fb 6f e3 3d ce e2 32 3e
       -0.11915344 -0.67252856 0.11105343 0.17469332
000330 f5 0e 86 be 88 6a 26 be 5e 14 d7 be 92 c1 b6 be
       -0.26183286 -0.16251576 -0.42007726 -0.35694557
000340 78 70 59 be 05 03 a3 bd a4 87 4c 3d c8 d2 df bd
       -0.2123431 -0.0795956 0.049934044 -0.10928875
000350 24 4f 20 3c 2b 21 78 3e 10 fd 49 3e ab 80 b0 3e
       0.009784494 0.24231403 0.19725442 0.34473166
000360 b4 37 98 be 6f 1f 09 be ce b0 9a 3e 70 0a 69 3e
       -0.29729998 -0.13390897 0.30213016 0.22757888
000370 e5 ba 17 3d 0f c3 89 3d 38 37 4c be 3a b0 35 3d
       0.03704347 0.067266576 -0.1994294 0.044357516
000380 68 df ab 3e 87 4d fb bc 08 30 03 be fb 9a 47 3e
       0.33568883 -0.030676616 -0.12811291 0.19492714
000390 96 67 6d 3e 06 70 a9 3c 55 ae c0 be 3f 60 93 be
       0.23184046 0.0206833 -0.37633005 -0.28784367
0003a0 de 71 3e be 79 7c 2f 3d 79 84 58 3e 1f d8 35 be
       -0.18598124 0.042843316 0.21144284 -0.17758225
0003b0 a8 b5 9c 3e 36 0f e2 be ff 3b 2d bf a3 d2 3d 3d
       0.30607343 -0.4415223 -0.6766967 0.046343457
0003c0 46 6d ff bd c5 fe 07 be f5 a4 59 bd 7a cf 15 be
       -0.12472014 -0.1328078 -0.05313583 -0.14629927
0003d0 ac 9f 9e 3e b3 50 55 bd b5 4a 54 be 8f f4 0f bf
       0.30981195 -0.052078914 -0.20731623 -0.5623254
0003e0 08 4b ed 3e 5a 28 4f be f9 d0 8b be 6b f6 9c be
       0.46346307 -0.20230237 -0.2730787 -0.30656752
0003f0 df dd 28 bf a6 75 d5 be c4 43 22 be c8 c0 c3 3e
       -0.6596355 -0.4169132 -0.15846163 0.38233018

t_conv2.bias f4 [16]
000000 95 6d e9 3c 91 01 06 bb 5b 52 38 be 33 cc b9 3c
       0.028494636 -0.002044771 -0.18000166 0.022680378
000010 76 dd 8d 3c 99 77 a0 3d c1 90 eb 3d 46 ee 58 be
       0.017317515 0.078353114 0.11502219 -0.21184644
000020 ea 5a ea be 3c 63 2c bf a4 67 1d 3e 3f 59 0b be
       -0.45772487 -0.6733892 0.15371567 -0.13608263
000030 be 64 26 3d e6 90 32 be 25 64 41 3d db 17 9d be
       0.04062342 -0.17438087 0.047214646 -0.30682263

t_conv3.weight f4 [16, 32, 2]
000000 a9 73 31 3e 48 98 e4 3d 78 da 03 be b1 21 cb 3d
       0.17329277 0.11161858 -0.12876308 0.099185355
000010 79 a9 b2 bd 0d 80 d0 be c5 ce ee bd 9a 24 0f 3e
       -0.087237306 -0.40722695 -0.11660532 0.13978806
000020 42 cc 08 be 20 98 d4 be 8f c3 50 bd 2e 2d 3c 3e
       -0.13359168 -0.41522312 -0.05096775 0.1837661
000030 70 27 03 be 59 54 cd bd 12 df 05 3e c5 d2 af 3d
       -0.12808013 -0.10025854 0.13073376 0.08585123
000040 aa 40 48 3e 7d b5 d3 bb 40 0d fb 3c 4f ae 1b be
       0.19555917 -0.006460844 0.030645967 -0.15203212
000050 e6 63 68 3e 4b c7 14 3e 67 76 a6 3e c5 d6 84 3e
       0.22694358 0.14529149 0.3251221 0.25945106
000060 9b 5d df 3c 75 d7 85 3e 11 fc b1 bd 53 0f 9f 3e
       0.027266314 0.26140943 -0.08690656 0.3106638
000070 25 f0 5b be 00 34 fe be c5 66 3d 3e 1c c2 7f bd
       -0.21478327 -0.49649048 0.18496235 -0.062440977
000080 f3 82 b3 3d 10 e6 14 bf ed e2 7a be ca d1 41 be
       0.08765211 -0.5816355 -0.24500628 -0.18927684
000090 57 4e 7c 3e 1a 72 cd 3d 56 17 bd be 95 b4 4a be
       0.2463926 0.10031529 -0.36931866 -0.19795449
0000a0 1c 70 19 bf 72 21 71 be 9e 29 6e 3e e1 a3 94 3d
       -0.5993669 -0.23547915 0.23258063 0.0725782
0000b0 9d 0c db ba 69 7d 8b bf 27 66 91 bd 95 44 e0 bf
       -0.0016712133 -1.0897647 -0.07099562 -1.752093
0000c0 58 3e 40 3e 73 6a 58 3e cf 7b f8 3d 8d db 4c 3e
       0.18773782 0.21134357 0.121329896 0.20005627
0000d0 3b fe 5f bc ae da 18 3d 27 32 f2 be 33 10 1e 3e
       -0.013671453 0.037317924 -0.47303888 0.15435867
0000e0 36 69 90 bd da 84 f3 3e 56 a3 88 3e ed 86 1f 3d
       -0.070513174 0.47562295 0.26687115 0.038947035
0000f0 30 16 e5 3c ee 41 39 3e 6a 86 8b 3e dd a2 28 ba
       0.027964681 0.18091556 0.27250987 -0.000643296
000100 7b 73 c6 3c 61 a4 5e 3e 88 74 7d be 9f 54 a5 bd
       0.024224987 0.21742393 -0.24751484 -0.08072781
000110 73 df 47 bd a8 2b 02 be 3a 36 43 bf 28 3e 20 bf
       -0.048797082 -0.12711966 -0.7625462 -0.6259484
000120 8b 9f ec bd ef 3d 0e be 26 85 24 be 71 31 ae 3d
       -0.11553868 -0.13890813 -0.16066417 0.08505524
000130 ac e0 71 3c 90 b6 a1 3d f8 d4 87 3b c0 0d 3f 3d
       0.014763039 0.07896149 0.004145261 0.046643972
000140 f3 e6 b8 3d 40 81 02 3e c4 9e 2a bd e2 47 29 bd
       0.09028425 0.12744617 -0.041655317 -0.04132832
000150 37 05 25 3e 25 38 98 3d 30 38 73 3e f2 37 4e 3e
       0.1611527 0.07432584 0.23751903 0.20138529
000160 57 6a 92 3c 1f 4c 5a 3e 72 e7 65 bd 5e 9b 7c 3e
       0.017872972 0.213181 -0.056128927 0.24668643
000170 a3 f8 57 bd 5a e0 3a bd 23 e3 90 3e bf 4a 43 bf
       -0.052727353 -0.045624115 0.28298292 -0.7628593
000180 64 75 da 3c 01 7c 95 3f 5c af 8f be bc 73 3a 3e
       0.026667304 1.1678468 -0.28063476 0.18208212
000190 49 2c 14 3e 7e dd 77 3e 27 c2 8a be 97 46 a6 be
       0.14470018 0.24205586 -0.2710125 -0.3247573
0001a0 eb 76 c7 3e e4 e3 4a bd 20 f0 21 3e 81 36 53 3c
       0.38957915 -0.04953374 0.15814257 0.012891413
0001b0 fa 67 b7 3d 5e 0d dd be df dd 60 bd e4 90 8b bf
       0.08955379 -0.4317426 -0.054899093 -1.0903592
0001c0 d6 12 b7 3d 7f 8d 25 3e fb 6f 90 3e 53 ac 15 3f
       0.089391395 0.16167258 0.28210434 0.5846607
0001d0 06 c5 8c 3d 0c f7 da bd 4e 0d 9a 3d e8 6f 4f be
       0.06873517 -0.10691652 0.07522069 -0.20257533
0001e0 28 f6 7a bd 6e d3 0d bf 6f 21 43 3d f6 78 c3 bd
       -0.06126991 -0.5540074 0.047639307 -0.09544556
0001f0 c8 12 51 3d 7a bd b0 bd 63 b1 84 3d 39 cf a5 3e
       0.0510433 -0.0862989 0.06479146 0.3238466
000200 dc 0e 8d 3d c4 64 b6 3d 57 49 26 3e 35 ec 62 be
       0.068876 0.08905938 0.16238914 -0.22160418
000210 09 d5 fa bc f2 dc 84 3e 16 25 94 bf 75 44 3d 3e
       -0.030619161 0.25949818 -1.1573818 0.18483146
000220 01 eb dc 3c dd ea 88 be c0 f2 07 be 22 d8 06 bf
       0.026967527 -0.26741686 -0.13276196 -0.5267354
000230 8e f1 5a be 53 ae 34 be cb 8b a2 bc 07 1c e0 3d
       -0.21381208 -0.17644624 -0.01984205 0.10942846
000240 95 19 12 3e 4e a7 f1 bd b8 10 00 3e 47 9b 9e 3e
       0.14267571 -0.11799489 0.12506378 0.30977842
000250 09 04 32 3c 22 b4 14 3e 18 7f 3a 3d ef 91 14 3e
       0.01086522 0.1452184 0.045531362 0.14508794
000260 01 df 1c 3d 92 2b 13 3e 5c e0 2b bd 17 ce 2e 3e
       0.03829861 0.1437209 -0.041962013 0.17070805
000270 ad 7d 86 be eb dd 8a be d6 78 5a 3e 80 af ef be
       -0.26267758 -0.27122435 0.21335158 -0.46813583
000280 0d 11 10 bf 31 53 fe be 09 60 a3 be 98 2f f5 be
       -0.5627602 -0.49672845 -0.31909207 -0.47887874
000290 74 2c ac 3d d4 b9 54 3e 81 90 a4 bd 0b 00 41 bd
       0.08406916 0.20774013 -0.080353744 -0.04711918
0002a0 40 ee 84 bf 76 b5 ef be 27 0c ec bc f1 53 f6 be
       -1.0385208 -0.4681813 -0.028814388 -0.48110917
0002b0 27 db 8f 3c 48 08 e0 3e b8 c4 3a 3d 08 e7 9c 3e
       0.017560555 0.43756318 0.045597762 0.30645013
0002c0 a0 22 4f bc 55 e9 05 3c da b8 aa 3e 8b fa 82 3e
       -0.012642533 0.0081733065 0.33344156 0.25581774
0002d0 6a f9 8c bd a0 74 1b 3e 1d 11 23 3e f8 42 0a 3c
       -0.068835095 0.15181208 0.15924497 0.008438818
0002e0 e0 3e ed bd dc fb c1 3e 0a 10 91 3e 14 0e 76 bb
       -0.11584258 0.37887466 0.2833255 -0.0037545012
0002f0 d6 c7 c0 bd 07 88 a7 3e 8d 49 20 be aa c6 e6 bd
       -0.09413116 0.32720968 -0.15653057 -0.11268361
000300 1b 0f 0e 3d 35 a8 70 be 9a 07 53 bf d8 f1 1b bc
       0.034682374 -0.23501666 -0.82433474 -0.009518109
000310 bc 28 9c 3d c3 19 a1 3d 06 a7 a4 3e ed d7 c7 3e
       0.07624957 0.07866242 0.3215868 0.39031926
000320 e6 10 23 be 42 e6 05 3e cf 62 72 bd 5e a1 7a be
       -0.15924415 0.13076118 -0.059176262 -0.24475619
000330 8b 51 43 3e 50 45 8f be 7b 43 a4 be 24 86 3e 3e
       0.19074075 -0.2798257 -0.32082734 0.18605858
000340 d6 45 15 be e7 87 db 3d e3 85 88 bc 95 00 37 3e
       -0.14577422 0.10719281 -0.016665405 0.17871316
000350 57 b9 4f 3e c8 9d 7e be 77 fe 70 3e 1a 46 bf 3c
       0.20285545 -0.24864876 0.2353457 0.023348857
000360 58 64 f1 3d 80 94 50 3b 09 55 03 be f7 d3 e4 bd
       0.11786717 0.0031826794 -0.12825407 -0.111732416
000370 28 b7 91 3e f1 0c 58 3e 9d 3b ae be c9 cc 21 bf
       0.2846005 0.21098687 -0.34029856 -0.632031
000380 2b a6 3f bf e0 24 cc bc 48 eb af 3e 7e 31 b0 3d
       -0.7486293 -0.024919927 0.34359193 0.0860319
000390 8c 48 7a 3c 61 bb 84 3d e8 29 ae 3e 82 db ab 3e
       0.015276086 0.06481052 0.34016347 0.3356591
0003a0 3a 5c 84 bd a4 85 3f be 36 3a 09 3f 81 4f 77 3d
       -0.06462903 -0.18703324 0.5360445 0.060378555
0003b0 71 ec f4 ba 9a 61 a8 3e 91 8d 0d be 84 26 06 be
       -0.0018686188 0.32886964 -0.13823535 -0.1310063
0003c0 45 d5 e8 3c db fc 2d 3e 54 97 2b be 13 70 05 3c
       0.028422007 0.16990988 -0.16756946 0.008144396
0003d0 1c d2 51 3d 1c ce d5 bd 0c 87 c0 be 68 cd 0d 3d
       0.051225767 -0.10439703 -0.37603033 0.03461972
0003e0 e2 38 e7 bd 5f a2 10 3d bf dd 29 be 10 0e 5d bd
       -0.112901464 0.0353111 -0.16588496 -0.05396849
0003f0 5a 3e aa bd cf 76 dd be 23 9e 75 bf c3 87 e3 bb
       -0.08312674 -0.43254706 -0.9594442 -0.0069436743

t_conv3.bias f4 [32]
000000 93 64 32 3e 4b 83 e2 3d 47 cf 71 bd 28 5c 92 bd
       0.17421179 0.110601984 -0.059035566 -0.07146484
000010 cf e0 2b be 40 59 19 bd 4b 9c b5 3d b6 30 7f bc
       -0.16784976 -0.03743863 0.08867701 -0.015575578
000020 34 83 04 3e e0 28 13 3c ca 81 39 3e 24 ec 15 3e
       0.12940675 0.008981913 0.18115917 0.14640862
000030 49 09 39 3e 9f 20 48 3e 7a a2 1c bd 8a d6 b7 bc
       0.18069948 0.19543694 -0.038240887 -0.022441167
000040 63 35 58 3d a3 4e f3 3d 90 7b 79 3e 6f 36 6a 3c
       0.05278529 0.11880233 0.24363542 0.014295205
000050 83 2c 53 3e 76 86 21 bf 4e d6 d6 be 7b 15 78 be
       0.20622449 -0.63095796 -0.41960377 -0.24226944
000060 f7 d1 10 3e 07 fc 6a 3c 4f 30 dc bb 09 14 89 3d
       0.14142595 0.014342315 -0.006719626 0.066932745
000070 fe ed b2 be 9d d4 93 be af e0 bc be 09 ac e0 3c
       -0.349472 -0.2887315 -0.3689017 0.027425783

conv_out.weight f4 [1, 32, 3]
000000 f3 de df bd da ee b8 bd 52 8d 40 bd 95 47 5e be
       -0.10931196 -0.09029932 -0.047009774 -0.21706994
000010 62 74 28 bd 13 e2 26 3e 03 e1 5c 3e 31 a0 bd 3d
       -0.041126616 0.16297178 0.2157021 0.0925907
000020 d2 b3 88 bc 55 59 12 be 74 b0 0d bf ac 60 18 bf
       -0.016687308 -0.1429189 -0.5534737 -0.5952251
000030 31 25 18 bf 5a 0f 16 bf c3 39 c7 be 1b 3f dc be
       -0.5943175 -0.58617175 -0.38911256 -0.43016896
000040 9a 2a 9c bc 0e bd c1 be 44 4a 99 3d 42 a5 f0 bd
       -0.019063283 -0.3783955 0.07484868 -0.117502704
000050 0c 69 27 bd 3a a8 c5 3c b9 82 2c 3e 8c 7a 68 be
       -0.040871665 0.024128068 0.16846742 -0.22702998
000060 bb c3 0f be bd 07 36 3d 75 77 0e be 48 3e 42 bd
       -0.14039509 0.044440974 -0.13912757 -0.047422677
000070 fe 02 24 3e 41 b0 ab bd b4 bc 16 bd 29 e8 20 be
       0.16016766 -0.08383227 -0.036801055 -0.15713562
000080 74 1a 4b be 5e 74 6c be 3a c1 36 be a1 39 31 be
       -0.1983431 -0.23091266 -0.17847148 -0.1730714
000090 cb d4 45 be a0 79 27 be fb af 56 bd 35 e0 89 be
       -0.19319455 -0.1635499 -0.05241392 -0.2692887
0000a0 ab 3a c6 bd 27 a7 39 3d 75 fc 36 3e f5 52 9d 3c
       -0.09679159 0.045325425 0.17869742 0.019204596
0000b0 a6 7d 55 3e e8 38 45 3e 63 19 35 be f6 d0 83 be
       0.20848712 0.1925999 -0.17685466 -0.25745362
0000c0 1c 78 8c 3e 61 42 bb 3d 95 7f ad be f8 0a 4a 3e
       0.27435386 0.0914352 -0.338864 0.19730747
0000d0 33 f4 10 3e 7f 23 99 3e 4a a3 5e be 1c b2 ef bd
       0.14155655 0.29909894 -0.21741977 -0.117038935
0000e0 58 9c 62 be 8e 56 bf 3d e1 58 f2 3d 92 42 26 3e
       -0.22129953 0.09342681 0.118333586 0.16236332
0000f0 f6 14 25 3e 75 7c 4e 3d 31 38 9d be 48 6e d3 3e
       0.16121277 0.05041166 -0.30706933 0.41295075
000100 65 9f 6b 3f e8 76 4b 3f ce 23 89 bf 46 bc d2 bf
       0.9204009 0.7947831 -1.0714052 -1.6463706
000110 d2 99 a3 be ef bd b3 3d cf 8d 62 3e 6f 51 8b 3e
       -0.31953293 0.08776461 0.22124408 0.27210566
000120 3b ec 25 be 64 01 67 3c ae 7c e2 bd 48 06 02 bf
       -0.16203396 0.014099453 -0.11058937 -0.50790834
000130 fa 2d 8c be 83 fd 2b be 9c ef b6 bb 36 f3 4f 3e
       -0.27378827 -0.16795926 -0.005582763 0.20307621
000140 a7 1f 1a be 21 57 a7 be 5f 91 a6 3e fb 5f 17 3d
       -0.15051137 -0.32683662 0.32532784 0.03695677
000150 b9 75 18 3f 60 dd 1f 3f 26 f5 d9 3e 17 a1 a7 3d
       0.5955463 0.62447166 0.42569846 0.08185022
000160 3a 22 f0 3d 07 de 09 3f f0 f1 8b 3f ed 7a 87 3f
       0.11725278 0.5385441 1.0933208 1.0584389
000170 91 ff 25 3f 7d 57 6b be 27 af 93 3c cb f1 8c 3e
       0.6484309 -0.22982593 0.018027855 0.27528223
