dAE_PyTorch/checkpoints/spectra_dae_epoch_10.pth (torch, 18875 bytes, 13 tensors)

conv1.weight f4 [32, 1, 3]
00000000: 39d0 1e3f ea8f 0b3f 6115 04be 5bb4 f2bd
00000010: d435 2fbe 975a 003f 2047 24bf 2921 203f
00000020: 8530 5b3c 07dc e0bc 7974 21bd bdaa 493f
00000030: 11d4 063f 596b fcbd 2b08 37be 6803 123c
00000040: 2a6c 34bf ea94 e83e 757f 0ebf 3956 18bf
00000050: 0803 983e 1c55 313f 1df3 2a3e 4170 14bf
00000060: 4592 5abc 3add 80bf f8cd 723b 2059 ba3c
00000070: 9f53 c83e 91ae fe3e 3fce f0be c9bc 9d3e
00000080: dd96 16bf edda 1abf 3cdb 88bc 4b15 193f
00000090: f36e 6e3e 2876 fe3d a867 d03e 2ae7 033f
000000a0: a5ac ccbe bc59 34bf 30ec 163f ef58 8ebd
000000b0: e3ca 843e 9df0 47be 48d7 303f 5b0d bfbe
000000c0: a8fa 3cb9 1435 95bf 0cc8 96b9 97e3 933e
000000d0: e7de 783e e19b 8e3e 2a81 71bf dd43 ac3d
000000e0: e986 693d 88a4 b43e adda 673e 2e7a a03e
000000f0: 4b24 033e f7b6 7c3e 8ffb 04be 85c5 5abf
00000100: 6f82 a63c ba8d 033c ea8b 463f f890 a9be
00000110: e73b 04be 7e9f f5be 2cea 23bf 0331 23bf
00000120: 4b4b 02bf 92ca 29bf 4444 633d 51d8 d5be
00000130: 85df d5be d8d3 0ebf b266 b2be ca77 fbbe
00000140: cc36 bfbe f446 2b3e ece3 a93e 183b bcbf
00000150: 3eae 83be 9e3d 9fbe 4f1e 39bf e82d 6dbd
00000160: 0b6d 643e bd26 5abf 0ce9 babc 2b46 503f
00000170: 2eb4 03bd 2d1c a7bf e0b6 653e 8c92 e83d
0.6203647 0.5451647 -0.1289878 -0.11850806 -0.17110378 0.5013823 -0.6417103 0.625506
0.013378267 -0.027448667 -0.039417718 0.7877615 0.5266734 -0.123251624 -0.1787421 0.008911945
-0.70477545 0.45426112 -0.55663234 -0.59506565 0.29689813 0.6927049 0.16694303 -0.57983786
-0.013340537 -1.0067513 0.0037049036 0.022747576 0.39126298 0.4974256 -0.47032353 0.30808094
-0.5882395 -0.60490304 -0.016706102 0.59798115 0.23284511 0.1242488 0.40704083 0.51524603
-0.39975467 -0.70449424 0.58954144 -0.069505565 0.2593604 -0.1952538 0.69078493 -0.37314877
-0.00018022454 -1.1656823 -0.00028759276 0.28884575 0.2430378 0.278533 -0.94337714 0.084113814
0.057013426 0.35281777 0.22642012 0.31343216 0.12806813 0.2467917 -0.12986587 -0.8545764
0.020325867 0.008029396 0.7755724 -0.33118415 -0.12913476 -0.47973245 -0.6402919 -0.6374666
-0.5089614 -0.6632472 0.055485025 -0.417666 -0.41772094 -0.55792 -0.34843975 -0.4911483
-0.37346494 0.16726285 0.33181703 -1.4705534 -0.25718874 -0.31101698 -0.7231187 -0.057905108
0.22307222 -0.8521536 -0.022816204 0.8135707 -0.032154255 -1.3055474 0.22433043 0.113560766

conv1.bias f4 [32]
00000000: b754 5abe 7405 8fbd adbf 16bd 13de 33bf
00000010: f985 90be 2cc4 acb9 0f17 693e 1767 70be
00000020: 2a8e 563e 13a5 a8be cc1c af3e 0d29 afbd
00000030: 76de ddbe a012 113e e6ea 6ebe 6864 ddbe
00000040: 4b4b b43d 32e7 7bbe 825f a43e bdf5 26bf
00000050: 5023 24be a270 863e b462 bcbe 892b 71bd
00000060: 485b 253f 958e f4bc f424 e23e 19a9 02be
00000070: 8dcc a6be 7fc8 753e 6f23 3dbf cfb1 a0bd
-0.21321379 -0.06983462 -0.03680389 -0.70260733 -0.28227213 -0.00032952556 0.22762702 -0.23476826
0.20952669 -0.32938442 0.34201658 -0.08552752 -0.43333787 0.14167261 -0.23331794 -0.43240666
0.088034235 -0.24599913 0.32104117 -0.65218717 -0.16029096 0.26257807 -0.36794055 -0.05887941
0.6459241 -0.029853145 0.44168818 -0.12759818 -0.32577935 0.24002264 -0.7388219 -0.07846414

conv2.weight f4 [16, 32, 3]
00000000: 2a1a 22bd 3953 d03d f27d b03c 15e3 5c3d
00000010: 4012 22be 4a69 7b3e 8670 823e f0a6 f73d
00000020: 9f59 5a3d 4eda 143f 0323 9d3f 6447 2340
00000030: 1e8a e2bc fecb d2bc b3f4 643d 971b ddbe
00000040: a290 37be aadc 25be 6907 6bbe fe6b 6fbe
00000050: 0374 65be 6cfc 2dbe 5f74 163e b89f 7cbe
00000060: 319a 0bbe 4b99 25bd 4aad 5fbe 311f 0c3d
00000070: eef3 3a3d 3df0 d13e 7022 aa3d 9f96 f23d
00000080: 3744 24bf ce62 823e 19b1 da3e bf04 b93d
00000090: cc92 76bc 85b5 7c3e e1e8 203f 70e7 96bd
000000a0: 673b 7d3e ca36 fabe 9bde 06be aebf 2f3d
000000b0: 6804 7b3e 485d 1b3e 2e1b ba3d 316c 403d
000000c0: 2185 92be a30c abbe 9394 7abe 4f08 1fbe
000000d0: e7c1 ac3d 6972 493e 1c4a 6b3e 0872 e33d
000000e0: 5f29 16be 46ad 8bbe 59c8 0f3f 4d15 953e
000000f0: 6e8c 6bbe 5a78 803e 526a 8ebc 26b3 debd
00000100: 847d 11be 2067 433e 7a20 abbe 7341 8dbd
00000110: d936 fabd f475 c5bd f509 cebd d431 54be
00000120: c830 aebc ee58 37bd 65e6 8ebe aae6 d5bd
00000130: f4e1 63be e3a2 76be 0ff9 5f3e 73f7 d8be
00000140: d9df 20be 3e89 55be 638f 3d3d 97f8 99be
00000150: 25c9 87bc f10b b2bc e3c1 9dbe 378c a4ba
00000160: bf9f 893e 9845 b4bf 2d18 393f 7f42 fe3e
00000170: dad8 c93f 1d9c fcbe 23f7 81be 4fcc c9bd
00000180: 3284 cdbb eb38 0d3d c1c0 e73d 75df 82be
00000190: bd8a 75bd 7bef a23e 2ac3 5dbe 52a2 2e3e
000001a0: be9b 913c 9346 bf3e 425a 43be af62 6f3f
000001b0: bd21 073e 9979 c13b a6f4 4bbe 2796 24bc
000001c0: 8290 403e 8563 af3d 1ce1 453e b35e b9bd
000001d0: 35cc f13d d1c2 4f3e b052 fdbd 28fe 09bf
000001e0: 21c7 733e a692 983e 2a0f b33d 5f3f 4bbd
000001f0: 563e 4fbd 00e8 b33e 47e4 00be e895 553e
00000200: fde8 c7be 9be9 94be a3e6 eb3e 4fba 163e
00000210: 8060 a9bd 191c f0bd a737 7e3e 7ce9 183c
00000220: 9ce8 1f3f d32f 5cbf ad70 613d 29e2 043d
00000230: f0ae 143e 866d 3e3e bab5 143d 1e93 f6bd
00000240: 514a 22be bf0e 3dbe a6ce 8cbe e80c dcbc
00000250: 52ca 0d3d 6d88 6a3e 2d7a 07be 9308 073e
00000260: 078b 433e 9ecd 14bf 9645 0abf f2b7 67be
00000270: 6aad 803e fdb4 acbe 7180 60be c517 cc3e
00000280: b7e9 c33d 2c1c b13c 88c2 8e3e f6b6 53bd
00000290: d549 14bf 23a8 c1bd 9a2c 15be 97a1 0dbe
000002a0: c527 41be ffd6 45bd fe3e 22be ddde eabd
000002b0: 6f15 eebd 5856 27be b16a 013f 5acb 1a3d
000002c0: 1ac6 91be cf4b c83c f2d5 f5bd 7c25 6fbe
000002d0: 3e68 163c a7ac 20bd fae0 5cbe 95b9 923c
000002e0: 0c93 d63e c522 68bf 57d2 273f 6324 e2bd
000002f0: 7868 e0bd 2c8f 9dbe 9a56 8f3e 37ea 903e
00000300: 7dfe dbbd e800 d13d b385 a9bd ec1d a9be
00000310: db0c 47be 6ce4 5f3e 780d 1bbe df6c c9bd
00000320: f1c6 b63c 67de cabe e842 fabe f60d 2e3e
00000330: fbb6 84be 68b3 4abe e424 9f3e b153 10bf
00000340: d8b4 ccbe 3d11 0d3e b3b1 2ebd 6379 a8bc
00000350: 7f64 29bf 8e76 713d 5deb 5dbe a494 713e
00000360: a510 9bbe 7fc3 66be 4f38 17be 5c55 a1bd
00000370: f625 123e d818 bf3d b085 603e 7216 953e
00000380: 1f87 2bbf cf2f 513e 0b66 7cbe f263 c5bd
00000390: d5c6 05bd 5f52 bc3d 4590 363e c888 45be
000003a0: 8362 c23f 2226 d8be 5a4b 68bc 7c42 333b
000003b0: c174 113e f8c6 b3bd ef8b 2bbe dda9 e03e
000003c0: e7c4 f83f 8f69 653e 1040 0d3f 3c99 d93c
000003d0: 79f4 343e 8f4a b9bc e514 753d 5bf3 043d
000003e0: 7fd6 58bf 30dc d1bd 6a60 febd 0853 ac3e
000003f0: 6c6e d8bd 0fb2 0dbe 156b 2c3e e77c 953d
-0.039575733 0.101721235 0.02154443 0.0539275 -0.15827274 0.24551883 0.25476474 0.12092388
0.053308126 0.58145607 1.227631 2.5512323 -0.02765375 -0.025732037 0.055897426 -0.43185112
-0.17926267 -0.16197458 -0.22952046 -0.2338104 -0.22407536 -0.16990823 0.1469283 -0.24670303
-0.13633038 -0.040429395 -0.21843448 0.034209434 0.045642786 0.410036 0.0830735 0.11845135
-0.6416659 0.25466007 0.4271324 0.09034108 -0.015049648 0.24678619 0.62855345 -0.07368362
0.24729691 -0.48869926 -0.13170855 0.04290741 0.245134 0.15172303 0.09087215 0.04697818
-0.28617194 -0.3340808 -0.24470739 -0.15530513 0.084354214 0.1967255 0.22977489 0.11105734
-0.1466422 -0.27280635 0.5616508 0.29117814 -0.23002788 0.2509182 -0.017384682 -0.108740136
-0.14208037 0.19082308 -0.33423215 -0.06897249 -0.122174926 -0.096416384 -0.10060493 -0.20722133
-0.021263495 -0.044762544 -0.27910152 -0.10444386 -0.22254163 -0.24085574 0.21872352 -0.4237629
-0.15710391 -0.20853135 0.046279322 -0.30072471 -0.016575405 -0.02173421 -0.30811986 -0.0012553994
0.2687969 -1.4083738 0.72302514 0.49660107 1.5769303 -0.49337855 -0.25383863 -0.09853422
-0.0062718624 0.03447811 0.11316062 -0.2556111 -0.059946764 0.31823334 -0.2165648 0.17054108
0.017774459 0.3735853 -0.190774 0.93509954 0.13196464 0.005904388 -0.19917545 -0.010045565
0.18805125 0.08563904 0.19324154 -0.090512656 0.118065275 0.2028916 -0.12369287 -0.53903437
0.2380643 0.29799384 0.08743127 -0.049620982 -0.050596558 0.3513794 -0.12587081 0.20857966
-0.39044943 -0.29084477 0.460744 0.14719509 -0.08270359 -0.11724109 0.24825917 0.009333011
0.6246431 -0.86010474 0.055039097 0.032442246 0.14519858 0.18596467 0.03630612 -0.12039779
-0.15848662 -0.18462656 -0.2750141 -0.026861623 0.034616776 0.22903605 -0.132302 0.13186865
0.19096003 -0.58126247 -0.5401243 -0.22628763 0.25132304 -0.33731833 -0.21923997 0.39861885
0.09566062 0.021619879 0.2788279 -0.051688157 -0.5792516 -0.09455898 -0.14567795 -0.13831173
-0.18862827 -0.04830074 -0.15844342 -0.11468289 -0.11625182 -0.16341531 0.50553423 0.037791587
-0.28471452 0.02445021 -0.120036975 -0.23354143 0.009180127 -0.039227154 -0.21570197 0.017910758
0.41909063 -0.90678054 0.6555533 -0.110420965 -0.10957426 -0.30773294 0.2799576 0.28303692
-0.10741899 0.10205251 -0.08277454 -0.3303064 -0.19438498 0.2186448 -0.15141857 -0.09835219
0.02231166 -0.39622805 -0.4887917 0.16997513 -0.25920853 -0.19795 0.31082833 -0.563777
-0.39981723 0.13776107 -0.042649936 -0.020565694 -0.6616897 0.058950953 -0.21671815 0.23591858
-0.30286136 -0.22535513 -0.14767574 -0.07877609 0.14272293 0.093309104 0.21925998 0.29118687
-0.67003053 0.20428394 -0.24648301 -0.09638204 -0.032660324 0.091953985 0.17828472 -0.19290459
1.5186313 -0.42216593 -0.014178121 0.002735286 0.14204694 -0.08778185 -0.16752599 0.43879595
1.943509 0.22403549 0.55175877 0.026562326 0.17671384 -0.02261856 0.05983438 0.032458644
-0.84702295 -0.102470756 -0.12420733 0.33657098 -0.10567936 -0.13837455 0.16837724 0.07299214

conv2.bias f4 [16]
00000000: ee85 eebd 8b7f 6fbd 49f4 683d 7071 58bd
00000010: a997 dc3d f693 64bd 3b5a 01be cb23 5ebd
00000020: 007d 313e 94a8 843c 40f3 413d eaf5 d53c
00000030: d24e 6c3d bd17 d0be b93e 6bbd 3a32 673e
-0.11646639 -0.058471244 0.056873593 -0.052842557 0.107711144 -0.05580517 -0.12632076 -0.054233354
0.1733284 0.016193666 0.047351122 0.026118238 0.057692356 -0.4064311 -0.057432864 0.22577754

conv3.weight f4 [8, 16, 3]
00000000: f883 48be cb1d 16bd 3497 b6be 8650 b1bd
00000010: 594c 2f3e 6e7b adbe 4012 6d3f 931b 163e
00000020: c493 993f dcfd 293e c6a8 16be ca9a 4abd
00000030: ea62 233d e861 9fbd aba5 a43e a550 723e
00000040: 6203 22be 2176 1bbe c148 83be 1152 d1bd
00000050: f592 e8be 4e77 b03e 443d 93bd a083 ac3e
00000060: 346b 253e 87c9 1e3e f50b 223e a51c ea3d
00000070: 5098 3a3e 1026 91bd 49e7 b43e dcc1 f63d
00000080: e0e2 e13e 0ae5 a1bf b4fd 52be 23ff a0be
00000090: c859 653e ac31 f63d b2f4 b23c 4e02 9c3d
000000a0: 8f77 19bf eb56 ecbe 1c48 763e 71bd cfbd
000000b0: 3b4b 4dbe f23e fb3d 2077 c03d 8f40 163f
000000c0: df4a 3f3d 215f a8bd 2271 993e c514 2f3e
000000d0: 69ff f8bc 6821 1f3e 7a71 b23e e889 55be
000000e0: 0e08 e43d 1317 06be cd0e 433d 4868 d1bd
000000f0: e2f6 153d 52d1 163d a5ec 0abe 4ac9 42be
00000100: 8cc3 bf3d a95f ffbc 3d54 063e 451e 393e
00000110: 6f77 a53d f28f 833b bbe8 5bbd 0ac7 c4bd
00000120: 8fce 73be 48e5 89bc 8f61 67be 384d 903e
00000130: 4db1 3b3e 9ea3 ce3d 6bab 02bd 4618 43be
00000140: 411f 963d 8023 cc3f 7d4d bb3e 57ad 8e3f
00000150: c441 823e 9cd1 8b3e c2b5 b43e 64d8 833b
00000160: 4ba8 0e3f 6bea 043f 1fb1 c83d a9a2 1d3e
00000170: 53bb 5cbb 4057 d9bd b1b4 623d d2e8 a0bd
00000180: 5284 a53e 16b2 923e 1a4f aabd d5b3 53be
00000190: 3be6 1e3e f781 963e 321a 003f 2c56 96bf
000001a0: 6f0e e63f 1394 253e 1140 dcbd fc31 ba3c
000001b0: 6f4d 18bd dbbd 09be 5d91 6f3d 02fe f73e
000001c0: 7d32 4dbe 8197 5a3e 87fc cfbe a520 273e
000001d0: 5503 4fbd 15c0 fe3d d8a9 aa3d 446a 96be
000001e0: 8f7f c43e f1ab 093c 41ae 3e3e be87 aebc
000001f0: 3ce9 1a3e a975 a33e 6e72 093f d1ce 053e
00000200: cab9 923e 4eaa 9abf 6ea5 ff3d 8c98 59bf
00000210: 2bc4 52bd d616 9abd 29aa 82be 43d7 77be
00000220: f538 ccbe 05e4 6dbe 6580 8dbe 79f6 5b3d
00000230: 5f7d 173e 99e3 8b3e d122 b4bd 2787 be3d
00000240: e67e 1b3c d783 b3bd 8066 eabe b45d 083e
00000250: e1df 743d 4ada 533e c691 d7be ac79 153f
00000260: 702d b13f 29de c3bd a481 aabc c3b1 6c3e
00000270: be90 73bd 4005 30bd d742 803e 0ce1 cfbd
00000280: 3d87 a2bd ab75 bf3e 919e 233e 27d7 2f3d
00000290: 2560 15be 2012 183d 5c1e b43d 07d4 a7be
000002a0: 8879 e5bd d0a9 173e ac7f b73d 4bd8 b83d
000002b0: 1b55 61bd 21e0 103f dbc7 5e3e 6297 1e3d
000002c0: 3f0f 5f3f 0000 0fbf 2c19 35bf ad6b b4bf
000002d0: fe88 81bc 9c5b 01be 7fa1 c0bd 4363 d1bb
000002e0: 1e17 3cbf a7ca a5bd 36c5 8c3e 417f 32bd
000002f0: 9f83 3d3e 434d 72be 0207 1f3d 63c2 5d3e
00000300: 03db dbbd 6c2d 4c3d e222 06be b671 823e
00000310: bbd4 253d d8dd 11bc 3ff3 8b3f db56 7b3e
00000320: 8093 783e 0353 e3be 2842 1fbd ccd7 153d
00000330: 3552 a93e f1ef 3bbe ac2f c63c 3e57 18bc
00000340: fae7 f43d 7392 f63d 0cfb d13e 7846 fa3d
00000350: 4c36 0f3e 2e11 0dbf 1ce9 55be a31c 6e3d
00000360: 8e3a 13be 32ae 35bc 59f3 9cbe 75a0 913d
00000370: 6ff5 c53d 7b1a 103d 7afc 2a3f a5e8 6dbe
00000380: 48e0 013e 6cf6 a73f 8a86 d83e 05ab a73f
00000390: a7d1 a33e 2ab1 f73d 0e2e a23d 6bcd 433f
000003a0: c860 2c3e 5379 6ebd b189 f23e 899d 853c
000003b0: e00f c23d 9608 acbe a9c8 46be b4e9 ddbd
000003c0: d558 543d 846c 9c3e f39d 8ebe 1e47 f3bd
000003d0: 8ddc 593c 0a44 8ebe e78d 743f 8666 cf3e
000003e0: f591 993e 965e b03e 9f42 4c3e 3e93 783e
000003f0: 973f d0bc 1db3 953d ddc6 183f 07b0 953e
-0.19581592 -0.036649507 -0.35662234 -0.08657937 0.17118968 -0.33883232 0.9260597 0.14658956
1.199822 0.16600746 -0.1471282 -0.049464025 0.039889254 -0.07782346 0.32157645 0.23663576
-0.15821603 -0.15181781 -0.25641444 -0.10220731 -0.4542462 0.34466022 -0.0718942 0.33694172
0.16154176 0.15506564 0.15824874 0.11431245 0.18222165 -0.07087338 0.35332707 0.120486945
0.44118404 -1.2648022 -0.20604593 -0.31444654 0.2239753 0.12021193 0.021845195 0.07617627
-0.59948057 -0.46160063 0.24050945 -0.10143555 -0.2004823 0.12267865 0.09397721 0.5869226
0.046702262 -0.082212694 0.29969126 0.17097767 -0.030395227 0.15540087 0.348522 -0.20853388
0.11134349 -0.1309474 0.047621537 -0.10224968 0.0366124 0.036820717 -0.13566835 -0.19022098
0.093634695 -0.031173544 0.13118072 0.18077953 0.08079421 0.0040149624 -0.053688746 -0.09608276
-0.23809265 -0.016832963 -0.2259581 0.28183913 0.18329354 0.10089801 -0.03190176 -0.19052228
0.0733018 1.5948334 0.36582556 1.1146649 0.254408 0.27308357 0.3529492 0.0040235985
0.55725545 0.51920193 0.09799408 0.15394081 -0.003368099 -0.10612345 0.055348102 -0.07856907
0.32327515 0.28651494 -0.08315869 -0.20674069 0.15517513 0.2939603 0.5003997 -1.1745048
1.7973155 0.16169767 -0.10754407 0.022728913 -0.03718322 -0.1345133 0.05848824 0.4843598
-0.20038791 0.21346857 -0.4062235 0.16321047 -0.050540287 0.124389805 0.083331764 -0.2937795
0.3837857 0.00840281 0.1862116 -0.021304961 0.15128034 0.31925705 0.5369023 0.13067175
0.2865737 -1.2083223 0.12482725 -0.84998393 -0.05145661 -0.07523887 -0.25520447 -0.2420321
-0.39887205 -0.23231514 -0.2763702 0.05370185 0.14793919 0.2732208 -0.08795703 0.09303122
0.009490704 -0.08765381 -0.45781326 0.13316995 0.05978382 0.2068874 -0.42103404 0.5838878
1.3841991 -0.09563858 -0.02081377 0.23114686 -0.05946421 -0.042973757 0.25050995 -0.10150346
-0.07935951 0.3739446 0.15978457 0.042929795 -0.14587457 0.03712666 0.08794853 -0.32778952
-0.11204821 0.14810872 0.08959898 0.090256296 -0.055012804 0.56591994 0.21755926 0.03871859
0.8713264 -0.55859375 -0.70741534 -1.409536 -0.015812393 -0.12632602 -0.09405803 -0.0063900067
-0.73472774 -0.080952935 0.2749421 -0.04357839 0.1850724 -0.23662286 0.038825043 0.21656184
-0.107351325 0.049848005 -0.13099244 0.2547738 0.04048608 -0.008902989 1.0933608 0.24544851
0.24275017 -0.4439927 -0.03888145 0.036582753 0.3307053 -0.18353249 0.024192654 -0.009298144
0.119583085 0.12039652 0.41011846 0.12220472 0.13985556 -0.5510434 -0.20889705 0.05813278
-0.14377806 -0.011088895 -0.3065441 0.07110683 0.09665953 0.035181504 0.667915 -0.23233278
0.12683213 1.3122077 0.42290145 1.3099066 0.3199589 0.12094338 0.079189405 0.7648532
0.16833794 -0.058221173 0.47370675 0.01631047 0.09475684 -0.336003 -0.19412483 -0.10835591
0.05184253 0.3055154 -0.2785488 -0.11878799 0.013297212 -0.27786285 0.95529026 0.40507907
0.2999417 0.34447163 0.19947289 0.24274918 -0.025420947 0.07309554 0.5967844 0.2923586

conv3.bias f4 [8]
00000000: 2b4a 6e3e 0364 8a3e b9ed 3b3b 1a4b 5fbc
00000010: 6208 8ebd 07ba 08be 4dcf 60be 27dc 3d3e
0.2327048 0.27029428 0.002867563 -0.013628745 -0.06935193 -0.13352214 -0.21954079 0.18541013

t_conv1.weight f4 [8, 8, 3]
00000000: 9465 7bbf 2660 cdbe 8577 c53e ec80 9cbe
00000010: 9f5e 5bbd cab4 d9bd 6c8f 28be 6c13 bebe
00000020: 66d3 47be 5200 b7bf 4fea 9c3e 7ecf a03e
00000030: 00a5 dd3e 8c1b 783e 5975 913d abb4 0c3d
00000040: c4fc c93a e3be 80c0 1b90 ac3d 60ca 953e
00000050: 3eda 853e 356d 75bc 0cc5 fc3e 503b 673e
00000060: 67c2 cbbd 4dd6 9f3d 6581 a53e f2ca 57be
00000070: 10db 32bd 6fe7 c7be 69fb 853e 0037 803e
00000080: 834f 6e3e bb1a bdbc cd87 96be 03be 96be
00000090: bf28 a8be 31b9 f6be 2e91 be3c c253 833e
000000a0: 2cc9 33bd 64d2 11c0 d11c 7abe 3946 1dbf
000000b0: b542 9dbd 4fd1 d43e a44c f2bc f27f f6be
000000c0: b37a 86bf 0670 3f3e 503f 0c3f ed17 3c3e
000000d0: 223e e33d f057 763e b0c9 9f3d 86ab 96be
000000e0: 40f7 76bc b94a f73e 196c 833c f876 1e3f
000000f0: e093 293e c850 073e 9833 babd 70c0 b83f
00000100: b242 81be 83c6 5dc0 70d1 663e db72 3b3e
00000110: 0179 433d 779a df3e 3f19 1abf cd71 1c3f
00000120: 6228 02bf a678 00be ca49 903d 3087 123f
00000130: 7a47 4a3e 4ebf f8bd a5bc f8bc 7863 cf3d
00000140: a442 773c 00c4 e2be 549b 8c3e 68d1 2bbb
00000150: 1e9d f53e c8d3 2ebd 031e 8d3d 6e97 513f
00000160: fa8c 4e3e cdbc 54c0 cf60 523e 0051 f93c
00000170: ca0d 153e 4eef 2f3d efa8 353e 7b6a 8fbe
00000180: 25ba 82be 4bb8 c93e a16a 5a3e fbdc d7bd
00000190: f1be e1be 7212 bbbe f008 853e e949 3a3e
000001a0: d681 f53d f82f b3be e47d 933e 6992 0f3f
000001b0: fe1a d63d 01e6 e7be 0db4 e73e 9ece 873e
000001c0: 0724 cf3d 40c7 c13f 7e94 753e 0816 8dbf
000001d0: 73bf a23e 06cf 6b3e 3864 d63e aff9 aa3d
000001e0: ec90 113f 9a4d 403d 0f81 cf3d 43b7 ad3e
000001f0: 37b4 4e3e 0ef7 983e bd92 c83e d290 163e
00000200: bedb 553e 443d 8abf 69c9 dc3d a2fb e3bd
00000210: 030d c83d 31f9 48bd 7917 493d 9155 c33e
00000220: d1ec aa3e f54c 09c0 e822 cd3e c5e7 1c3e
00000230: be46 7b3d 2424 74be 641f 35bd d0ae 8dbd
00000240: 1515 d8be 6401 48bd e561 af3e c565 893e
00000250: 5f04 d13e 55c8 023f 1592 1c3e 0c1c 9e3e
00000260: f910 b53d bc2e fb3e f07c 493e 47dd 3bbf
00000270: 0342 79be f146 67be 88da fc3e 083c 903f
00000280: 77c1 973e e227 f3bf 8b83 c3bc 51db a2bd
00000290: 66f6 b83e dcc9 143c 6a24 1cbd 2455 cabe
000002a0: c191 e7be c7df b6bd 2dcd 873e 5e61 013f
000002b0: e0cd 893e ac62 1a3e e5f0 473e 560c a83e
000002c0: 9f07 0b3e 6fe1 653f b8d7 43be 0fe5 acbf
000002d0: 8ef9 4ebe 1853 4bbe 9d04 ac3d 985c 933d
000002e0: bdf6 ccbd b16f 36c0 37de 86be 8e6f a5be
000002f0: af20 cbbe 32b4 603e 59b4 ccbe bd8c 2dbe
-0.9820187 -0.40112418 0.3856775 -0.3056711 -0.053557035 -0.10630186 -0.16460961 -0.37124193
-0.19514236 -1.4296973 0.30647513 0.31408304 0.43289948 0.24229258 0.071024604 0.034351986
0.0015410413 -4.0233016 0.084259234 0.29255962 0.26143068 -0.01497965 0.49369085 0.2258122
-0.09949189 0.078045465 0.32325283 -0.21073511 -0.043665946 -0.39043757 0.26168373 0.25041962
0.23272519 -0.023084035 -0.29400483 -0.29441842 -0.32843587 -0.48188165 0.023262586 0.2564984
-0.043893024 -2.2784662 -0.24425055 -0.61435276 -0.07678739 0.4156594 -0.02957756 -0.4814449
-1.0506195 0.18695077 0.5478411 0.18368502 0.11095835 0.24056983 0.07802141 -0.29427737
-0.015073597 0.48299196 0.016042756 0.6190028 0.16560316 0.1321441 -0.09091872 1.4433727
-0.25246197 -3.4652412 0.22540832 0.18305533 0.04772282 0.43672535 -0.6019477 0.61111146
-0.5084287 -0.12546024 0.07045324 0.5723753 0.19753829 -0.121458635 -0.03036339 0.10126394
0.015091572 -0.4429016 0.27462256 -0.0026217345 0.47971433 -0.04268244 0.0689049 0.8187169
0.20170966 -3.3240235 0.20544742 0.030434132 0.14556041 0.042952828 0.17740224 -0.28010926
-0.25532642 0.39398417 0.21329738 -0.105401956 -0.4409099 -0.3653751 0.2598338 0.18192257
0.11987655 -0.34997535 0.28806984 0.5608278 0.10454367 -0.45292667 0.45254555 0.26524824
0.101142935 1.5138931 0.23982427 -1.1022348 0.3178669 0.23028192 0.41873336 0.083484046
0.5686176 0.046949007 0.10132038 0.3392888 0.20185934 0.29875988 0.39174452 0.14703682
0.20884606 -1.0799947 0.107806034 -0.111319795 0.09768107 -0.049065772 0.04909465 0.3815122
0.33383802 -2.145322 0.40065694 0.15322788 0.061346762 -0.23841912 -0.04421939 -0.069181085
-0.42203584 -0.04882945 0.34254375 0.26835456 0.40823647 0.5108693 0.15290101 0.30880773
0.08841128 0.49059093 0.19676566 -0.7338452 -0.24341588 -0.22585656 0.49385476 1.126832
0.2963979 -1.8996546 -0.023866436 -0.079519875 0.36125487 0.00908133 -0.038120665 -0.39518082
-0.4522839 -0.08929401 0.26523724 0.50539196 0.26914883 0.15076703 0.19525488 0.32821912
0.13577126 0.8979711 -0.19125259 -1.3507403 -0.20212385 -0.19855917 0.083993174 0.07195395
-0.10007999 -2.850567 -0.2634141 -0.32311672 -0.39673373 0.21943739 -0.39981344 -0.16948219

t_conv1.bias f4 [8]
00000000: e764 ae3d aa1e 79be 22b0 883e 0815 c23d
00000010: 5d0c 1d3c bc07 563e 1fb0 03bc 855d 16bc
0.08515339 -0.24328104 0.2669688 0.09476668 0.009585467 0.20901388 -0.008037596 -0.00917757

t_conv2.weight f4 [8, 16, 2]
00000000: 396a 9abd dcee abbd ba0f 80bd 2b25 5b3e
00000010: e0a8 babc 63b5 ba3e 97ec 34bc 527b c23e
00000020: 391e 763e c3dc c63d c0ff 88be b858 12be
00000030: 608e 47bc 523d 6ab9 4548 e23e 0e7d a23e
00000040: 0f69 1b3f 5e1a aa3a 9ad3 c1bd 1d71 c13d
00000050: 070d 2e3e 51f4 ec3e 3178 973e da95 b23d
00000060: f360 91be ef3e ae3e 395e ab3e 45a7 90bd
00000070: ba18 dbbe 85ba 043e 9aad e33d 39ad edbc
00000080: c056 9ebd c391 433e d6b4 3cbe 736d 963e
00000090: 0e45 203f e4bd d23c aa03 35be a6f9 91bd
000000a0: 19fc 16bf d9bb 8cbb d691 0d3f 0c50 e9bd
000000b0: d81c 8d3c 88e2 07bf bfb1 f03d 6a74 eebd
000000c0: 996f 28be 9686 623d 2ade fabe 8db6 a5bd
000000d0: 0cb3 283d 81a6 123d b02e 043f fd59 153e
000000e0: a42c 663d 702c e7bb 8e3c 753e eeb8 b33e
000000f0: 80cd e23e ddeb ddbe 838d 2cbe 7f79 d63e
00000100: 0058 1fbe 9df8 b0bd bea8 40be 7e6b ffbd
00000110: 3257 34be d736 ddbd 2228 053e 1332 653d
00000120: f59d a43e b4d8 a53e 78b1 eb3c ea2c 953b
00000130: adb0 8e3e 42c7 8e3e 3836 7e3e cad1 6b3e
00000140: c198 25bf a00a 33be 6e05 b23d b1e2 9bbd
00000150: 83c1 12be 1e01 93be d1cf 8cbd 52bd 14be
00000160: 0a7c b9bd cfb0 1bbe 49c4 d3bd 1488 6abd
00000170: 2bc5 9ebe 66eb e2ba e033 24be 3d75 13be
00000180: bd7f 993e a031 753e bbb6 01be c2b0 bbbd
00000190: b57c 903e c829 bf3e 159f 1bbf e6a1 b83e
000001a0: 6e03 a6be 484f 43be 3a35 5bbe b610 b2bd
000001b0: 6ea4 b9be 1c24 dbbe c6b9 52be 9c65 1bbe
000001c0: adfb a5bd 4e8e 7b3d d15d eb3e c1e9 2bbe
000001d0: c47c 2c3e f108 643e 994a 6fbe e8dd 143f
000001e0: 1932 30bc 80dc c4bd add5 b33e 4393 89bf
000001f0: 3ee0 153e 241a 99bf 99f5 3abd 3eae 21be
00000200: 1e3c 07ba bfb7 af3e d3c2 dbbd 6808 b33d
00000210: d444 afbe ce0f 9e3e 21fd 093f 30d7 b73b
00000220: cb85 473e 81cb c5be 7efb 843e 1944 393e
00000230: 796c 8fbe 2c4f df3d 1fc3 acbe 71f8 333e
00000240: eac3 e3be 59ba f93c d27e f53e e0ff 353d
00000250: 97de 823e d82d eb3d f06e 0f3e cfbb febc
00000260: e0fb a5bd 690d 843e 4069 3d3e 042b 9b3e
00000270: 3f8e 1cbc 84a0 bb3e 125b d33c 0da0 15be
00000280: d285 0dbe 1af9 35be 2215 a23d f24a e0bd
00000290: f165 003e 5728 32bd cd4e 28c0 6860 cc3e
000002a0: 97dc 933d 5d45 143e 0be0 ebbe e9e0 863d
000002b0: 122b 913d 1f6d 4f3d 5c2f d13e 5e6b ef3d
000002c0: 4fd4 2d3f cc4c 03be c512 4cbe fbf6 743d
000002d0: 8787 83be 508f 7cbd 4d14 023e 6da8 ac3e
000002e0: a13d 0e3f f5f0 a23e 4318 333e 6b29 933e
000002f0: d4a6 1dbf 69eb 08c0 7296 b63d bd87 3e3e
00000300: c438 563e eccc 3a3d b7eb 01be a42a c93e
00000310: d6fc 803d bbce 1c3e 4368 263e 5aef d13d
00000320: 3378 e0bd 27c3 2fbf bbc5 e03d 5dab 353e
00000330: 2189 82be 8e2d 1abe 404f ebbe 01dd b9be
00000340: 924c 7abe 0503 a3bd 472f 5f3d c8d2 dfbd
00000350: fdb0 843c ca98 753e 91cf 413e c8f8 ad3e
00000360: 2524 8fbe 0a65 dfbd 0ad7 993e 979c 633e
00000370: 924d c53c 2dbc 8f3d 3837 4cbe ae7d 593d
00000380: 46c1 ab3e 257f f9bc 0830 03be 2c96 4b3e
00000390: a00c 6b3e efde 9f3c 59e0 bdbe 1e0b 9cbe
000003a0: 75fa 3ebe c637 093d dbdd 523e 2e09 36be
000003b0: 1118 a03e 8b7f e9be 0af9 2bbf 28aa 4f3d
000003c0: 7f37 1dbe c5fe 07be 32f7 62bd 7acf 15be
000003d0: c81c a13e 5c4e 47bd 966a 58be 3b7c 11bf
000003e0: 5e09 ed3e 79eb 4cbe 16a3 8fbe e8ca a2be
000003f0: d9a4 2cbf b5d2 d6be c443 22be cb2e c23e
-0.075397916 -0.08395168 -0.062529996 0.21400897 -0.022785604 0.36466512 -0.011042736 0.3798471
0.24034967 0.09710076 -0.26757622 -0.14291656 -0.012179941 -0.00022338823 0.44195762 0.31736034
0.6070718 0.0012977829 -0.09464188 0.09445403 0.16997157 0.4628015 0.29583886 0.08719988
-0.2839428 0.3403239 0.33470324 -0.07063154 -0.42792302 0.12961777 0.11117096 -0.029013263
-0.0773139 0.19098572 -0.18428358 0.29380378 0.6260537 0.025725313 -0.17677179 -0.07127695
-0.5897842 -0.004294854 0.55300653 -0.11392221 0.017225668 -0.53080034 0.117526524 -0.11643298
-0.16448821 0.055304132 -0.48997623 -0.080914594 0.041186377 0.03580332 0.5163374 0.14585109
0.056194916 -0.007054858 0.23948881 0.35102028 0.4429741 -0.43344012 -0.16850857 0.4188957
-0.15560913 -0.08641169 -0.1881437 -0.124716744 -0.17611387 -0.108014755 0.1300359 0.055955958
0.32151762 0.32391894 0.028771147 0.0045524733 0.27869168 0.27886397 0.2482537 0.23029247
-0.6468621 -0.17484522 0.08692442 -0.07611597 -0.14331631 -0.2871179 -0.06875575 -0.14525345
-0.09056862 -0.15204166 -0.10340173 -0.05725868 -0.31009802 -0.0017312586 -0.16035414 -0.14400192
0.2998027 0.23944712 -0.12667362 -0.09164573 0.28220144 0.37336564 -0.60789615 0.3606102
-0.32424492 -0.19073212 -0.21407023 -0.086945936 -0.36258262 -0.42800987 -0.2057868 -0.1517548
-0.08104644 0.06141501 0.45970014 -0.16788389 0.1684447 0.22269036 -0.233683 0.581511
-0.010754132 -0.096123695 0.3512396 -1.0748066 0.14636323 -1.1961102 -0.045644376 -0.15789124
-0.00051587995 0.34319875 -0.10730519 0.08741838 -0.342322 0.30871433 0.5390187 0.005610369
0.19484632 -0.38631824 0.25973123 0.18092383 -0.28012446 0.10903773 -0.33742616 0.17575242
-0.44485408 0.030484365 0.4794832 0.044433475 0.25560448 0.114833534 0.14007163 -0.031095413
-0.08104682 0.2579148 0.18497181 0.30306256 -0.0095553985 0.366459 0.025800262 -0.14611836
-0.1382058 -0.17770806 0.07914187 -0.10951795 0.12538888 -0.043495502 -2.6298096 0.39917302
0.072198085 0.14479585 -0.4606937 0.06585867 0.07088293 0.050641175 0.40856445 0.116904005
0.6790208 -0.12822264 -0.19929035 0.05980585 -0.25689337 -0.06166011 0.12703057 0.3372225
0.5556279 0.3182446 0.17489724 0.28742537 -0.61582685 -2.1393683 0.08915414 0.18606468
0.20920092 0.045605585 -0.12687574 0.39290345 0.06298225 0.15313236 0.1625071 0.10250731
-0.10960426 -0.68657154 0.10975214 0.17741151 -0.25495246 -0.1505644 -0.459589 -0.36301425
-0.24443272 -0.0795956 0.054488447 -0.10928875 0.016197676 0.23984066 0.18926837 0.33978868
-0.27957264 -0.109079435 0.30046874 0.22227703 0.02408484 0.070183136 -0.1994294 0.053098373
0.33545893 -0.030456135 -0.12811291 0.19881505 0.22954035 0.019515483 -0.37085226 -0.30477232
-0.1865023 0.033500455 0.20592444 -0.1777694 0.3126836 -0.4560512 -0.6717688 0.050699383
-0.15353201 -0.1328078 -0.055411525 -0.14629927 0.3146727 -0.048658714 -0.2113441 -0.56830186
0.4629621 -0.200117 -0.28054112 -0.3179543 -0.6743904 -0.41957632 -0.15846163 0.37926325

t_conv2.bias f4 [16]
00000000: 44f7 ea3c 4fda 50ba 5b57 23be ddac c73c
00000010: f938 843c ce99 973d 102e eb3d 5c3a 56be
00000020: 84cc d2be ba4b 2bbf ed96 1a3e 0783 08be
00000030: 2b79 213d 5b2d 2cbe 578d 443d b3fd 98be
0.028682359 -0.0007967101 -0.15951292 0.02437442 0.016140448 0.07402383 0.11483395 -0.209207
-0.41171658 -0.66912425 0.15096636 -0.13331233 0.039422195 -0.16814177 0.047986355 -0.29881057

t_conv3.weight f4 [16, 32, 2]
00000000: dc03 343e 02ca e43d a926 aebd 24f6 cb3d
00000010: 79a9 b2bd 362a cfbe ce1c ddbd 3798 a73d
00000020: 42cc 08be 740f dabe 8fc3 50bd 4688 323e
00000030: e2f2 debd fe88 d4bd 905d d93d 49b1 7e3d
00000040: 9f37 4c3e e17a e6bb 66bb 5ebc 87b2 efbd
00000050: 2d64 693e c103 173e afd3 a63e 9aae 853e
00000060: 31db f03c 0313 853e 056f a2bd 031d 9e3e
00000070: 1c2d 5abe d0f6 eebe 9142 3f3e 66a3 82bd
00000080: 22ea 8d3d cc85 1abf 119d 76be 5c7e 38be
00000090: f4d2 7c3e 0a26 cb3d fa1e b5be 498f 46be
000000a0: 4d01 18bf f360 73be 17e7 633e 80d2 443d
000000b0: 9d0c dbba 7373 84bf 2766 91bd c4dc dabf
000000c0: efb0 413e b820 583e aa88 ef3d 882c 453e
000000d0: b8ed e5bb a26f f93c 0f5c ebbe d50f 233e
000000e0: 3669 90bd d304 e73e e0d2 843e ed86 1f3d
000000f0: 3016 e53c d2e9 373e 3628 9e3e 0722 5cbc
00000100: f212 c03c 8a7c 5a3e ed08 72be e64a 81bd
00000110: 73df 47bd ae20 b0bd 07cf 4cbf 684d 20bf
00000120: 8b9f ecbd 80c0 09be 2685 24be 01d4 d03d
00000130: 83af 983c ab7e 803d 4c6b 6f3c 190f ed3c
00000140: 9449 ba3d ce91 023e b8fa 66bd 4d6c d5bc
00000150: 007e 253e 5745 903d 8eb4 733e 9c7b 483e
00000160: 42fa 8d3c 7639 573e 2e8b 51bd 3495 763e
00000170: 3fd8 97bd 9eb0 63bd 8a69 913e 0ad2 24bf
00000180: 1c0d 3a3c 1643 983f 6cbb 87be b4ad 3a3e
00000190: fbda 143e 9ec7 763e f787 96be c4e8 9fbe
000001a0: fe88 c53e 30ea 3dbd acec 223e 975d 553d
000001b0: fa67 b73d 3086 dbbe dfdd 60bd 7243 8bbf
000001c0: e8e1 b73d 3841 223e 505d 913e 42b8 133f
000001d0: 0934 853d c6ed 97bd a244 953d 7e94 31be
000001e0: 28f6 7abd fceb ffbe 9cd8 e73c f678 c3bd
000001f0: c812 513d e18f acbd d983 133d e9d8 8b3e
00000200: f7b0 8f3d 70bb b93d 03ec 173e 3fae 51be
00000210: 09d5 fabc e0c8 803e 2155 95bf 2590 393e
00000220: 01eb dc3c e150 83be c172 05be cfb0 f5be
00000230: 0b91 27be 4c45 12be e0b6 1cbb c190 df3d
00000240: 9e2a 103e f20c ebbd e258 b83d 1ed4 7a3e
00000250: 2815 373c 4f61 113e 1731 373d 4a33 153e
00000260: 40c5 1e3d c31e 153e e0ca 6ebd d760 383e
00000270: 063f 73be 68e0 82be 43fa 4c3e 24af e1be
00000280: 7146 14bf 3f21 e0be 99ba 9cbe c63e edbe
00000290: 68be ae3d 7b71 593e 4516 7fbd eb98 45bd
000002a0: 7b29 87bf 6b1a f8be 8d67 01bd 4ed2 eabe
000002b0: 27db 8f3c 2445 e73e 0516 3b3d dbab 993e
000002c0: a159 30bc bcd9 8f3c c78f a33e f3a8 833e
000002d0: c8fa 9cbd b25e fa3d 7b1d 1c3e c5b9 033c
000002e0: e03e edbd 9721 c83e 18ec 933e 140e 76bb
000002f0: d6c7 c0bd fd2f a13e 9dde fcbd 626b f5bd
00000300: ea08 193d e788 77be 2fbb 55bf de91 d4bb
00000310: bc28 9c3d 2b04 9d3d eefe a33e 008e c53e
00000320: e610 23be 9c5f 0d3e cf62 72bd 4390 62be
00000330: a350 3b3e f8c3 a5be bfb4 9fbe e07a 2d3e
00000340: 7815 11be 8233 d73d ea99 a2bc a644 2e3e
00000350: 62f2 513e 13f3 79be 6e73 6d3e 1540 c83c
00000360: da66 f03d 5529 213b cda1 37be 5367 d8bd
00000370: 6d6b 8e3e 24cc 4f3e 0d52 a9be be3b 24bf
00000380: e3c3 40bf f900 09bc 4e83 ae3e 52a4 a33d
00000390: 3a38 9d3c 952f 7b3d 68ec ac3e f269 a63e
000003a0: bd5a 68bd 7fb9 3dbe f8fd 073f 5add 523d
000003b0: 71ec f4ba bcad ab3e 918d 0dbe 78cf fbbd
000003c0: e4b9 0c3d 6e29 303e 494a 39be 7cfd cabc
000003d0: 3e30 a43c cf01 01be a3ea aebe 025a 833d
000003e0: e238 e7bd 7f52 c83c 1b8e 31be 100e 5dbd
000003f0: 5a3e aabd fff5 e1be 1d86 6dbf 0a44 b53c
0.17579597 0.111713424 -0.085034676 0.09959057 -0.087237306 -0.40461892 -0.1079651 0.081833296
-0.13359168 -0.42589915 -0.05096775 0.17434797 -0.1088617 -0.10377692 0.10613549 0.06218079
0.19943093 -0.0070336913 -0.013594484 -0.11703973 0.2279212 0.14747526 0.32583377 0.26109773
0.029401394 0.25991067 -0.079313315 0.3088151 -0.2130627 -0.46672678 0.18677737 -0.06378822
0.06929423 -0.6036041 -0.24083354 -0.18016952 0.24689847 0.09919365 -0.35375196 -0.19390596
-0.59376985 -0.23767452 0.22256123 0.04805231 -0.0016712133 -1.0347732 -0.07099562 -1.7098622
0.18915151 0.21106231 0.116959885 0.19255269 -0.0070168637 0.030448738 -0.45968673 0.15924008
-0.070513174 0.45120868 0.25942135 0.038947035 0.027964681 0.17960289 0.30890054 -0.013435847
0.023446534 0.2133657 -0.23636217 -0.06313114 -0.048797082 -0.08599983 -0.800034 -0.6261811
-0.11553868 -0.13452339 -0.16066417 0.101966865 0.018638378 0.0627416 0.014612984 0.028937863
0.09096065 0.12750933 -0.056391448 -0.026052618 0.16161346 0.070444755 0.23799345 0.19578403
0.017331246 0.21018013 -0.051158123 0.24080354 -0.074142925 -0.055588357 0.28400832 -0.64382994
0.011355665 1.1895473 -0.2651018 0.18230325 0.1453666 0.24099585 -0.29400608 -0.31232274
0.3858108 -0.046365917 0.15910596 0.052091207 0.08955379 -0.42875814 -0.054899093 -1.0879958
0.08978635 0.15845191 0.28391504 0.5770303 0.065040655 -0.074183986 0.07288481 -0.17341802
-0.06126991 -0.4998473 0.02830153 -0.09544556 0.0510433 -0.0842588 0.03601441 0.27313927
0.07016175 0.09068954 0.14836125 -0.20476626 -0.030619161 0.25153255 -1.1666604 0.18121393
0.026967527 -0.25647643 -0.13032056 -0.47986457 -0.16363923 -0.14284247 -0.0023912713 0.109162815
0.14078757 -0.114770785 0.09001328 0.24494979 0.011174478 0.14197277 0.04472455 0.14570346
0.03876233 0.14562516 -0.058298945 0.18005691 -0.2375451 -0.25561833 0.20017342 -0.44078934
-0.57919985 -0.43775365 -0.30611113 -0.46336955 0.08532411 0.21234696 -0.062277097 -0.048241537
-1.0559534 -0.48457655 -0.031592894 -0.45863575 0.017560555 0.45169938 0.045675296 0.30013928
-0.010763557 0.017559879 0.3194563 0.25714836 -0.0766502 0.12225093 0.15245621 0.008039896
-0.11584258 0.39088127 0.28891063 -0.0037545012 -0.09413116 0.31481925 -0.123471476 -0.11983372
0.037362017 -0.24173318 -0.83488744 -0.0064871153 0.07624957 0.076668106 0.32030433 0.385849
-0.15924415 0.13806003 -0.059176262 -0.22125344 0.18292479 -0.32376075 -0.31192586 0.16941404
-0.14168346 0.10507871 -0.019848783 0.17018375 0.20502618 -0.24409132 0.23188564 0.02444462
0.117383674 0.0024591286 -0.17932816 -0.105665825 0.27816334 0.20292717 -0.33070412 -0.6415366
-0.752989 -0.008362048 0.34084553 0.07990326 0.01919185 0.061324675 0.33774114 0.32502705
-0.05672716 -0.18527792 0.531219 0.05148063 -0.0018686188 0.33530986 -0.13823535 -0.12295431
0.034356967 0.17203304 -0.18094744 -0.024779074 0.020042535 -0.12598346 -0.3416339 0.06413652
-0.112901464 0.0244534 -0.17339365 -0.05396849 -0.08312674 -0.44132993 -0.92782766 0.02212717

t_conv3.bias f4 [32]
00000000: d129 323e d0bb d33d 5e55 81bd ff28 89bd
00000010: d67e 25be 704b 08bd 6d1a a53d 6234 eaba
00000020: 8448 063e 1318 6a3c 892c 383e b20c 183e
00000030: d1b8 383e 7738 443e 0069 26bd 4d12 a0bc
00000040: ce50 4d3d 28f8 ef3d fdd6 783e b1e7 3d3c
00000050: ab57 4e3e 8210 21bf ed00 d7be 6610 74be
00000060: f4cb 0f3e 6de6 583c a635 e5b9 3a79 6c3d
00000070: c7a5 b4be 41a4 92be fbe2 bbbe 8d3b af3c
0.17398764 0.10338557 -0.063151106 -0.066972725 -0.16161665 -0.033275068 0.08061681 -0.0017868394
0.131136 0.014287966 0.17985739 0.14848593 0.18039252 0.19162165 -0.04062748 -0.019539976
0.05012589 0.11717254 0.24300762 0.011590884 0.2015063 -0.62915814 -0.41992894 -0.2383438
0.14042646 0.013238532 -0.00043718255 0.0577328 -0.35282728 -0.2864094 -0.3669661 0.0213907

conv_out.weight f4 [1, 32, 3]
00000000: d8c0 dfbd a5e2 b8bd 1826 49bd be97 52be
00000010: 2c82 e1bc de06 293e 4354 5e3e 6199 be3d
00000020: 60b7 a3bc 215b 05be 1edf 0cbf 1468 16bf
00000030: bbe2 15bf 8660 17bf c857 c1be aeb1 a8be
00000040: 8b0e 303d bbd7 9abe fa2f 983d ddec c4bd
00000050: b47f 02bd 75c1 883c bb1f 273e ec51 5ebe
00000060: 52fc 11be b511 2f3d 3b76 0ebe a5cb 64bd
00000070: fa43 0e3e a580 96bd d886 18bd c5eb 20be
00000080: 932f 4bbe 8a3c 6dbe e292 36be 284a 31be
00000090: ca56 44be 93ca 26be 9017 5abd 1534 89be
000000a0: d9c3 c1bd 53cc 2c3d b037 373e fcd6 b33c
000000b0: 984d 523e 2c71 503e a688 2cbe afb3 80be
000000c0: 4d1d 893e c5db a73d 8cc5 aebe 9e98 4c3e
000000d0: 19e1 113e 1379 983e f8cd 5dbe b38a f0bd
000000e0: 07af 61be bc56 c13d 6b83 f33d a43a 253e
000000f0: c09a 253e a617 593d 47b0 9bbe 58f9 d63e
00000100: 5aa3 6d3f 5c97 4b3f 25cc 91bf a504 d3bf
00000110: ad50 89be 59c6 ac3d 5dad 553e ec02 8a3e
00000120: 9001 26be d359 443c 188d e4bd a702 01bf
00000130: dbc1 86be 77cd 1ebe 5430 a3bc 3dcf 3f3e
00000140: 015d 17be d664 a5be 106f a33e af6d a13c
00000150: a7df 0c3f 1c12 193f df83 c83e cbf9 a03d
00000160: c16d c73d b564 053f 09b9 8a3f fe51 863f
00000170: 9cee 273f 583c 6cbe c445 663c 1c5b 883e
-0.10925454 -0.09027604 -0.049108595 -0.20565698 -0.027527891 0.16506526 0.21711831 0.093065985
-0.019984901 -0.13023044 -0.5502795 -0.5875256 -0.5854909 -0.5913166 -0.37762284 -0.3294806
0.04298262 -0.30242714 0.07431026 -0.096154906 -0.03186007 0.01669381 0.16320698 -0.21710938
-0.14256409 0.042741496 -0.13912289 -0.055858273 0.13893119 -0.07348756 -0.037237972 -0.15714939
-0.19842367 -0.23167625 -0.17829469 -0.17313445 -0.19173732 -0.16288213 -0.053245127 -0.26797548
-0.09461183 0.042187046 0.17892337 0.021953098 0.20537412 0.20355672 -0.16849002 -0.25137088
0.26780167 0.081962146 -0.3413509 0.19980094 0.14246024 0.29779872 -0.21660602 -0.11745205
-0.22039424 0.094403714 0.118903 0.16135651 0.16172314 0.05300107 -0.30407926 0.4198711
0.9282738 0.7952783 -1.1390425 -1.6485792 -0.26819363 0.08436269 0.20866914 0.26955354
-0.16211534 0.011984306 -0.11159724 -0.5039467 -0.26319775 -0.15508066 -0.019920506 0.18731399
-0.14781572 -0.32303494 0.3192067 0.019705622 0.55028766 0.5979326 0.3916311 0.07860144
0.09737731 0.5210679 1.0837718 1.0493772 0.65598464 -0.23069894 0.014054719 0.2663201
