dAE_PyTorch/checkpoints/spectra_dae_epoch_2.pth (torch, 18875 bytes, 13 tensors)

conv1.weight f4 [32, 1, 3]
0.6674711 0.555842 -0.20663293 -0.13093318 -0.038677488 0.3833127 -0.3666555 0.6156564
0.04331514 -0.0403973 -0.08882345 0.7040834 0.33575147 -0.32647586 -0.40948483 -0.10578315
-0.28795144 0.24616489 -0.422704 -0.4963247 0.41154355 0.7047557 0.18848497 -0.39989227
-0.0019442369 -0.52029914 0.11516349 0.1156414 0.42246145 0.59180945 -0.3647918 0.39468
-0.4982636 -0.56344754 -0.0314075 0.5251932 0.14458913 -0.030907996 0.53125656 0.49029946
-0.4068465 -0.6588894 0.5472994 -0.03187274 0.21796386 -0.27823555 0.62539726 -0.46412805
0.017165698 -0.98800844 0.012204007 0.42224923 0.42772216 0.40216744 -0.7589608 0.10803992
0.24211083 0.23945004 0.05639794 0.3299119 0.047521584 0.25831404 -0.0013474899 0.015897838
-0.007271481 0.26572594 0.49165305 -0.3520939 -0.20312004 -0.34138498 -0.6500143 -0.4543617
-0.42889634 -0.68334806 0.14639883 -0.29805055 -0.31536797 -0.4190118 -0.1688568 -0.49890092
0.061161842 0.13017921 0.41868505 -0.86495835 -0.17378458 -0.26293138 -0.65234303 -0.02149274
0.23354493 -0.7701198 0.1133749 0.6873216 -0.13102295 -0.86002415 0.36626217 0.13048625
00000000: 63df 2a3f a94b 0e3f 9597 53be 5913 06be
00000010: 496c 1ebd 9041 c43e 45ba bbbe a89b 1d3f
00000020: 376b 313d a477 25bd 12e9 b5bd cf3e 343f
00000030: 9ee7 ab3e d827 a7be ffa7 d1be d6a4 d8bd
00000040: 5f6e 93be a612 7c3e a96c d8be 451e febe
00000050: d6b5 d23e df6a 343f 3402 413e aebe ccbe
00000060: c4d5 feba 5332 05bf d6da eb3d 66d5 ec3d
00000070: de4c d83e d380 173f fec5 babe 7f13 ca3e
00000080: 681c ffbe 193e 10bf 27a5 00bd 1073 063f
00000090: 2c0f 143e c432 fdbc 6e00 083f 8808 fb3e
000000a0: 2f4e d0be faac 28bf d01b 0c3f fd8c 02bd
000000b0: eb31 5f3e e474 8ebe 091a 203f 31a2 edbe
000000c0: 149f 8c3c 1fee 7cbf 51f3 473c 0d31 d83e
000000d0: 66fe da3e e4e8 cd3e 414b 42bf 0944 dd3d
000000e0: e7eb 773e 6432 753e 8701 673d 36ea a83e
000000f0: fea5 423d bd41 843e 429e b0ba 2f3c 823c
00000100: 9b45 eebb 3b0d 883e f3b9 fb3e a745 b4be
00000110: b3fe 4fbe 03ca aebe 5667 26bf 19a2 e8be
00000120: 4d98 dbbe e6ef 2ebf 93e9 153e 159a 98be
00000130: e977 a1be b788 d6be cce8 2cbe f16f ffbe
00000140: d784 7a3d b34d 053e e35d d63e e96d 5dbf
00000150: 96f4 31be f19e 86be f4ff 26bf 8b11 b0bc
00000160: 6726 6f3e 9226 45bf 1931 e83d 4ff4 2f3f
00000170: e12a 06be 8b2a 5cbf b786 bb3e 309e 053e

conv1.bias f4 [32]
-0.12977323 -0.07660155 -0.13165294 -0.5480568 -0.38586184 0.029230174 0.27977487 -0.3062875
0.17491636 -0.21974513 0.32589453 -0.10169564 -0.3634167 0.1032279 -0.21628286 -0.5368524
0.049676564 -0.010126196 0.4100518 -0.4901553 -0.07308301 0.31952 -0.43108508 -0.12150753
0.6201949 -0.0853763 0.2537775 -0.10531426 -0.4136632 0.21531104 -0.6058723 -0.09721479
00000000: 46e3 04be 46e1 9cbd 07d0 06be 734d 0cbf
00000010: af8f c5be 1e74 ef3c a73e 8f3e b7d1 9cbe
00000020: 461d 333e de04 61be a6db a63e ce45 d0bd
00000030: c111 babe 2669 d33d 4179 5dbe 296f 09bf
00000040: a779 4b3d 58e8 25bc 4ff2 d13e a3f5 fabe
00000050: 8cac 95bd 2098 a33e 2fb7 dcbe f1d8 f8bd
00000060: 18c5 1e3f c5d9 aebd 20ef 813e 01af d7bd
00000070: aacb d3be 7f7a 5c3e 721a 1bbf 8c18 c7bd

conv2.weight f4 [16, 32, 3]
0.01858951 0.06645872 0.046855047 -0.035035495 0.016871685 0.14442398 0.019334191 -0.03099658
0.2705885 0.5626454 0.9412233 1.5375825 -0.026911546 -0.10950718 -0.025381876 0.07119927
0.06190228 0.02674279 -0.025653286 -0.0027746854 -0.018676016 -0.010982348 -0.022216285 0.034879826
0.07563454 0.00258308 -0.33524126 0.08346094 0.0075303223 0.27632967 0.061884873 -0.014675548
-0.112287596 0.01863037 0.17144738 0.50051093 -0.039515276 0.18091206 0.3712554 -0.379437
-0.21462944 -0.7450119 -0.018336436 0.008973267 0.16538683 0.11188913 0.009788208 0.08682236
-0.19357324 -0.2530127 -0.2267811 -0.062584914 0.05163463 0.12785342 0.048811626 0.031750515
-0.043908067 0.19282249 0.18324532 -0.019851755 -0.04178145 0.085890785 0.073773354 0.02766172
0.005178527 -0.031710893 0.023819821 -0.068623565 -0.094734676 -0.074785225 -0.038143672 -0.06610524
-0.15628402 -0.06907328 -0.3203602 -0.07457043 -0.14892228 -0.07893334 0.16328578 0.008319833
-0.055475045 -0.008724019 0.110086985 0.059660107 -0.004573797 0.033968482 -0.16020483 -0.24292898
-0.29299074 -0.8435559 0.5205423 0.2853414 0.8463428 -0.20370173 -0.2464607 0.022342402
0.027514294 0.09643495 0.1525792 -0.076045915 -0.0036119614 0.13688621 -0.09545662 -0.08004328
0.16814396 0.36584568 -0.09021671 0.85461867 -0.028290084 0.022664424 -0.103028975 0.062757954
-0.04077013 0.059764825 -0.18804254 -0.12433789 0.025584474 -0.010429273 -0.010316468 -0.3811368
-0.10232809 0.10810131 -0.2027466 0.06180631 -0.013774606 0.17558761 -0.14193703 0.035483424
-0.058081232 -0.19226792 -0.09254743 0.116522096 -0.014458034 -0.11052555 0.18095802 -0.2852136
0.27487093 -0.7095731 0.10038659 0.047232952 0.091030814 0.07070975 -0.0118575925 -0.07419104
-0.3201116 -0.32965806 -0.37104788 0.07202077 0.047551412 0.14613038 -0.0590503 -0.04271486
0.122924894 -0.064821035 -0.16866614 0.047371555 0.064166404 -0.03184594 0.13638973 -0.08317928
0.1110001 0.06916021 0.05046938 0.02086801 -0.12615356 -0.09506856 -0.13334212 -0.055133734
-0.123723656 -0.14318718 -0.17310528 -0.108490184 -0.094899274 -0.06549438 0.08137364 -0.039687745
0.024282962 0.070752665 0.057105277 0.055459376 -0.016497 -0.014446484 -0.13587794 -0.2490534
-0.04250087 -0.714344 0.3262553 -0.041965973 0.05618179 -0.27602345 0.11990169 0.32163832
-0.16225566 0.00071228837 -0.03170588 0.0036875375 0.059164036 0.10614264 0.17598417 0.209032
0.13866837 -0.18922688 -0.059833378 0.027530022 -0.047189 -0.050275035 0.15766165 -0.0065082447
0.12709942 -0.04113845 0.03752494 0.07296286 -0.20941427 -0.26720887 0.01151544 0.5051033
0.13128307 -0.032356203 -0.19311586 -0.08968789 -0.0010627491 -0.0014818412 0.11998296 0.02690864
-0.05824328 0.74614537 0.2738558 0.30350327 -0.14762238 0.10378226 0.14910457 0.19066909
-0.15851821 0.19560874 -0.04633257 0.09385595 0.18671 0.09436116 0.046183784 0.12020524
2.1574237 0.58273077 0.47630498 -0.17588758 0.056368712 0.04251613 0.104524896 0.042081714
-0.17419614 0.05493868 -0.07188636 0.11819852 -0.023034122 0.0668436 -0.061189335 0.012472822
00000000: 0749 983c 821b 883d 14eb 3f3d 6181 0fbd
00000010: 7d36 8a3c e1e3 133e bd62 9e3c 8aec fdbc
00000020: 938a 8a3e 8709 103f 03f4 703f 81cf c43f
00000030: 9a75 dcbc 4d45 e0bd a7ed cfbc ecd0 913d
00000040: 3f8d 7d3d b213 db3c d726 d2bc 7fd7 35bb
00000050: 72fe 98bc 4eef 33bc edfe b5bc 26de 0e3d
00000060: 48e6 9a3d e448 293b bea4 abbe 92ed aa3d
00000070: ecc0 f63b 157b 8d3e fe7a 7d3d b671 70bc
00000080: 0af7 e5bd b89e 983c e78f 2f3e 7c21 003f
00000090: c5da 21bd 0341 393e 3015 be3e 9145 c2be
000000a0: d2c7 5bbe 1ab9 3ebf 4b36 96bc 9c04 133c
000000b0: 2a5b 293e 2126 e53d b85e 203c eccf b13d
000000c0: 1038 46be e18a 81be 4e39 68be 852c 80bd
000000d0: d57e 533d 02ec 023e b3ee 473d d40c 023d
000000e0: f2d8 33bd 4273 453e a9a4 3b3e 26a0 a2bc
000000f0: 0723 2bbd 82e7 af3d 7c16 973d d59a e23c
00000100: a2b0 a93b 48e3 01bd c921 c33c 838a 8cbd
00000110: 4104 c2bd ff28 99bd 8a3c 1cbd 2f62 87bd
00000120: eb08 20be 4b76 8dbd 4106 a4be 62b8 98bd
00000130: 157f 18be cea7 a1bd 6334 273e e94f 083c
00000140: cd39 63bd 30ef 0ebc 4975 e13d 285e 743d
00000150: cadf 95bb 8922 0b3d bc0c 24be 60c2 78be
00000160: e202 96be 48f3 57bf 4342 053f 4518 923e
00000170: eca9 583f 3097 50be 3260 7cbe 6a07 b73c
00000180: a865 e13c b07f c53d b93d 1c3e f6bd 9bbd
00000190: a8b6 6cbb e62b 0c3e c37e c3bd bbed a3bd
000001a0: ee2d 2c3e 2050 bb3e 8ac3 b8bd 4ac8 5a3f
000001b0: 9bc0 e7bc beaa b93c db00 d3bd 3e87 803d
000001c0: 94fe 26bd f6cb 743d 398e 40be dda4 febd
000001d0: 8896 d13c 8bdf 2abc 6706 29bc 5d24 c3be
000001e0: 6491 d1bd 3864 dd3d ce9c 4fbe 9d28 7d3d
000001f0: e3ae 61bc 3dcd 333e f157 11be 1157 113d
00000200: 96e6 6dbd e2e1 44be 8289 bdbd 23a3 ee3d
00000210: 64e1 6cbc 385b e2bd 0f4d 393e 8407 92be
00000220: e2bb 8c3e 95a6 35bf 7c97 cd3d 5777 413d
00000230: 5d6e ba3d 46d0 903d 5946 42bc 79f1 97bd
00000240: abe5 a3be f1c8 a8be fdf9 bdbe a07f 933d
00000250: 45c5 423d 34a3 153e bade 71bd c7f5 2ebd
00000260: 0cc0 fb3d e4c0 84bd d1b6 2cbe ad08 423d
00000270: ad69 833d e370 02bd c0a9 0b3e e659 aabd
00000280: 0554 e33d dea3 8d3d fbb8 4e3d 64f3 aa3c
00000290: 662e 01be 4eb3 c2bd d68a 08be e9d3 61bd
000002a0: d462 fdbd a99f 12be 8342 31be 1a30 debd
000002b0: 8d5a c2bd eb21 86bd 39a7 a63d 9e8f 22bd
000002c0: 10ed c63c c6e6 903d 39e7 693d 5f29 633d
000002d0: b724 87bc f2b0 6cbc 9623 0bbe db07 7fbe
000002e0: 6415 2ebd 40df 36bf ef0a a73e 83e4 2bbd
000002f0: e01e 663d f252 8dbe 048f f53d c7ad a43e
00000300: 5926 26be ddb8 3a3a 06de 01bd 9daa 713b
00000310: fd55 723d 5061 d93d 3235 343e 7c0c 563e
00000320: 15ff 0d3e b1c4 41be d813 75bd a486 e13c
00000330: 4149 41bd 32ed 4dbd 0e72 213e 1d43 d5bb
00000340: 5a26 023e cb80 28bd c0b3 193d 8d6d 953d
00000350: b270 56be 9acf 88be 42ab 3c3c 734e 013f
00000360: 126f 063e f087 04bd 2ac0 45be 49ae b7bd
00000370: f14b 8bba 573a c2ba a0b9 f53d 826f dc3c
00000380: 8190 6ebd 6203 3f3f d436 8c3e c864 9b3e
00000390: 522a 17be cb8b d43d deae 183e c23e 433e
000003a0: 9952 22be a84d 483e 39c7 3dbd 8c37 c03d
000003b0: e830 3f3e 6d40 c13d 352b 3d3d 2a2e f63d
000003c0: 3b13 0a40 d82d 153f 3fde f33e e01b 34be
000003d0: e1e2 663d 6525 2e3d 2611 d63d e05d 2c3d
000003e0: 7960 32be 6207 613d 2839 93bd 1112 f23d
000003f0: 0eb2 bcbc 4ce5 883d aba1 7abd cf5a 4c3c

conv2.bias f4 [16]
-0.08666211 -0.030739062 -0.07224693 -0.030213766 0.11013014 -0.06232544 -0.11756695 -0.0031167378
0.17952165 -0.01884331 -0.057936482 -0.06244972 0.0022811517 -0.31642604 -0.05412624 0.17043866
00000000: e87b b1bd 7cd0 fbbc 33f6 93bd dc82 f7bc
00000010: e98b e13d f648 7fbd f1c6 f0bd 2f42 4cbb
00000020: 86d4 373e 495d 9abc ce4e 6dbd 47cb 7fbd
00000030: 607f 153b 9802 a2be 7ab3 5dbd 7987 2e3e

conv3.weight f4 [8, 16, 3]
-0.030936774 -0.101559944 -0.25940305 0.023745585 -0.031489555 -0.099447384 0.10799593 0.0037574184
-0.055546958 0.17795657 -0.00136072 0.009752567 -0.03943759 -0.10494621 0.26167557 0.27361435
-0.13116875 -0.07214312 -0.13540739 0.059691537 -0.28027573 0.18360816 0.1908773 0.12233306
0.18106115 0.14001401 0.10218402 0.26424357 -0.0074500027 0.08356533 0.66448104 -0.35719496
0.469996 -0.83312494 -0.24431655 -0.5444108 0.07693166 0.034964144 0.021747593 -0.025997767
-0.33626488 -0.22679529 0.19496049 -0.15348606 -6.492788e-05 0.17726421 -0.04448594 0.3883234
0.14843035 -0.1398259 0.2533071 0.24539022 0.049932692 0.07560668 -0.015312037 -0.0353764
-0.021754384 -0.072523795 0.03254306 -0.031236941 -0.1451161 -0.010729965 -0.058564782 -0.10894807
0.1817998 -0.021618914 0.15855724 0.2204759 0.11338135 0.046492074 -0.08429689 -0.01486405
-0.16741872 -0.05022904 -0.22648671 0.22648503 0.19270618 0.011637457 -0.23225111 -0.110821664
-0.15048619 1.1349455 0.290256 0.20345838 0.09887194 0.26045278 0.28370273 -0.25564492
0.24779196 0.21822044 0.05603853 0.079621896 -0.045773637 -0.11034898 0.021865953 -0.13769342
0.18489565 0.23376203 -0.055132434 -0.07528446 0.17313553 -0.07364492 0.20732027 -0.117219746
0.10140955 0.012413078 0.05081485 0.08828905 0.2334461 -0.121818475 0.11035745 0.29992348
-0.2891942 -0.023519263 -0.11812943 0.014689484 0.007469674 0.19925003 0.030961353 -0.011033481
0.2534199 0.008746974 0.10034923 -0.0039588735 0.1703385 0.03028233 0.49090078 -0.14712177
0.16657878 -0.9742287 -0.31006104 -0.49732918 -0.0161519 -0.009611027 -0.23602547 -0.17502703
-0.31533954 -0.194456 -0.0038554345 0.078959085 0.097976275 0.27309927 -0.0974166 0.024404885
0.038536858 0.090709984 -0.105332695 0.010161439 0.08308847 0.16806893 -0.07150413 0.035823956
0.22314811 -0.12034686 -0.06996484 0.2889137 0.050585616 -0.13392225 0.2029687 -0.08092969
-0.1564254 0.31060398 0.08493638 0.12904978 -0.32493082 -0.08682541 0.113224 -0.09307477
0.0040178825 0.14028437 0.19333348 0.048417803 0.018117534 0.24612895 0.10759003 0.07049586
0.7368561 -0.3149723 -0.45939946 -0.62322 -0.05946829 -0.09706721 -0.12735727 -0.016627174
-0.45358926 0.040912747 0.17622364 -0.12759739 0.13611509 -0.10558915 0.15427068 0.18083465
0.0007736709 0.024001373 0.16017886 0.14306794 0.1967321 0.089634076 -0.008494518 0.0101332385
0.0357904 -0.19377495 -0.16557248 0.13448861 -0.3342147 -0.07845053 -0.18517868 0.033904906
0.06697524 0.06347758 0.24172176 0.22289185 0.21027072 0.017804934 -0.17319074 -0.06809341
-0.3153364 -0.347347 -0.22020295 0.1131124 0.12677233 -0.065616325 0.34436798 0.16935061
0.065345496 0.8435347 0.22625059 0.16311929 0.12473183 0.068620406 0.15621433 0.30851123
0.25977352 0.043441035 0.1823321 0.04858835 0.08072973 -0.53325313 -0.2406725 -0.17514707
0.028679097 0.1335778 0.003785938 -0.03332121 -0.016203692 0.051791232 0.22207123 -0.007035924
0.2900793 0.25708497 -0.01836324 0.079193 -0.025837542 0.0010039567 0.27097535 0.34066033
00000000: 1e6f fdbc a9fe cfbd 7ad0 84be 1a86 c23c
00000010: 31fb 00bd 12ab cbbd f82c dd3d 053f 763b
00000020: 3585 63bd 3f3a 363e 305a b2ba 3bc9 1f3c
00000030: 4f89 21bd 0aee d6bd 57fa 853e 2e17 8c3e
00000040: 1a51 06be c6bf 93bd 3ca8 0abe 1d7f 743d
00000050: 4d80 8fbe c703 3c3e 5775 433e c189 fa3d
00000060: 1868 393e d55f 0f3e db45 d13d ef4a 873e
00000070: 271f f4bb 4d24 ab3d 6e1b 2a3f 42e2 b6be
00000080: 51a3 f03e ad47 55bf 1e2e 7abe 825e 0bbf
00000090: 598e 9d3d 9036 0f3d 0228 b23c 45f9 d4bc
000000a0: e92a acbe 063d 68be b9a3 473e 732b 1dbe
000000b0: e429 88b8 c084 353e e436 36bd 53d2 c63e
000000c0: 20fe 173e 852e 0fbe 78b1 813e 9347 7b3e
000000d0: 3986 4c3d add7 9a3d 57df 7abc d8e6 10bd
000000e0: 4036 b2bc 5b87 94bd df4b 053d 9de4 ffbc
000000f0: 5199 14be bccc 2fbc a0e1 6fbd 2a20 dfbd
00000100: ba29 3a3e 261a b1bc d45c 223e 6fc4 613e
00000110: 7b34 e83d 796e 3e3d d9a3 acbd 5888 73bc
00000120: d06f 2bbe f7bc 4dbd 22ec 67be b1eb 673e
00000130: c554 453e 08ab 3e3c 3cd3 6dbe 78f6 e2bd
00000140: 0d19 1abe e545 913f 6f9c 943e 6557 503e
00000150: 5f7d ca3d 115a 853e 7c41 913e e4e3 82be
00000160: 2dbd 7d3e 2e75 5f3e a888 653d ce10 a33d
00000170: 237d 3bbd a5fe e1bd 3a20 b33c 81ff 0cbe
00000180: 4955 3d3e 505f 6f3e 8cd2 61bd bd2e 9abd
00000190: 714a 313e 26d3 96bd c44b 543e e810 f0bd
000001a0: cfaf cf3d 3960 4b3c 3b23 503d e4d0 b43d
000001b0: 7f0c 6f3e f77b f9bd 1603 e23d 928f 993e
000001c0: 4311 94be 78ab c0bc d8ed f1bd 29ac 703c
000001d0: 2bc4 f43b 3308 4c3e aaa2 fd3c c6c5 34bc
000001e0: 41c0 813e 784f 0f3c e683 cd3d 70b9 81bb
000001f0: 376d 2e3e a612 f83c 5957 fb3e 17a7 16be
00000200: a193 2a3e 0d67 79bf 52c0 9ebe eea1 febe
00000210: fd50 84bc 9277 1dbc a9b0 71be 493a 33be
00000220: 2f74 a1be 791f 47be 75ab 7cbb 4db5 a13d
00000230: c9a7 c83d abd3 8b3e 5b82 c7bd c1ec c73c
00000240: d3d8 1d3d 28c6 b93d abb8 d7bd 2a7c 263c
00000250: 4a2a aa3d 431a 2c3e c270 92bd 24bc 123d
00000260: f080 643e 6a78 f6bd ba49 8fbd 7fec 933e
00000270: dd32 4f3d ea22 09be 07d7 4f3e 77be a5bd
00000280: fb2d 20be 7c07 9f3e 20f3 ad3d a025 043e
00000290: 555d a6be 85d1 b1bd fce1 e73d fc9d bebd
000002a0: 71a8 833b b5a6 0f3e 36f9 453e bf51 463d
000002b0: 396b 943c 3a09 7c3e 2958 dc3d 2260 903d
000002c0: 9aa2 3c3f 0d44 a1be 6836 ebbe 598b 1fbf
000002d0: 0695 73bd 2ccb c6bd f269 02be b635 88bc
000002e0: da3c e8be 2094 273d f873 343e e4a8 02be
000002f0: c161 0b3e 203f d8bd 22f9 1d3e b82c 393e
00000300: 2dd0 4a3a 879e c43c ed05 243e 6780 123e
00000310: 2474 493e 1292 b73d 972c 0bbc e205 263c
00000320: f498 123d f16c 46be d58b 29be 62b7 093e
00000330: 301e abbe acaa a0bd 7b9f 3dbe dfdf 0a3d
00000340: 512a 893d 8900 823d e985 773e c33d 643e
00000350: 3551 573e a7db 913c ea58 31be 8f74 8bbd
00000360: c673 a1be 77d7 b1be e27c 61be 79a7 e73d
00000370: 9bd0 013e da61 86bd 0051 b03e 3f6a 2d3e
00000380: dcd3 853d e4f1 573f 3cae 673e be08 273e
00000390: 6773 ff3d db88 8c3d a6f6 1f3e 2ff5 9d3e
000003a0: 0901 853e 3aef 313d 44b5 3a3e 9404 473d
000003b0: a155 a53d 4783 08bf da72 76be c159 33be
000003c0: 6df0 ea3c 9ec8 083e 801d 783b d27b 08bd
000003d0: 9bbd 84bc 0b23 543d a466 633e 9c8d e6bb
000003e0: 4685 943e a4a0 833e 816e 96bc f12f a23d
000003f0: 41a9 d3bc 3297 833a 48bd 8a3e 086b ae3e

conv3.bias f4 [8]
0.17343278 0.14909548 0.088386185 0.08493781 -0.12948948 -0.023034038 -0.15150158 0.11258529
00000000: 5d98 313e 7cac 183e d103 b53d e0f3 ad3d
00000010: e498 04be e1b1 bcbc 3b23 1bbe 1e93 e63d

t_conv1.weight f4 [8, 8, 3]
-0.6265557 -0.36126664 0.44198927 0.031274848 0.09521368 -0.0744988 -0.09083956 -0.37471163
-0.11883846 -0.92236036 0.23624875 0.36141258 0.3401424 0.25657657 0.034920473 0.17122203
-0.11902787 -1.4735292 0.14085399 0.22764541 0.1654464 -0.083172195 0.053287487 0.37303087
-0.05551966 0.061686456 0.007815453 -0.24188201 -0.12265199 -0.53557336 0.28085685 0.16087776
0.066527545 -0.25081128 -0.14297158 0.28565538 -0.17926216 -0.17602392 0.09957662 0.20795879
-0.15112007 -1.2037553 -0.36122978 -0.34560928 -0.0074720816 0.11443514 0.022543976 -0.26712734
-0.51805115 0.0067115882 0.10031426 0.047420546 -0.012265309 0.09643179 0.0013638317 -0.13774411
0.048335463 -0.83499986 0.022666793 0.2610202 0.19893013 0.08711886 0.0018391933 0.54511625
0.07408055 -1.0599087 0.05743253 0.15704179 0.046154216 0.19837564 0.10673825 0.48380575
-0.3188011 -0.31575048 0.36429352 0.3751206 0.19804403 -0.11248193 -0.14592487 0.0021768718
0.08700932 -0.7089658 0.2717964 1.1427245 0.456871 0.03495925 0.02942665 0.5774826
0.037761312 -0.946466 0.17095812 0.24816369 0.17810392 -0.07375738 0.20156607 -0.006376752
-0.059232477 0.31055516 0.1554447 -0.07666006 -0.32866096 -0.2394877 0.2763192 0.22400104
0.029072823 0.032258622 0.1157358 -0.8384916 0.031969592 -0.29490775 0.278927 0.3748456
0.16025835 -0.2677424 -0.007888562 -0.45868313 0.17313397 0.41058284 0.12228583 0.01832418
-0.07145689 0.22375281 0.34802002 0.19992657 0.25663984 0.04555568 0.22812659 0.06778077
0.32692873 -0.60834706 0.2360818 0.6960481 0.17627281 0.16135214 -0.053479653 0.50751543
0.21640137 -0.8555067 0.3856546 0.1568636 0.18091571 -0.15490475 0.07246208 0.11080494
-0.24331595 0.053183414 0.64005065 0.27605236 0.3153583 0.41008618 0.2021255 0.21023312
-0.037593257 0.4534498 0.19329119 -1.6520095 -0.23696569 -0.33566108 0.45872667 0.22833112
0.17894678 -0.9295395 0.077543736 0.06062631 0.42903998 0.08683428 0.12620798 -0.26291886
-0.32862887 -0.0042147003 0.30810413 0.47806597 -0.010680186 -0.057075743 0.1589879 0.3417307
0.14542769 0.36570778 -0.08018668 -0.5334336 -0.19573739 -0.15111412 0.102267206 0.47170287
0.067813545 -1.1430398 -0.1556236 -0.3112056 -0.22928435 0.18230866 -0.31014475 -0.30337596
00000000: f465 20bf f1f7 b8be 6b4c e23e 0e1a 003d
00000010: 64ff c23d d492 98bd 170a babd 34da bfbe
00000020: 9461 f3bd cf1f 6cbf 31eb 713e 120b b93e
00000030: 2527 ae3e 015e 833e c508 0f3d d454 2f3e
00000040: e2c4 f3bd 9b9c bcbf 073c 103e e11b 693e
00000050: c86a 293e 2f56 aabd fb43 5a3d e7fd be3e
00000060: 9568 63bd f0aa 7c3d 630c 003c ebaf 77be
00000070: f730 fbbd 561b 09bf 78cc 8f3e 24bd 243e
00000080: 983f 883d 566a 80be 2467 12be 6c41 923e
00000090: 8090 37be 9d3f 34be d4ee cb3d 26f3 543e
000000a0: 38bf 1abe a714 9abf 1cf3 b8be b3f3 b0be
000000b0: 5dd8 f4bb f85c ea3d 25ae b83c eac4 88be
000000c0: 009f 04bf e2ec db3b 9071 cd3d 0c3c 423d
000000d0: 6ff4 48bc 087e c53d 99c2 b23a cb0c 0dbe
000000e0: 68fb 453d 8dc2 55bf b6af b93c 71a4 853e
000000f0: 57b4 4b3e 5f6b b23d 1611 f13a bd8c 0b3f
00000100: 8bb7 973d 17ab 87bf 5f3e 6b3d 90cf 203e
00000110: 340c 3d3d fc22 4b3e 9599 da3d 63b5 f73e
00000120: e639 a3be 0caa a1be ae84 ba3e cf0f c03e
00000130: 0ecc 4a3e ed5c e6bd 546d 15be d9a9 0e3b
00000140: f131 b23d c87e 35bf e628 8b3e cc44 923f
00000150: ffea e93e 6e31 0f3d 2810 f13c e6d5 133f
00000160: 9bab 1a3d 994b 72bf a50f 2f3e 9f1e 7e3e
00000170: e060 363e 1c0e 97bd 5667 4e3e 13f4 d0bb
00000180: c19d 72bd 1601 9f3e e52c 1f3e f3ff 9cbd
00000190: 4046 a8be 433c 75be b679 8d3e 8760 653e
000001a0: 212a ee3c 9e21 043d e406 ed3d 63a7 56bf
000001b0: 8cf2 023d 26fe 96be 85cf 8e3e c3eb bf3e
000001c0: c41a 243e 8815 89be 073f 01bc 84d8 eabe
000001d0: 084a 313e ea37 d23e fe70 fa3d 971c 963c
000001e0: fd57 92bd 751f 653e ae2f b23e 8db9 4c3e
000001f0: 4c66 833e 9898 3a3d 049a 693e a5d0 8a3d
00000200: 3463 a73e a2bc 1bbf 6dbf 713e 3530 323f
00000210: dc80 343e 7f39 253e 7b0d 5bbd 88ec 013f
00000220: 5298 5d3e 7d02 5bbf 8574 c53e daa0 203e
00000230: f841 393e 5a9f 1ebe 0067 943d b3ed e23d
00000240: d127 79be dad6 593d 5cda 233f bc56 8d3e
00000250: a576 a13e d1f6 d13e fdf9 4e3e 5a47 573e
00000260: 63fb 19bd 922a e83e 20ee 453e 0c75 d3bf
00000270: 22a7 72be c5db abbe 39de ea3e a2cf 693e
00000280: d33d 373e 4df6 6dbf 40cf 9e3d 4b53 783d
00000290: 21ab db3e 2cd6 b13d aa3c 013e 4d9d 86be
000002a0: 0b42 a8be 781b 8abb d3bf 9d3e 10c5 f43e
000002b0: f2fb 2ebc 41c8 69bd b9cd 223e 54f7 ae3e
000002c0: ffea 143e 0d3e bb3e ea38 a4bd 1b8f 08bf
000002d0: 626f 48be a9bd 1abe 7871 d13d 0a83 f13e
000002e0: d4e1 8a3d 214f 92bf cb5b 1fbe 5756 9fbe
000002f0: 84c9 6abe 1faf 3a3e 4bcb 9ebe 1854 9bbe

t_conv1.bias f4 [8]
0.023578966 -0.18961349 0.14026114 0.07557485 -0.010974585 0.06979272 0.13580687 0.24750976
00000000: ad28 c13c 0a2a 42be 9ea0 0f3e fdc6 9a3d
00000010: bfce 33bc 7cef 8e3d f510 0b3e 3373 7d3e

t_conv2.weight f4 [8, 16, 2]
-0.53368264 0.12538823 -0.062529996 0.12953553 -0.25350562 0.70188355 0.10024816 0.22894095
0.10762184 0.0977449 -0.026539294 -0.027084075 -0.0107731065 0.052678406 0.16214469 0.26138467
0.51459503 0.0012977829 -0.00840662 0.09445403 0.15172884 0.35633013 0.24284436 0.057589103
0.14503783 0.18183851 0.1790654 0.02928469 -0.00074468285 -0.0006058495 0.11117096 0.028626295
0.11486255 0.05122396 -0.18428358 0.21877077 0.2933624 0.10149819 -0.106113814 0.10156337
-0.42097998 0.06269154 0.3297439 0.04410505 0.02236196 -0.5260266 -0.1144011 -0.39650333
0.09960279 0.055304132 -0.3914262 -0.080914594 0.19029531 0.14537379 0.43889198 0.07302276
0.29031226 0.14161278 0.28876284 0.31517866 -0.06920401 -0.2331588 -0.16142474 0.39944398
-0.25959674 -0.116894014 -0.17546166 -0.11088644 -0.21306378 -0.20954317 0.07297608 0.10691223
0.27802822 0.2667776 -0.013863382 -0.023692831 0.25752312 0.2303891 0.22115566 0.2388053
-0.5791763 -0.17484522 -0.01690111 -0.07611597 -0.13504943 -0.25480312 -0.07881409 -0.0005818927
-0.07087927 -0.12866504 -0.089933775 -0.0657235 -0.22295941 -0.0036795344 -0.15800528 -0.11392577
0.20842208 0.09478944 -0.10215453 -0.014847336 0.37666976 0.13332516 -0.11352341 0.4417236
-0.14617515 -0.071837306 -0.15115963 0.023134308 -0.3346412 -0.33175623 -0.23602727 0.041691296
0.2354926 0.06141501 0.13085505 -0.16788389 0.14967126 0.19400634 -0.16990058 0.40334192
0.053313617 0.105838425 0.16701473 -1.213029 0.011416401 -0.516528 -0.045644376 0.031346317
0.090047084 0.29082352 -0.08803012 0.033727072 -0.14491546 0.2595184 0.5846694 -0.10727024
0.11838971 -0.45101702 0.26301447 0.1966349 -0.1597855 0.103288345 -0.0038581123 0.08202777
-0.07017224 0.030484365 0.38834822 0.044433475 0.2612069 0.038342327 0.23851271 -0.13896726
0.100898296 0.23365338 0.20345196 0.30670315 -0.0031510952 0.30805612 0.045955162 -0.18174694
-0.018477784 -0.045345545 0.104344696 0.112484075 0.040235322 -0.15364969 -0.42130235 0.3368307
0.29022127 0.04226847 -0.1697079 -0.028294949 0.11260081 0.14655188 0.4298606 0.26012278
0.5534737 -0.12822264 -0.5543494 0.05980585 -0.04063685 0.07142293 0.1242849 0.16502555
0.17338559 0.06265765 0.12139462 0.4331138 -0.1417022 -0.5955601 0.123573735 0.30522496
0.287274 0.0600388 -0.11289226 0.32036164 0.17871472 0.23758556 0.037409976 -0.08120283
-0.07381016 -0.6143325 0.24629638 0.16830508 -0.2052328 0.08129626 -0.5511386 -0.10490894
-0.5096517 -0.0795956 0.12105145 -0.10928875 0.1070917 0.21598707 0.053839218 0.24794687
0.17435814 0.054225348 0.19232948 0.10518833 -0.07910094 0.08397932 -0.18731426 0.14643794
0.17516308 0.066244505 -0.11338832 0.10515805 0.013341993 0.10665374 -0.19399185 -0.16119616
-0.31888875 -0.08678508 0.22435479 -0.19997121 0.2509843 -0.29923567 -0.6922319 0.069831304
-0.3137566 -0.1328078 -0.22440307 -0.14629927 0.2518553 0.057784513 -0.24473776 -0.1356895
0.23072626 -0.15973182 -0.18784732 -0.22563265 -0.17537664 -0.3680755 -0.14999466 0.10395056
00000000: 6d9f 08bf c665 003e ba0f 80bd f6a4 043e
00000010: 7dcb 81be a4ae 333f e84e cd3d 7f6f 6a3e
00000020: d768 dc3d 7a2e c83d ef68 d9bc 6cdf ddbc
00000030: af81 30bc 50c5 573d 4209 263e 36d4 853e
00000040: 80bc 033f 5e1a aa3a ebbb 09bc 1d71 c13d
00000050: ce5e 1b3e e770 b63e 31ac 783e 8de2 6b3d
00000060: cc84 143e e033 3a3e ec5c 373e 72e6 ef3c
00000070: d236 43ba dfd1 1eba 9aad e33d b181 ea3c
00000080: 0e3d eb3d 37d0 513d d6b4 3cbe 7205 603e
00000090: 9933 963e 48de cf3d 3352 d9bd 7500 d03d
000000a0: b08a d7be 6c64 803d 31d4 a83e 7fa7 343d
000000b0: 6e30 b73c aea9 06bf 204b eabd 7c02 cbbe
000000c0: 8cfc cb3d 9686 623d 0469 c8be 8db6 a5bd
000000d0: c6dc 423e dedc 143e 73b6 e03e f58c 953d
000000e0: cfa3 943e f102 113e b9d8 933e 195f a13e
000000f0: d5ba 8dbd 2ec1 6ebe 874c 25be ec83 cc3e
00000100: dde9 84be 2166 efbd 39ac 33be 6e18 e3bd
00000110: 642d 5abe 7c92 56be 7c74 953d cdf4 da3d
00000120: b759 8e3e 1397 883e 3d23 63bc 7817 c2bc
00000130: 12da 833e 1feb 6b3e a176 623e 6089 743e
00000140: e644 14bf a00a 33be 3274 8abc b1e2 9bbd
00000150: 664a 0abe 8e75 82be 4869 a1bd 288a 18ba
00000160: 2729 91bd c5c0 03be 332f b8bd 0b9a 86bd
00000170: 794f 64be 5824 71bb 23cc 21be ea51 e9bd
00000180: 996c 553e f720 c23d 6536 d1bd 3e42 73bc
00000190: dcda c03e 6486 083e f67e e8bd 9829 e23e
000001a0: f0ae 15be 701f 93bd 97c9 1abe 2984 bd3c
000001b0: 1756 abbe f4db a9be 22b1 71be 7ec4 2a3d
000001c0: f924 713e 4e8e 7b3d defe 053e c1e9 2bbe
000001d0: 6c43 193e 99a9 463e 6bfa 2dbe d582 ce3e
000001e0: 615f 5a3d d1c1 d83d e905 2b3e 8944 9bbf
000001f0: db0b 3b3c 2e3b 04bf 99f5 3abd ff64 003d
00000200: 9b6a b83d d2e6 943e 2349 b4bd 6625 0a3d
00000210: b864 14be 99df 843e e5ac 153f 80b0 dbbd
00000220: 4e76 f23d b4eb e6be d5a9 863e a95a 493e
00000230: cf9e 23be d788 d33d 62d8 7cbb 2dfe a73d
00000240: 77b6 8fbd 59ba f93c 94d5 c63e e0ff 353d
00000250: e9bc 853e d80c 1d3d ad3c 743e 6f4d 0ebe
00000260: c4a3 ce3d d542 6f3e b655 503e 3208 9d3e
00000270: 9b82 4ebb 88b9 9d3e 7b3b 3c3d df1b 3abe
00000280: b95e 97bc 40bc 39bd acb2 d53d 0d5e e63d
00000290: cbcd 243d 5856 1dbe f1b4 d7be 1375 ac3e
000002a0: e297 943e b421 2d3d e8c7 2dbe cfca e7bc
000002b0: 419b e63d b211 163e b016 dc3e d02e 853e
000002c0: 74b0 0d3f cc4c 03be d8e9 0dbf fbf6 743d
000002d0: d372 26bd 2f46 923d 1589 fe3d 75fc 283e
000002e0: fe8b 313e a752 803d be9d f83d 18c1 dd3e
000002f0: 621a 11be a076 18bf 3a14 fd3d 7246 9c3e
00000300: 9415 933e 3feb 753d 0f34 e7bd 7106 a43e
00000310: fe00 373e a149 733e 343b 193d ab4d a6bd
00000320: c829 97bd e544 1dbf 1e35 7c3e 2b58 2c3e
00000330: 8c28 52be a77e a63d 6b17 0dbf 80da d6bd
00000340: 8978 02bf 0503 a3bd d3e9 f73d c8d2 dfbd
00000350: e552 db3d b72b 5d3e 8386 5c3d c9e5 7d3e
00000360: f18a 323e 661b 5e3d 05f2 443e fb6c d73d
00000370: acff a1bd 5afd ab3d 4fcf 3fbe d4f3 153e
00000380: f35d 333e 33ab 873d 2338 e8bd 1b5d d73d
00000390: 6098 5a3c 476d da3d cda5 46be 9b10 25be
000003a0: 6345 a3be 60bc b1bd 43bd 653e 41c5 4cbe
000003b0: 0481 803e 6b35 99be 1c36 31bf b703 8f3d
000003c0: b4a4 a0be c5fe 07be ebc9 65be 7acf 15be
000003d0: 2ef3 803e 74af 6c3d 899c 7abe 30f2 0abe
000003e0: 8143 6c3e bd90 23be 0c5b 40be 3f0c 67be
000003f0: ef95 33be 6474 bcbe 3398 19be 08e4 d43d

t_conv2.bias f4 [16]
0.0474501 0.033370227 0.06753787 -0.014169545 -0.057264805 0.09190315 0.057217065 -0.2523425
-0.03851514 -0.26500183 0.13762736 -0.046561103 0.075889625 -0.0644367 -0.0022102622 -0.16878155
00000000: 095b 423d 38af 083d 4b51 8a3d 6127 68bc
00000010: 808e 6abd b837 bc3d 715c 6a3d 0933 81be
00000020: 0dc2 1dbd 52ae 87be 30ee 0c3e dbb6 3ebd
00000030: 056c 9b3d 63f7 83bd 0cda 10bb 12d5 2cbe

t_conv3.weight f4 [16, 32, 2]
0.2227464 0.1454524 0.08295487 0.15855698 -0.080927186 -0.12776728 -0.02269112 -0.28590342
-0.13359168 -0.2943962 0.15270837 0.16300112 0.0615808 0.073332354 0.16181645 0.020236736
0.2240473 0.018267488 0.036576692 0.046757437 0.21306546 0.17489792 0.27119958 0.21809264
0.04595258 0.22594462 0.114017874 0.28014407 -0.15525539 -0.024627179 0.12393949 0.1363699
-0.23889436 -0.21599762 -0.22179236 -0.16260253 0.19310783 0.047004245 -0.24300349 -0.09737922
-0.37829664 0.08329113 0.0438189 -0.05786684 -0.0016712133 -0.2343015 -0.07099562 -0.4084953
0.20246579 0.22284138 0.041251052 0.0033073686 0.09886564 0.0628194 -0.062311973 -0.12608443
-0.070513174 -0.18857929 0.106873736 0.060328633 0.027964681 0.14423172 0.056298196 -0.008233618
0.07066605 0.23894976 -0.08635235 -0.06252305 -0.041743826 -0.25472698 -0.1993743 -0.46282914
-0.11553868 0.09809858 -0.0024998018 0.13696432 0.17465737 0.14536309 0.14613399 0.20615193
0.13583829 0.20871411 0.06535878 0.062406503 0.186025 0.070592925 0.19877101 0.13057403
0.039121788 0.20984162 0.038850334 0.21893635 -0.030449273 -0.23995674 0.078549944 -0.24607602
0.23983428 0.41163373 -0.110449485 0.067432225 0.11386128 0.22984467 -0.33166638 0.0034358068
-0.017065126 0.38556415 0.060412925 -0.118739694 0.08955379 -0.3121169 -0.054899093 -0.1921951
0.099273175 0.20801482 0.23513108 0.26514986 0.19251335 0.17683871 0.21846637 0.106993146
-0.06126991 -0.24074495 -0.088715725 -0.09544556 0.0510433 0.025895631 -0.031085722 0.09496479
0.09845299 0.1878054 -0.020776035 0.008863938 -0.015687281 0.13555449 -0.3139629 0.3575604
0.026967527 -0.21383253 0.079816304 -0.014016538 0.04184738 0.07733985 0.08866046 0.05015689
0.2007243 0.031855308 0.19379443 0.23121992 0.030528078 0.15568456 0.00040071754 0.14907748
0.076948434 0.19170532 -0.052740317 0.33927703 -0.11827895 -0.1481737 -0.06489797 -0.23060843
-0.069331296 0.25123426 -0.04565143 -0.08260231 0.044193037 0.23118602 -0.08719958 -0.032494694
-0.18361634 -0.027408542 0.12360055 -0.005424738 0.044257425 0.11228207 0.05026196 0.07533378
0.054264683 0.14518255 0.14617363 0.15811402 0.19090289 0.10883546 0.17028502 -0.09727043
-0.11584258 0.13762149 0.2384962 0.012228921 -0.09413116 0.12902473 -0.08352321 0.24336083
0.013705133 -0.1466578 -0.2616387 0.048456367 0.08918731 0.14843483 0.22612283 0.2800629
-0.15924415 0.039139275 0.141013 0.018180389 0.1891027 -0.2377479 -0.11732387 0.024626967
-0.09012116 0.019427598 0.0698481 0.19076522 0.1680422 -0.15707758 0.13331315 -0.00040101368
0.07589981 -0.094382815 -0.021500183 0.029916836 0.09895446 0.21375212 0.107496016 -0.6360849
-1.5254369 -0.25197297 0.16060469 0.10083539 -0.0077565396 -0.03924207 0.21870609 0.31217954
-0.047189083 -0.012888495 0.21620484 0.047485113 -0.0018686188 0.37094626 -0.13823535 0.030366015
0.061182763 0.12009672 -0.00791709 0.035751294 0.036046904 -0.03991828 -0.06775717 -0.016043128
-0.112901464 0.031068949 -0.06765692 -0.05396849 -0.08312674 -0.5306048 0.045090493 0.02131579
00000000: a217 643e 79f1 143e 3ee4 a93d c35c 223e
00000010: 27bd a5bd 6dd5 02be bae2 b9bc ef61 92be
00000020: 42cc 08be 19bb 96be 955f 1c3e c4e9 263e
00000030: 263c 7c3d 462f 963d 36b3 253e 83c7 a53c
00000040: a86c 653e b3a5 953c 71d1 153d ba84 3f3d
00000050: d52d 5a3e 7118 333e acda 8a3e ad53 5f3e
00000060: c638 3c3d 075e 673e 3482 e93d 0b6f 8f3e
00000070: 45fb 1ebe f0be c9bc fdd3 fd3d 8da4 0b3e
00000080: b9a0 74be 7b2e 5dbe 891d 63be 4781 26be
00000090: 0fbe 453e 8687 403d e8d5 78be c26e c7bd
000000a0: 19b0 c1be 8a94 aa3d 727b 333d c805 6dbd
000000b0: 9d0c dbba bbec 6fbe 2766 91bd 4c26 d1be
000000c0: 3153 4f3e 8830 643e ddf6 283d 70c0 583b
000000d0: 127a ca3d 75a7 803d d73a 7fbd 471c 01be
000000e0: 3669 90bd ee1a 41be 9ee0 da3d 281b 773d
000000f0: 3016 e53c 7bb1 133e f098 663d 4ce6 06bc
00000100: 5db9 903d 3faf 743e 80d9 b0bd 160c 80bd
00000110: 93fb 2abd 936b 82be c728 4cbe f1f7 ecbe
00000120: 8b9f ecbd e9e7 c83d b7d3 23bb 6040 0c3e
00000130: 62d9 323e 10da 143e 26a4 153e 7e19 533e
00000140: 3119 0b3e 27b9 553e d3da 853d f69d 7f3d
00000150: 567d 3e3e 0693 903d a18a 4b3e 33b5 053e
00000160: 2b3e 203d b9e0 563e 8721 1f3d da30 603e
00000170: c170 f9bc 38b7 75be cbde a03d 5afb 7bbe
00000180: 1e97 753e a8c1 d23e 5733 e2bd e819 8a3d
00000190: 1a30 e93d 675c 6b3e 2dd0 a9be 462b 613b
000001a0: 2acc 8bbc aa68 c53e 8b73 773d cc2d f3bd
000001b0: fa67 b73d c9cd 9fbe dfdd 60bd cbce 44be
000001c0: bc4f cb3d d601 553e 34c6 703e b9c1 873e
000001d0: 3822 453e 3515 353e a6b5 5f3e 391f db3d
000001e0: 28f6 7abd d885 76be 97b0 b5bd f678 c3bd
000001f0: c812 513d 1323 d43c 7ca7 febc e67c c23d
00000200: b9a1 c93d 0f50 403e 8132 aabc 0d3a 113c
00000210: 9d82 80bc ccce 0a3e bfbf a0be 2812 b73e
00000220: 01eb dc3c eaf6 5abe bb76 a33d 9fa5 65bc
00000230: 2968 2b3d 5b64 9e3d 9e93 b53d 5071 4d3d
00000240: ac8a 4d3e b67a 023d 0c72 463e eac4 6c3e
00000250: 0516 fa3c c66b 1f3e 6617 d239 c4a7 183e
00000260: 2497 9d3d 664e 443e 3b06 58bd b8b5 ad3e
00000270: 3c3c f2bd d9ba 17be 3ae9 84bd 9e24 6cbe
00000280: 91fd 8dbd c7a1 803e fefc 3abd 662b a9bd
00000290: c203 353d 07bc 6c3e b295 b2bd 2819 05bd
000002a0: ec05 3cbe e187 e0bc 4922 fd3d 00c2 b1bb
000002b0: 4647 353d 24f4 e53d 7cdf 4d3d 9948 9a3d
000002c0: a544 5e3d bcaa 143e 8aae 153e a4e8 213e
000002d0: 0c7c 433e 20e5 de3d 325f 2e3e b835 c7bd
000002e0: e03e edbd a6ec 0c3e 5938 743e d05b 483c
000002f0: d6c7 c0bd 0f1f 043e 370e abbd 9533 793e
00000300: 7f8b 603c 762d 16be 82f5 85be 2f7a 463d
00000310: d6a7 b63d 4dff 173e be8c 673e 6864 8f3e
00000320: e610 23be 8150 203d b665 103e 0aef 943c
00000330: 23a4 413e 2f74 73be 7f47 f0bd 7ebe c93c
00000340: 7191 b8bd a026 9f3c 850c 8f3d f557 433e
00000350: 4113 2c3e f2d8 20be 3e83 083e 253f d2b9
00000360: 5c71 9b3d c74b c1bd 2721 b0bc 2714 f53c
00000370: a3a8 ca3d d6e1 5a3e df26 dc3d 76d6 22bf
00000380: 8441 c3bf 9a02 81be 8e75 243e c982 ce3d
00000390: 922a febb 4bbc 20bd 7df4 5f3e ffd5 9f3e
000003a0: 5749 41bd 442a 53bc cd64 5d3e c07f 423d
000003b0: 71ec f4ba abec bd3e 918d 0dbe 26c2 f83c
000003c0: c79a 7a3d 45f5 f53d afb6 01bc f36f 123d
000003d0: eba5 133d 5a81 23bd 45c4 8abd e16c 83bc
000003e0: e238 e7bd 4f84 fe3c b68f 8abd 100e 5dbd
000003f0: 5a3e aabd b7d5 07bf cfb0 383d 749e ae3c

t_conv3.bias f4 [32]
0.15551943 0.026707057 -0.040795956 -0.042424344 -0.08546279 0.07303387 0.14095233 0.1066381
0.11752564 0.06585718 0.1471884 0.07153457 0.13703823 0.12443598 -0.030682357 -0.011067782
0.18093003 0.077848315 0.17556858 0.0033299632 0.055958 -0.44200492 -0.332476 -0.1865606
0.09485874 0.017004685 0.021796698 -0.10166967 -0.3348906 -0.28455305 -0.36089876 -0.058000658
00000000: 7c40 1f3e c2c8 da3c a919 27bd 26c5 2dbd
00000010: 1e07 afbd c892 953d cf55 103e 1465 da3d
00000020: 48b1 f03d 21e0 863d 8eb8 163e b780 923d
00000030: c053 0c3e 4bd8 fe3d 9159 fbbc a455 35bc
00000040: b945 393e f06e 9f3d 40c8 333e 833b 5a3b
00000050: 3734 653d 784e e2be 4b3a aabe be09 3fbe
00000060: 4d45 c23d 694d 8b3c fd8e b23c 3038 d0bd
00000070: c876 abbe f0b0 91be b9c7 b8be 1992 6dbd

conv_out.weight f4 [1, 32, 3]
-0.11001185 -0.123286426 -0.07053472 -0.20005193 -0.054789063 0.025293685 0.22385007 0.13293126
0.03503129 0.030989941 -0.54780227 -0.44058245 -0.3109472 -0.6791006 -0.7344295 -0.09831501
-0.052446697 -0.11813439 -0.0064720805 -0.15660726 -0.09735539 -0.11049522 0.03171536 -0.17381768
-0.14623925 0.0065371282 -0.14765148 -0.16367728 0.012017035 -0.12894842 -0.016424669 -0.14020666
-0.16359258 -0.21083228 -0.16539735 -0.14629339 -0.1761868 -0.1642252 -0.042931043 -0.23196772
-0.073814146 0.027374772 0.19443887 0.07636635 0.25381222 0.14742354 -0.1072265 -0.19872454
0.16542152 0.06513757 -0.21982872 0.1995199 0.13264237 0.28665093 -0.16513324 -0.08343072
-0.17002225 0.123863555 0.14792474 0.20482899 0.15002568 0.056228593 -0.22379243 0.5603303
1.2759717 1.0943764 -0.16932368 -1.9521172 0.0416339 0.21791022 0.20616615 0.2705091
-0.16319571 -0.02595862 -0.13255265 -0.30946568 -0.082768224 -0.021293841 -0.11608069 -0.0064189634
-0.15043359 -0.15221274 0.1786209 0.008047541 0.5385356 0.72859085 0.5492552 0.18463287
0.051978342 0.5105181 1.1695341 1.2023218 1.0243514 -0.20708676 -0.075797066 0.063335836
00000000: e54d e1bd 987d fcbd 8274 90bd 6ada 4cbe
00000010: 7f6a 60bd b434 cf3c f438 653e 221f 083e
00000020: f87c 0f3d 9ede fd3c c53c 0cbf 0694 e1be
00000030: 7934 9fbe 89d9 2dbf 9203 3cbf 6159 c9bd
00000040: 59d2 56bd 71f0 f1bd bf13 d4bb a75d 20be
00000050: 4362 c7bd 514b e2bd f7e7 013d 43fd 31be
00000060: bebf 15be 6835 d63b f331 17be 049b 27be
00000070: 19e3 443c 0e0b 04be 078d 86bc 5692 0fbe
00000080: d084 27be 6be4 57be ec5d 29be efcd 15be
00000090: 506a 34be a72a 28be 76d8 2fbd f288 6dbe
000000a0: df2b 97bd 0f41 e03c fc1a 473e f665 9c3d
000000b0: adf3 813e 32f6 163e 9199 dbbd 727e 4bbe
000000c0: 4264 293e d966 853d c81a 61be f24e 4c3e
000000d0: 67d3 073e e9c3 923e b018 29be badd aabd
000000e0: 501a 2ebe 2dac fd3d 9579 173e b1be 513e
000000f0: 55a0 193e f44f 663d d829 65be ce71 0f3f
00000100: 0a53 a33f 8714 8c3f 3063 2dbe fade f9bf
00000110: 4f88 2a3d db23 5f3e 381d 533e 2b80 8a3e
00000120: c71c 27be 2ca7 d4bc e2bb 07be 4972 9ebe
00000130: 6382 a9bd 6c70 aebc b6bb edbd 2b56 d2bb
00000140: 430b 1abe a8dd 1bbe 66e8 363e d5d9 033c
00000150: 78dd 093f ee84 3a3f fd9b 0c3f 6610 3d3e
00000160: 3ee7 543d 50b1 023f 4bb3 953f aee5 993f
00000170: f21d 833f 8d0e 54be 7e3b 9bbd 38b6 813d
